results/checkpoint/my_netTCR_model.tflite (tflite, 406736 bytes, 73 tensors)

model/conv1d_10/BiasAdd/ReadVariableOp f4 [16]
0	0xbe6ec2fc	-0.23316568
1	0xbe8b98b9	-0.27264956
2	0xbd9fa78f	-0.07795631
3	0xbdfad80f	-0.12248241
4	0xbcb38dc3	-0.021918183
5	0xbd8b7c32	-0.06810798
6	0xbe085d31	-0.133168
7	0xbdd2e2e1	-0.1029718
8	0xbdce7a85	-0.100819625
9	0xbe48158d	-0.19539471
10	0xbd428325	-0.04748835
11	0xbe34849f	-0.17628716
12	0xbe00117b	-0.12506668
13	0xbe2641b4	-0.16236001
14	0xbd45bb46	-0.0482743
15	0xbdc02185	-0.09381393

model/conv1d_11/BiasAdd/ReadVariableOp f4 [16]
0	0xbe596dc7	-0.21233283
1	0xbd1c9639	-0.0382292
2	0xbe4c2e54	-0.19939548
3	0xbe376492	-0.17909458
4	0xbe2eb74a	-0.17062107
5	0xbe969465	-0.2941009
6	0xbe4e7030	-0.20159984
7	0xbe34089a	-0.17581406
8	0xbd9ad317	-0.075597934
9	0xbd8611e5	-0.06546382
10	0xbe525fc7	-0.20544349
11	0xbe4e15e5	-0.2012554
12	0xbe4b2c42	-0.19841102
13	0xbe174faf	-0.1477649
14	0xbdf31035	-0.118683256
15	0xbe1c8175	-0.15283759

model/conv1d_12/BiasAdd/ReadVariableOp f4 [16]
0	0xbe119f00	-0.1422081
1	0xbd8c7225	-0.06857709
2	0xbd74c998	-0.059762567
3	0xbdecc0ab	-0.11560186
4	0xbe342bb7	-0.17594801
5	0xbc9e349f	-0.019312201
6	0xbd2390c5	-0.039932985
7	0xbdb776e0	-0.089582205
8	0xbe1c13eb	-0.15241973
9	0xbe383aa4	-0.1799112
10	0xbdc07ba7	-0.09398585
11	0xbdbc4086	-0.09191994
12	0xbe18de1e	-0.14928481
13	0xbe1ac81b	-0.15115397
14	0xbe14788a	-0.14499107
15	0xbdf4e675	-0.11958019

model/conv1d_13/BiasAdd/ReadVariableOp f4 [16]
0	0xbcb0d63e	-0.021586534
1	0xbe195606	-0.14974222
2	0xbe30789f	-0.17233513
3	0xbe03bf22	-0.1286588
4	0xbe51d656	-0.20491919
5	0xbe1acb18	-0.15116537
6	0xbdda8e6a	-0.106716946
7	0xbd9a0b94	-0.075217396
8	0xbe3af343	-0.1825686
9	0xbd3948b0	-0.045235336
10	0xbe720c46	-0.23637494
11	0xbdf85d68	-0.12127191
12	0xbdb154e8	-0.08658773
13	0xbdef2bb6	-0.11678259
14	0xbe16e2d9	-0.14734973
15	0xbd293e9a	-0.041319467

model/conv1d_14/BiasAdd/ReadVariableOp f4 [16]
0	0xbd84408b	-0.06457623
1	0xbe4a3063	-0.1974502
2	0xbd88e437	-0.066841535
3	0xbd357273	-0.0442986
4	0xbd644fdc	-0.055740222
5	0xbdeb0048	-0.11474663
6	0xbe064278	-0.13111293
7	0xbe08377a	-0.13302413
8	0xbccc945d	-0.024973089
9	0xbe6d4a28	-0.2317282
10	0xbd8efa94	-0.06981388
11	0xbe0d6c02	-0.13810733
12	0xbe2eaff5	-0.1705931
13	0xbd0cd93f	-0.03438687
14	0xbe369b07	-0.17832576
15	0xbdef4b6d	-0.11684308

model/conv1d_15/BiasAdd/ReadVariableOp f4 [16]
0	0xbe0902c1	-0.13379957
1	0xbdbc1651	-0.09183944
2	0xbe8725f8	-0.26396155
3	0xbe9fd0d6	-0.31214017
4	0xbe39f4fe	-0.18159863
5	0xbe39ed3d	-0.18156905
6	0xbe0be119	-0.13660087
7	0xbe503d94	-0.2033599
8	0xbe18bf45	-0.14916714
9	0xbe9219cb	-0.28535303
10	0xbc464bca	-0.01210303
11	0xbe521e7c	-0.20519441
12	0xbe2e6f09	-0.17034544
13	0xbcaacaa9	-0.020848589
14	0xbdaed473	-0.08536615
15	0xbe1f8abf	-0.15580271

model/conv1d_16/BiasAdd/ReadVariableOp f4 [16]
0	0xbe8c8188	-0.27442575
1	0xbe13a534	-0.14418489
2	0xbdd993f2	-0.106239215
3	0xbe24e7a1	-0.16103984
4	0xbe1f797c	-0.15573686
5	0xbe7544c6	-0.23952016
6	0xbe552843	-0.2081614
7	0xbe641937	-0.22275244
8	0xbe55b56b	-0.20869987
9	0xbdcd5b44	-0.10027173
10	0xbe24b74c	-0.16085547
11	0xbe882db4	-0.2659737
12	0xbe306a61	-0.1722808
13	0xbe30f30c	-0.17280215
14	0xbe3a4062	-0.18188623
15	0xbe45a643	-0.19301705

model/conv1d_17/BiasAdd/ReadVariableOp f4 [16]
0	0xbe39f523	-0.18159918
1	0xbe3523af	-0.17689393
2	0xbe4f302b	-0.20233218
3	0xbdb9c8d0	-0.09071505
4	0xbdbd794b	-0.092516504
5	0xbde851c4	-0.113437206
6	0xbe87338e	-0.2640652
7	0xbe6f29a0	-0.23355722
8	0xbe3fa213	-0.1871417
9	0xbe39466c	-0.1809327
10	0xbde1ca66	-0.110249326
11	0xbe1b52d3	-0.15168314
12	0xbe2c5bac	-0.16831845
13	0xbdf39130	-0.11892927
14	0xbe539f21	-0.20666172
15	0xbe475804	-0.19467169

model/conv1d_18/BiasAdd/ReadVariableOp f4 [16]
0	0xbd7ccc49	-0.06171826
1	0xbe9c3835	-0.30511633
2	0xbda80a8d	-0.082051374
3	0xbe748d0b	-0.23881929
4	0xbdb0feda	-0.08642359
5	0xbd2d2711	-0.042273585
6	0xbe2e6d94	-0.17033988
7	0xbe396e6b	-0.18108527
8	0xbd55759a	-0.052114107
9	0xbdf3d7cb	-0.119063936
10	0xbe0699dc	-0.1314463
11	0xbe1ccabc	-0.15311712
12	0xbcfff7ad	-0.03124603
13	0xbdcae09f	-0.09906124
14	0xbe594ed4	-0.21221477
15	0xbd8e40e0	-0.06945968

model/conv1d_19/BiasAdd/ReadVariableOp f4 [16]
0	0xbdddddc7	-0.10833316
1	0xbe441823	-0.19149832
2	0xbd46c539	-0.04852793
3	0xbe3e079b	-0.18557589
4	0xbe328acc	-0.1743576
5	0xbe3c2bb1	-0.18376042
6	0xbe3da961	-0.18521644
7	0xbe3533b7	-0.17695509
8	0xbd815091	-0.06314195
9	0xbe277bf1	-0.16355874
10	0xbe622d11	-0.22087504
11	0xbe4804ba	-0.19533053
12	0xbe409974	-0.18808538
13	0xbe7cb7df	-0.24679516
14	0xbe4be3ac	-0.19911069
15	0xbd92d040	-0.07168627

model/conv1d_20/BiasAdd/ReadVariableOp f4 [16]
0	0xbe5ee988	-0.21768773
1	0xbe073dd0	-0.13207173
2	0xbe0dc227	-0.13843594
3	0xbe493515	-0.19649155
4	0xbd1ba64a	-0.038000382
5	0xbd922914	-0.07136741
6	0xbdb88aa7	-0.09010821
7	0xbde3c1cc	-0.11120948
8	0xbe507cb6	-0.20360073
9	0xbd85589e	-0.06511043
10	0xbe2b9180	-0.16754723
11	0xbe455f33	-0.19274597
12	0xbe306de5	-0.17229421
13	0xbe42fb76	-0.19041237
14	0xbde9c59a	-0.11414643
15	0xbdb7f872	-0.08982934

model/conv1d_21/BiasAdd/ReadVariableOp f4 [16]
0	0xbd7d1bbd	-0.06179403
1	0xbe07569f	-0.13216637
2	0xbe23e1b4	-0.16004068
3	0xbd8eeabe	-0.06978367
4	0xbdebfcad	-0.115228035
5	0xbe6d9b4a	-0.2320377
6	0xbe27f52a	-0.16402116
7	0xbe400a2b	-0.18753879
8	0xbdfefd22	-0.12450625
9	0xbe03a179	-0.12854566
10	0xbd728f60	-0.059218764
11	0xbdc64a04	-0.09682086
12	0xbe062142	-0.13098624
13	0xbe68a3c7	-0.22718726
14	0xbdef4b20	-0.11684251
15	0xbd922fcf	-0.07138025

model/conv1d_22/BiasAdd/ReadVariableOp f4 [16]
0	0xbde52f66	-0.11190681
1	0xbdbc3af5	-0.09190933
2	0xbddc5f4c	-0.10760364
3	0xbe229476	-0.15876946
4	0xbde9935a	-0.11405058
5	0xbaf96342	-0.0019026774
6	0xbe1130f5	-0.14178832
7	0xbe271962	-0.16318277
8	0xbe07cbe3	-0.1326137
9	0xbe055ef3	-0.13024502
10	0xbda5a1df	-0.08087515
11	0xbe2735ee	-0.16329166
12	0xbe115ef0	-0.14196372
13	0xbc51b334	-0.012799073
14	0xbe7dc161	-0.247808
15	0xbe2f69f9	-0.17130269

model/conv1d_23/BiasAdd/ReadVariableOp f4 [16]
0	0xbe286f30	-0.16448665
1	0xbd8eb35d	-0.069678046
2	0xbdf7e18d	-0.12103567
3	0xbdc1e811	-0.09468091
4	0xbdbbe0f4	-0.09173766
5	0xbcc985cf	-0.024599938
6	0xbd2d7c7e	-0.042355053
7	0xbdf926ab	-0.121655785
8	0xbe1bf2ae	-0.15229294
9	0xbe24d500	-0.16096878
10	0xbe1292a1	-0.14313747
11	0xbe2af4bc	-0.16694921
12	0xbd9faa42	-0.07796146
13	0xbd931962	-0.07182576
14	0xbdf419a6	-0.119189546
15	0xbe20515f	-0.1565604

model/conv1d_24/BiasAdd/ReadVariableOp f4 [16]
0	0xbd546492	-0.051853724
1	0xbe3a7ecd	-0.18212433
2	0xbdb5673a	-0.088575795
3	0xbe24f6df	-0.16109799
4	0xbcf1be96	-0.029509824
5	0xbdab2221	-0.08356119
6	0xbdcb6aef	-0.09932505
7	0xbe2a0544	-0.16603571
8	0xbe163842	-0.14669898
9	0xbe3c8b86	-0.18412599
10	0xbd690c86	-0.05689671
11	0xbdfcbb7b	-0.123404466
12	0xbdbec8dd	-0.093156554
13	0xbdf76c8e	-0.12081252
14	0xbdce32ca	-0.10068281
15	0xbe17fd9d	-0.1484284

model/conv1d_25/BiasAdd/ReadVariableOp f4 [16]
0	0xbe5b82a9	-0.21436562
1	0xbdfe0e75	-0.12405101
2	0xbe25ee4e	-0.16204187
3	0xbe4a5379	-0.19758405
4	0xbd9d004f	-0.076660745
5	0xbe1d0812	-0.1533511
6	0xbe41ccd6	-0.18925795
7	0xbe102d1c	-0.14079708
8	0xbe0833e6	-0.13301048
9	0xbd888641	-0.06666232
10	0xbe299b99	-0.16563262
11	0xbe71a14e	-0.23596689
12	0xbe68f22d	-0.22748633
13	0xbdba5ee7	-0.091001324
14	0xbe17e650	-0.14833951
15	0xbeb8676a	-0.360164

model/conv1d_26/BiasAdd/ReadVariableOp f4 [16]
0	0xbd75f577	-0.060048547
1	0xbe3e1d8d	-0.1856596
2	0xbe1ebb1d	-0.15501066
3	0xbdfc395a	-0.123156264
4	0xbe38a993	-0.18033437
5	0xbd99cb7c	-0.07509515
6	0xbe0c4d86	-0.13701448
7	0xbe39019a	-0.18067017
8	0xbdd86af8	-0.10567278
9	0xbe2a9440	-0.16658115
10	0xbe2b0300	-0.16700363
11	0xbe39ac23	-0.18132071
12	0xbe65a5a3	-0.22426467
13	0xbde408aa	-0.11134465
14	0xbe02d018	-0.12774694
15	0xbdf00145	-0.11718992

model/conv1d_27/BiasAdd/ReadVariableOp f4 [16]
0	0xbe01dbff	-0.12681578
1	0xbe2b946f	-0.16755842
2	0xbdadf62e	-0.08494221
3	0xbe4fe71c	-0.20303005
4	0xbe1433d2	-0.14472893
5	0xbe6bd9f9	-0.23032369
6	0xbe2ed770	-0.1707437
7	0xbdfa0a71	-0.12209023
8	0xbde4a402	-0.111640945
9	0xbd354504	-0.04425527
10	0xbe58adce	-0.21160051
11	0xbe1277bc	-0.14303488
12	0xbd35163c	-0.044210657
13	0xbe7a4807	-0.24441539
14	0xbde60dcf	-0.112331025
15	0xbe37152b	-0.17879169

model/conv1d_28/BiasAdd/ReadVariableOp f4 [16]
0	0xbe555805	-0.20834358
1	0xbdfdf1bd	-0.123996235
2	0xbe251431	-0.16120984
3	0xbe31f9b6	-0.17380413
4	0xbdffe58b	-0.12494954
5	0xbdac88e4	-0.08424547
6	0xbde4ac0a	-0.11165626
7	0xbe0f1876	-0.13974175
8	0xbe7dbb9e	-0.24778602
9	0xbe4d2a73	-0.20035724
10	0xbd5bfaea	-0.053706087
11	0xbe491c00	-0.19639587
12	0xbe46e6c5	-0.19423969
13	0xbe243ece	-0.16039583
14	0xbe14117c	-0.14459795
15	0xbce361ee	-0.027756657

model/conv1d_29/BiasAdd/ReadVariableOp f4 [16]
0	0xbe207779	-0.15670575
1	0xbdd8c1d0	-0.10583842
2	0xbe00d730	-0.12582088
3	0xbe57f1d8	-0.2108835
4	0xbe0db118	-0.13837087
5	0xbdfa64d8	-0.12226266
6	0xbe24e21d	-0.1610188
7	0xbe278e7e	-0.1636295
8	0xbda7794c	-0.081774324
9	0xbe40bf1b	-0.18822901
10	0xbe411bb4	-0.18858224
11	0xbe2e79f5	-0.1703871
12	0xbe352ba2	-0.17692426
13	0xbdb3c569	-0.087778874
14	0xbe4651bb	-0.19367115
15	0xbe196aeb	-0.14982192

model/conv1d_30/BiasAdd/ReadVariableOp f4 [16]
0	0xbe5eceb4	-0.21758538
1	0xbe4d6241	-0.20057012
2	0xbe94c8e7	-0.29059526
3	0xbdfd9411	-0.12381757
4	0xbe174db2	-0.14775732
5	0xbd8cb4a3	-0.06870391
6	0xbd806181	-0.062685974
7	0xbe208a7b	-0.15677826
8	0xbe0f0011	-0.13964869
9	0xbd8a712f	-0.06759869
10	0xbe262552	-0.16225174
11	0xbe8718de	-0.2638616
12	0xbe17b947	-0.14816771
13	0xbe71c27c	-0.23609346
14	0x00000000	0.0
15	0xbdb98e6d	-0.09060369

model/conv1d_31/BiasAdd/ReadVariableOp f4 [16]
0	0xbe335f34	-0.17516786
1	0xbe11a6a4	-0.14223725
2	0xbe1dc250	-0.15406156
3	0xbe9dd5c5	-0.30827156
4	0xbdc36148	-0.09540039
5	0xbdadb1cf	-0.0848118
6	0xbe35c80e	-0.17752096
7	0xbe961206	-0.29310626
8	0xbe145f04	-0.1448937
9	0xbda7d821	-0.0819552
10	0xbeac7a2a	-0.33686954
11	0xbe18cf2c	-0.1492278
12	0xbe3442ec	-0.17603654
13	0xbe4de699	-0.20107497
14	0xbe53f27c	-0.20697969
15	0xbd8939b2	-0.06700458

model/conv1d_32/BiasAdd/ReadVariableOp f4 [16]
0	0xbe71e977	-0.23624216
1	0xbe8f4321	-0.27980903
2	0xbe5444d1	-0.20729376
3	0xbe583418	-0.21113622
4	0xbe62718d	-0.22113629
5	0xbe41bb7c	-0.18919176
6	0xbdd8dfe1	-0.105895765
7	0xbe685669	-0.22689213
8	0xbe00729c	-0.1254372
9	0xbdf2af86	-0.11849885
10	0xbe40c045	-0.18823345
11	0xbe29ddb2	-0.16588476
12	0xbe1019dc	-0.14072365
13	0xbe3f6a1b	-0.1869282
14	0xbe09ab5e	-0.13444278
15	0xbe083940	-0.13303089

model/conv1d_33/BiasAdd/ReadVariableOp f4 [16]
0	0xbe2d6c95	-0.16935952
1	0xbe3a8788	-0.18215764
2	0xbe21c03e	-0.15795991
3	0xbe48147c	-0.19539064
4	0xbe45f438	-0.19331443
5	0xbe2d4a24	-0.16922814
6	0xbd39b49e	-0.045338266
7	0xbdc930c9	-0.09823758
8	0xbe742121	-0.23840763
9	0xbe32bb92	-0.17454365
10	0xbe239309	-0.15974058
11	0xbe496b76	-0.196699
12	0xbe14b8e4	-0.14523655
13	0xbe206be8	-0.15666163
14	0xbe004ec1	-0.12530042
15	0xbe86fee4	-0.2636634

model/conv1d_34/BiasAdd/ReadVariableOp f4 [16]
0	0xbe08518a	-0.13312355
1	0xbdeb8c1c	-0.11501333
2	0xbe8d27ee	-0.27569526
3	0xbe446a84	-0.19181257
4	0xbded3160	-0.11581683
5	0xbdcd66d6	-0.1002938
6	0xbdbe1ed6	-0.09283225
7	0xbe7f140f	-0.24909995
8	0xbd4b0e8c	-0.04957442
9	0xbd9bef69	-0.07614023
10	0xbe1f97ac	-0.15585202
11	0xbe2e82ed	-0.17042132
12	0xbe44d0da	-0.19220296
13	0xbd87f35a	-0.066382125
14	0xbe912ce6	-0.28354567
15	0xbe84e7ff	-0.2595825

model/conv1d_5/BiasAdd/ReadVariableOp f4 [16]
0	0x3c80acda	0.015707422
1	0xbe03cda5	-0.12871416
2	0xbe149a45	-0.14511974
3	0xbd675d5e	-0.056485526
4	0xbe4df4af	-0.2011287
5	0xbdb51eed	-0.08843789
6	0xbd1c5952	-0.03817112
7	0xbc8573f3	-0.01629064
8	0xbe1cfd42	-0.15330985
9	0xbe13ee5f	-0.144464
10	0xbd9b8630	-0.075939536
11	0xbdd43f6d	-0.1036366
12	0xbe035270	-0.12824416
13	0xbe895dbd	-0.2682933
14	0xbe003aee	-0.1252248
15	0xbdad2101	-0.084535606

model/conv1d_6/BiasAdd/ReadVariableOp f4 [16]
0	0xbdd7d4d9	-0.10538644
1	0xbe051268	-0.12995303
2	0xbd55012e	-0.05200308
3	0xbe146f41	-0.14495565
4	0xbe70476d	-0.23464747
5	0xbe788021	-0.24267627
6	0xbd95d984	-0.073168784
7	0xbe0f187d	-0.13974185
8	0xbd95b31f	-0.07309555
9	0xbe217704	-0.15768057
10	0xbe06a6b8	-0.13149536
11	0xbdd3a4af	-0.10334145
12	0xbe1784d6	-0.14796767
13	0xbd74609c	-0.059662446
14	0xbe0b9771	-0.13631989
15	0xbe2f920f	-0.1714556

model/conv1d_7/BiasAdd/ReadVariableOp f4 [16]
0	0xbe864d78	-0.2623098
1	0xbe2508c8	-0.16116631
2	0xbe5e3c5b	-0.21702711
3	0xbdfa202b	-0.12213167
4	0xbdc18a30	-0.09450185
5	0xbe051a6c	-0.1299836
6	0xbe3dcb89	-0.18534674
7	0xbdb2bfad	-0.087279655
8	0xbe47acb8	-0.1949948
9	0xbdd00abd	-0.10158298
10	0xbe0cda11	-0.1375506
11	0xbd794de9	-0.060865317
12	0xbe0f6e98	-0.14007032
13	0xbe1f37fb	-0.15548699
14	0xbe12020a	-0.1425859
15	0xbe4c5140	-0.1995287

model/conv1d_8/BiasAdd/ReadVariableOp f4 [16]
0	0xbe4a00fb	-0.19726937
1	0xbdfb0bef	-0.122581355
2	0xbe1fe0ed	-0.15613146
3	0xbe2cde4a	-0.16881672
4	0xbd1ba504	-0.037999168
5	0xbe65197f	-0.22373007
6	0xbdaa2d28	-0.08309394
7	0xbd8eb681	-0.069684036
8	0xbe1b59de	-0.15171
9	0xbe3c0d9c	-0.18364567
10	0xbd68d500	-0.056843758
11	0xbe2bffa5	-0.1679674
12	0xbe3edaee	-0.18638203
13	0xbe054443	-0.13014321
14	0xbdb52477	-0.08844846
15	0xbe6de3e9	-0.23231472

model/conv1d_9/BiasAdd/ReadVariableOp f4 [16]
0	0xbd5eac58	-0.05436358
1	0xbe8356b4	-0.25652087
2	0xbc2173f8	-0.009854309
3	0xbe384aa4	-0.17997223
4	0xbe107a43	-0.14109139
5	0xbe03fc58	-0.1288923
6	0xbe148568	-0.14504015
7	0xbe183708	-0.14864743
8	0xbe574c15	-0.21025117
9	0xbe0fd25f	-0.14045094
10	0xbe38c55e	-0.1804404
11	0xbe638c3f	-0.22221468
12	0xbdacf7b3	-0.084456824
13	0xbe16e79d	-0.14736791
14	0xbdf0980a	-0.11747749
15	0xbe2ebef0	-0.17065024

model/conv1d/BiasAdd/ReadVariableOp f4 [16]
0	0xbd5dcf4f	-0.054152783
1	0xbe054d5f	-0.13017796
2	0xbdea822f	-0.11450612
3	0xbe45e4b0	-0.19325519
4	0xbde1e730	-0.11030424
5	0xbdc467d3	-0.095901154
6	0xbde88ed1	-0.11355365
7	0xbe000147	-0.12500487
8	0xbdb7f9b3	-0.08983173
9	0xbdb424bd	-0.0879607
10	0xbd041559	-0.03224692
11	0xbe20ae7a	-0.15691558
12	0xbe1b5269	-0.15168156
13	0xbd31bab5	-0.04339095
14	0xbe8edb7a	-0.27901822
15	0xbc930318	-0.017945811

model/conv1d_1/BiasAdd/ReadVariableOp f4 [16]
0	0xbebca702	-0.36846167
1	0xbd52dbb5	-0.05147906
2	0xbe1eb4c8	-0.1549865
3	0xbde46d8c	-0.11153707
4	0xbdd62e53	-0.104580544
5	0xbd857161	-0.06515766
6	0xbe125ec4	-0.14293963
7	0xbe1d065a	-0.15334454
8	0xbe594298	-0.2121681
9	0xbe0b7469	-0.13618626
10	0xbe146305	-0.14490898
11	0xbe66512c	-0.22491902
12	0xbe4c5107	-0.19952784
13	0xbdfc49b0	-0.12318742
14	0xbe9362c0	-0.28786278
15	0xbe814c3b	-0.25253472

model/conv1d_2/BiasAdd/ReadVariableOp f4 [16]
0	0xbe928ae7	-0.286216
1	0xbe861010	-0.2618413
2	0xbdbaa778	-0.091139734
3	0xbe25cae3	-0.16190676
4	0xbe557701	-0.20846178
5	0xbe357f28	-0.17724288
6	0xbe1b0eb4	-0.15142328
7	0xbdf9c2b2	-0.12195338
8	0xbe05f0a1	-0.13080074
9	0xbe077e1b	-0.13231699
10	0xbe1ba982	-0.15201381
11	0xbe4511d7	-0.19245087
12	0xbe71a409	-0.2359773
13	0xbe593f73	-0.2121561
14	0xbdc637a6	-0.09678583
15	0xbead7266	-0.33876342

model/conv1d_3/BiasAdd/ReadVariableOp f4 [16]
0	0xbe20f3c5	-0.1571799
1	0xbe39d03a	-0.18145838
2	0xbd838622	-0.06422068
3	0xbe83d98c	-0.25751913
4	0xbe3ff3c1	-0.18745328
5	0xbe0a2066	-0.13488922
6	0xbe2bfd81	-0.16795923
7	0xbe089406	-0.13337716
8	0xbd310804	-0.043220535
9	0xbdf117eb	-0.1177214
10	0xbe8f1f1f	-0.2795343
11	0xbda881c8	-0.08227879
12	0xbe790b5d	-0.24320741
13	0xbe18ce40	-0.14922428
14	0xbdd18253	-0.102299355
15	0xbe235965	-0.1595207

model/conv1d_4/BiasAdd/ReadVariableOp f4 [16]
0	0xbe3c8392	-0.18409565
1	0xbdeab026	-0.11459379
2	0xbe452029	-0.1925055
3	0xbe4415e1	-0.19148971
4	0xbe5127da	-0.20425358
5	0xbe57efb8	-0.21087539
6	0xbe91168e	-0.2833752
7	0xbe3d90db	-0.18512289
8	0xbe381da9	-0.17980064
9	0xbe46c939	-0.19412698
10	0xbdd11934	-0.10209885
11	0xbdd8f38c	-0.10593328
12	0xbe4a52b3	-0.1975811
13	0xbe060893	-0.13089208
14	0xbe5532a9	-0.20820107
15	0xbe896ca2	-0.26840693

model/conv1d_10/Conv1D f4 [16, 1, 1, 20]
0	0x3ebb24a0	0.3655138
1	0x3e23f882	0.16012767
2	0x3d978e81	0.07400227
3	0x3e1e6f56	0.15472159
4	0x3e5cb6b8	0.21554077
5	0x3e96deec	0.2946695
6	0xbe4a6c52	-0.19767883
7	0xbe6b02a4	-0.22950226
8	0xbc220a03	-0.009890082
9	0xbd18e7fc	-0.037330613
10	0x3ea5fe1e	0.3242044
11	0xbe1078d9	-0.141086
12	0x3d11079d	0.03540765
13	0x3e0c3e05	0.13695534
14	0x3e913490	0.28360415
15	0xbdeeb9ff	-0.1165657
16	0x3d97e300	0.07416344
17	0xbdbca152	-0.09210457
18	0xbded2044	-0.1157842
19	0xbe4b0dfc	-0.19829553
20	0xbc796a56	-0.015223106
21	0xbda41856	-0.08012454
22	0xbcb11c53	-0.021619951
23	0xbe6625b5	-0.22475322
24	0x3d417bfb	0.047237378
25	0xbe06eb40	-0.13175678
26	0x3bd866ff	0.006604075
27	0x3e193929	0.14963211
28	0x3e61b3ef	0.22041295
29	0x3e08aaf2	0.1334646
30	0x3e838a4a	0.25691444
31	0x3e57ab2c	0.2106139
32	0xbe439a4a	-0.19101825
33	0x3e6b7ec7	0.2299758
34	0xbdc53389	-0.0962897
35	0x3ef4f1db	0.4784077
36	0xbe43c835	-0.19119342
37	0xbe3a43f8	-0.1818999
38	0xbd81ce40	-0.06338167
39	0xbceb65a0	-0.028734982
40	0xbe10cbd6	-0.14140257
41	0x3ea9ac53	0.33139285
42	0x3dc82273	0.09772196
43	0xbe4ff64c	-0.20308799
44	0x3e3b7d51	0.18309523
45	0xbdc7fda5	-0.09765176
46	0x3e434d31	0.19072415
47	0x3eaa353a	0.33243734
48	0xbd7c9b46	-0.061671518
49	0xbea137d8	-0.31487918
50	0x3e19375e	0.14962527
51	0xbe511237	-0.20417105
52	0xbe2af46f	-0.16694807
53	0x3e5adab6	0.21372494
54	0x3f22196d	0.63320047
55	0xbe4abbdc	-0.19798225
56	0x3e889aea	0.2668069
57	0x3e9db2a1	0.30800346
58	0xbeab9e59	-0.33519247
59	0x3d5f57bd	0.054527033
60	0xbe0b56f5	-0.1360739
61	0xbe977ee6	-0.29589003
62	0x3e484a62	0.19559625
63	0x3ea8e3cc	0.32986295
64	0x3ead1f9b	0.33813176
65	0xbeb0aa15	-0.34504762
66	0xbe3c94e1	-0.18416168
67	0x3e797961	0.24362709
68	0x3b378d3e	0.002800777
69	0x3ef519f4	0.47871363
70	0x3e99ace4	0.30014718
71	0xbd0a9a81	-0.033838753
72	0x3d25b747	0.04045799
73	0x3dd6ef82	0.10494901
74	0x3ec1d9dd	0.3786153
75	0x3e3b7dd3	0.18309717
76	0x3ef2c62c	0.47416818
77	0xbdbe5f71	-0.09295548
78	0x3ec3218c	0.38111532
79	0xbe8ca5ed	-0.2747034
80	0xbe98432a	-0.29738742
81	0x3e235941	0.15952016
82	0xbe7d4885	-0.24734695
83	0xbc6a5bca	-0.014304111
84	0xbe1611d2	-0.14655235
85	0x3e26e358	0.16297662
86	0xbe378efc	-0.17925638
87	0x3abab907	0.0014245816
88	0xbc0337e6	-0.008008933
89	0x3e53a5d1	0.20668723
90	0xbec16202	-0.37770087
91	0x3e7c12b9	0.24616517
92	0x3ec8bc4c	0.3920616
93	0xbec0aef5	-0.37633482
94	0x3f2c2328	0.67241144
95	0xbd7a0528	-0.061040074
96	0x3e22e705	0.1590844
97	0x3efa15e5	0.4884483
98	0xbdc33682	-0.09531881
99	0xbdf3cad5	-0.119039215
100	0xbe32faa0	-0.17478418
101	0x3e9355d9	0.28776434
102	0x3e176a38	0.14786613
103	0x3e7f0f76	0.24908242
104	0x3ed94ec4	0.42442906
105	0xbd9e0f8e	-0.077178106
106	0xbe4550c2	-0.19269088
107	0x3e4faaf6	0.2028006
108	0x3e14bbe2	0.14524797
109	0xbe885ae4	-0.26631844
110	0xbebb65a7	-0.36600992
111	0x3e0abe77	0.13549219
112	0x3e923e75	0.28563276
113	0x3e171d72	0.14757326
114	0x3ead3ce1	0.3383551
115	0x3e848dde	0.25889486
116	0xbde64dc2	-0.112453
117	0x3dc39f85	0.0955191
118	0x3e547804	0.20748907
119	0x3e50b1a4	0.20380265
120	0xbe02e49d	-0.12782522
121	0xbdd4acf2	-0.10384549
122	0xbe2a237f	-0.16615103
123	0xbcd00dfd	-0.025397295
124	0xbdc96855	-0.09834353
125	0xbe4db32c	-0.2008788
126	0x3e6ce9a1	0.23135997
127	0x3e22204e	0.15832636
128	0xbe38805f	-0.1801772
129	0x3db473eb	0.08811172
130	0xbd284a78	-0.041086644
131	0xbd1f9eec	-0.03896992
132	0xbd78feed	-0.06078999
133	0xbcb1b75c	-0.021693878
134	0x3f237b55	0.63860065
135	0xbe755145	-0.23956783
136	0x3df46a0c	0.11934289
137	0x3ca54028	0.020172194
138	0x3d55e869	0.052223597
139	0x3d6d06b3	0.057867717
140	0x3d13ad95	0.036054213
141	0xbe963d19	-0.2934349
142	0x3d2c6344	0.042086855
143	0xbe3e9e0b	-0.18614976
144	0x3ad163cf	0.001597518
145	0xbe4dd507	-0.20100795
146	0x3e1ce816	0.15322909
147	0xbca45fe6	-0.02006526
148	0xbead72a6	-0.33876532
149	0xbee05c87	-0.43820593
150	0x3e899a20	0.268754
151	0xbd85fd7e	-0.065424904
152	0x3d5afd70	0.053464353
153	0xbe74a0f1	-0.2388952
154	0x3f3ed4ef	0.7454366
155	0xbe161723	-0.14657263
156	0x3e184666	0.14870605
157	0x3e93d030	0.28869772
158	0x3e64b49f	0.22334526
159	0xbd867c18	-0.06566638
160	0xbdbe6561	-0.0929668
161	0x3d9c83d6	0.07642333
162	0xbe01085e	-0.12600848
163	0x3df9572f	0.12174832
164	0x3d84249f	0.064522974
165	0xbd80f1ef	-0.06296145
166	0x3e91a238	0.28444076
167	0x3e95aed3	0.29234943
168	0x3ee0e2a1	0.43922904
169	0x3e21b2bd	0.1579084
170	0xbc6d1c48	-0.014472075
171	0x3e79a804	0.24380499
172	0x3d185af3	0.03719611
173	0xbdd447a3	-0.10365226
174	0x3e479fa0	0.19494486
175	0xbe2781b6	-0.16358075
176	0xbea5bf60	-0.3237257
177	0x3e7d5488	0.24739277
178	0x3ef524f3	0.47879753
179	0x3eab86de	0.33501333
180	0x3e133e85	0.14379318
181	0xbdd88c2a	-0.10573609
182	0x3e6f211a	0.23352471
183	0xbe76d947	-0.24106322
184	0x3e8dcc41	0.27694896
185	0x3ed3fc3d	0.4140338
186	0x3e158fb8	0.14605606
187	0x3e8275b6	0.2548043
188	0x3e0a9f14	0.13537246
189	0x3d39d0bf	0.04536509
190	0x3cddbdd8	0.027068064
191	0xbe3f2585	-0.18666656
192	0x3d517e32	0.05114574
193	0xbe428a48	-0.18998063
194	0x3e28ebf6	0.16496262
195	0x3da02250	0.078190446
196	0xbe19a7d8	-0.15005434
197	0x3e909aae	0.2824301
198	0x3edee6a5	0.43535343
199	0x3eb9275b	0.36162838
200	0xbea0b8ff	-0.3139114
201	0x3e215ecc	0.15758818
202	0x3bdef546	0.006804141
203	0xbe801b9b	-0.2502106
204	0x3db67afd	0.08910177
205	0x3e1a5747	0.15072356
206	0x3e84cf66	0.25939482
207	0x3ebe1973	0.3712879
208	0xbe34391d	-0.17599912
209	0x3e440ba3	0.19145064
210	0xbe78a4e4	-0.24281651
211	0x3d94f74c	0.07273731
212	0xbc3cfef4	-0.011535395
213	0xbc760b88	-0.015017398
214	0x3e2edf5a	0.1707739
215	0xbe604deb	-0.21904723
216	0x3e3bf6ed	0.18355913
217	0x3e305d28	0.17223036
218	0xbe5b8e25	-0.21440943
219	0x3e936da4	0.28794587
220	0x3e1b967c	0.15194124
221	0x3e8ab7fb	0.2709349
222	0xbec08c69	-0.37607124
223	0x3eca0a2f	0.39460894
224	0xbe5236c1	-0.205287
225	0xbe661c4b	-0.2247173
226	0x3c0a706b	0.008449654
227	0x3de14a9e	0.1100056
228	0xbe9937f9	-0.29925516
229	0xbe4d4621	-0.20046283
230	0xbdd88b27	-0.10573416
231	0xbdd9c06a	-0.10632403
232	0xbe98404f	-0.29736564
233	0x3ee6c721	0.45073798
234	0x3f347913	0.70497245
235	0x3ca687cf	0.02032843
236	0xbd919fa2	-0.07110526
237	0xbe516539	-0.2044877
238	0xbd786754	-0.060645416
239	0x3ee42016	0.4455573
240	0x3eb8f767	0.36126253
241	0x3e8249a6	0.25446814
242	0x3e97d865	0.29657283
243	0x3dcbc3be	0.09949444
244	0x3e150172	0.14551333
245	0x3db65fd8	0.089049995
246	0x3ec66b52	0.38753754
247	0xbd90ddad	-0.07073531
248	0xbe0398e0	-0.12851286
249	0xbe5ef05c	-0.21771377
250	0x3e8ee4c6	0.27908915
251	0xbe812cba	-0.25229436
252	0x3e7ea3ce	0.24867174
253	0x3d4cad1c	0.049969777
254	0xbe3b4d2a	-0.18291155
255	0x3e087796	0.13326868

model/conv1d_11/Conv1D f4 [16, 1, 3, 20]
0	0x3ea4f3f0	0.3221736
1	0xbe0ff9f8	-0.140602
2	0x3cfd9336	0.030953985
3	0x3c6e0ae6	0.014528966
4	0x3e4abbdf	0.1979823
5	0x3e489205	0.19586952
6	0xbd1f634e	-0.038913064
7	0x3deb2189	0.11481006
8	0xbd86b02c	-0.06576571
9	0x3e8f69a0	0.28010273
10	0x3dd22857	0.102616005
11	0x3e47f7b9	0.19528092
12	0x3e306951	0.17227675
13	0x3d284dd9	0.041089866
14	0x3d05eba6	0.032695435
15	0xbdb4402e	-0.08801304
16	0x3e1cb9ff	0.15305327
17	0xbdfd419e	-0.12366031
18	0x3dbd5d06	0.092462584
19	0x3e75bc4e	0.23997614
20	0x3da4c4c3	0.08045342
21	0x3d79d23e	0.06099152
22	0x3ec9f80e	0.39447063
23	0x3e370181	0.17871667
24	0x3e15c427	0.14625607
25	0x3ca4c957	0.020115538
26	0xbc900308	-0.01757957
27	0x3e71168c	0.23543757
28	0x3ddbebd4	0.1073834
29	0x3cd76f7e	0.02629828
30	0xbe10dee9	-0.14147533
31	0xbe8259a4	-0.25459015
32	0x3ea545ad	0.3227972
33	0x3e32110b	0.17389314
34	0x3e32256c	0.17397088
35	0x3e912889	0.28351238
36	0x3e9370cb	0.28796992
37	0x3e52a5cd	0.2057106
38	0x3e711784	0.23544127
39	0x3e5db212	0.2164996
40	0xbe2da03f	-0.1695566
41	0x3dce2700	0.100660324
42	0x3d077a54	0.033075646
43	0xbdf79d8f	-0.12090599
44	0xbe227c87	-0.15867816
45	0x3e56cf4d	0.20977516
46	0xbd35855d	-0.04431664
47	0x3ebcdbbf	0.36886403
48	0x3df4528c	0.11929807
49	0x3e5806b8	0.21096313
50	0x3cde7af9	0.027158247
51	0x3e3543ee	0.17701694
52	0x3dcbf332	0.09958495
53	0x3d291a0e	0.041284613
54	0x3de7b3fe	0.11313628
55	0xbb1a586b	-0.0023551236
56	0xbd9ba613	-0.076000355
57	0x3e0c8777	0.1372355
58	0x3d0e7ed4	0.03478892
59	0x3e125063	0.14288478
60	0xbd84c41b	-0.06482717
61	0x3dbd5dcd	0.09246407
62	0x3e1876a0	0.14889002
63	0xbe18e503	-0.14931111
64	0xbc24856d	-0.010041577
65	0x3d8eed23	0.06978824
66	0xbd4a72ad	-0.04942577
67	0xbe3c3f61	-0.18383552
68	0x3dc1d648	0.09464699
69	0x3e94a710	0.2903371
70	0x3e726d12	0.2367442
71	0x3c1317a7	0.008977807
72	0xbc171e0b	-0.009223471
73	0xbe003f01	-0.12524034
74	0x3e384fac	0.17999142
75	0x3e480260	0.19532156
76	0x3e853b40	0.26021767
77	0x3e1781df	0.14795636
78	0xbe2d413e	-0.16919419
79	0x3d5e086a	0.054207243
80	0x3e8d7183	0.27625665
81	0xbd71e8a4	-0.059059754
82	0x3e7adc10	0.2449801
83	0x3e4a783a	0.19772425
84	0x3e8323df	0.25613305
85	0x3e0379ba	0.12839404
86	0x3d8d0495	0.068856396
87	0x3e060c4a	0.13090625
88	0x3da9bcf0	0.0828799
89	0x3e027eec	0.1274373
90	0xbe46fb8a	-0.19431892
91	0xbd8a8095	-0.06762806
92	0x3d404526	0.046940945
93	0xbe9d9d79	-0.30784205
94	0x3f386a1d	0.72036916
95	0x3ec3005a	0.38086206
96	0x3e8f4455	0.2798182
97	0xbe81d772	-0.25359684
98	0xbc0a7710	-0.008451238
99	0xbe71d67d	-0.23616977
100	0x3ece313d	0.4027194
101	0xbe20f8d0	-0.15719914
102	0xbed92708	-0.4241259
103	0x3dad3a49	0.08458383
104	0x3e531d79	0.20616712
105	0x3df83c08	0.12120825
106	0x3d929de2	0.0715902
107	0xbdce6dac	-0.10079512
108	0xbd67afd9	-0.056564186
109	0x3e8c8460	0.27444744
110	0x3e6f2109	0.23352446
111	0xbe65e755	-0.22451527
112	0x3e875134	0.2642914
113	0xbde490e7	-0.111604504
114	0x3e2b0384	0.1670056
115	0x3e8e17e0	0.2775259
116	0x3f149a8e	0.5804833
117	0x3cd24a47	0.025670184
118	0x3d46c6b9	0.04852936
119	0x3db95055	0.09048525
120	0x3ded80b8	0.11596817
121	0x3e3c42b9	0.18384828
122	0x3d810149	0.06299073
123	0x3c32c518	0.010911249
124	0x3e6b5b98	0.22984159
125	0x3e84f558	0.25968432
126	0x3e268bc8	0.1626426
127	0x3e829447	0.25503752
128	0x3eb91459	0.36148337
129	0x3ee68f94	0.45031416
130	0x3de4f429	0.11179382
131	0x3d1b67cc	0.037940785
132	0xbcdde7b9	-0.027088033
133	0x3e55beb3	0.20873527
134	0x3e3c46ab	0.18386333
135	0xbe07c93f	-0.13260363
136	0x3e175743	0.14779381
137	0x3f03881d	0.5137957
138	0x3d1ffd39	0.03905985
139	0x3e6c1181	0.23053552
140	0x3e11ada5	0.14226396
141	0xbe0f31eb	-0.13983886
142	0x3e701c52	0.23448303
143	0x3d366e6e	0.044538908
144	0x3d5e2a6b	0.05423967
145	0x3e3e54e8	0.18587077
146	0xbcde6fbe	-0.027152892
147	0xbc29cdaa	-0.010363976
148	0xbe38e216	-0.18054995
149	0x3e8ae7e1	0.27130035
150	0x3e5433d3	0.20722894
151	0x3e76cab3	0.24100761
152	0x3d4bb346	0.049731515
153	0x3e87a912	0.26496178
154	0x3e92b26d	0.28651753
155	0xbe2f45c8	-0.17116463
156	0x3e65404c	0.22387809
157	0x3e0a6d26	0.135182
158	0xbbad1246	-0.0052817194
159	0x3e761f82	0.24035457
160	0x3dbd4af5	0.092428125
161	0x3ef1054c	0.47074354
162	0x3e437eae	0.19091293
163	0xbe47e9ea	-0.19522825
164	0xbdc7d44f	-0.097572915
165	0x3e83e36e	0.25759453
166	0xbe213405	-0.157425
167	0xbc502865	-0.012704943
168	0x3e8ae9c8	0.27131486
169	0xbd001314	-0.031268194
170	0xbdbccac9	-0.09218366
171	0xbcdd2946	-0.02699722
172	0xbe5bdde4	-0.21471363
173	0x3e9887a5	0.2979099
174	0xbe2ff4a5	-0.17183168
175	0xbe9028a8	-0.28156018
176	0xbeb33a3a	-0.3500536
177	0x3e9e28c5	0.3089048
178	0x3e7248e0	0.23660612
179	0x3e28520a	0.16437545
180	0x3e07cfe5	0.13262899
181	0x3e015b16	0.12632403
182	0xbdf84428	-0.12122375
183	0x3e78b354	0.24287158
184	0x3ea0d773	0.31414375
185	0xbdb5d88f	-0.08879196
186	0xbe000851	-0.12503172
187	0x3d48dd70	0.049039304
188	0x3d17ec90	0.037090838
189	0xbc686680	-0.014184594
190	0x3cd2043d	0.025636787
191	0x3c0f3449	0.008740493
192	0xbd8f0d01	-0.06984902
193	0x3e08271d	0.1329617
194	0xbbc0be6e	-0.005882076
195	0xbdc7180f	-0.09721386
196	0xbdbe665f	-0.092968695
197	0x3e19cf0c	0.15020388
198	0xbe187816	-0.14889559
199	0xbd58f2e4	-0.052966014
200	0xbe623a1a	-0.22092476
201	0x3e294bdf	0.16532849
202	0x3da75caa	0.08171971
203	0x3eba91c1	0.36439326
204	0x3e98e584	0.29862607
205	0xbe3e3bc1	-0.18577482
206	0xbd747791	-0.05968434
207	0x3e51afc4	0.20477206
208	0x3dd713d1	0.105018266
209	0x3e393255	0.18085606
210	0xbd8ef807	-0.06980901
211	0x3da770f0	0.08175838
212	0x3e1d2924	0.15347725
213	0xbd0a7a51	-0.033808056
214	0x3ec2501d	0.37951747
215	0xbe3459ac	-0.17612332
216	0x3e3d27ad	0.18472166
217	0x3e2421c7	0.1602851
218	0x3e02ad6e	0.1276147
219	0x3d382a47	0.044962194
220	0xbe10dc40	-0.14146519
221	0x3e3e6d33	0.18596344
222	0x3e05c690	0.13064027
223	0x3e222387	0.15833865
224	0x3e926522	0.28592783
225	0xbe2b70da	-0.16742268
226	0xbe78840f	-0.24269126
227	0xbdf2a61f	-0.11848091
228	0xbe538be0	-0.20658827
229	0xbd239670	-0.03993839
230	0xbce8d259	-0.028420614
231	0x3de70cd6	0.11281745
232	0x3b149aee	0.0022675353
233	0x3e547c5d	0.20750566
234	0x3defe118	0.11712855
235	0x3dd6284e	0.10456906
236	0x3e53a30f	0.2066767
237	0xbe12d179	-0.1433772
238	0xbdcf51fa	-0.10123058
239	0x3e3f73ee	0.18696567
240	0x3d916232	0.070988074
241	0x3dcff9c5	0.10155062
242	0x3d5970bd	0.05308603
243	0x3e467185	0.19379242
244	0xbd8d4464	-0.0689781
245	0x3d6f9da0	0.058499932
246	0xbe1a4381	-0.15064813
247	0x3e704f00	0.23467636
248	0xbdfde9bf	-0.12398099
249	0xbe3aa4ce	-0.1822693
250	0x3de49122	0.111604944
251	0x3c679ab7	0.014136008
252	0x3d23218c	0.039826915
253	0x3deb64e1	0.114938505
254	0x3e407d99	0.18797912
255	0xbe915878	-0.2838781

model/conv1d_12/Conv1D f4 [16, 1, 5, 20]
0	0x3eda0fc6	0.4259016
1	0x3ea210ba	0.31653386
2	0x3d0cf9d9	0.03441796
3	0x3ebfdbcd	0.37472382
4	0x3d2bd07a	0.041946866
5	0x3edd473f	0.4321842
6	0x3e9c9e52	0.3058954
7	0xbe834c92	-0.25644356
8	0x3e50cf0e	0.20391485
9	0x3e15dfbe	0.14636132
10	0x3e337515	0.17525132
11	0x3eac7ba6	0.33688086
12	0x3e8c0d3c	0.27353847
13	0xbd63c82f	-0.05561083
14	0x3e334e11	0.17510249
15	0xbdba263e	-0.09089325
16	0x3a18faae	0.0005835694
17	0x3e74a89c	0.23892444
18	0x3e1a151b	0.15047114
19	0x3e7cb293	0.24677496
20	0x3e5d62d3	0.2161973
21	0x3e1c957a	0.15291396
22	0x3d7b2fea	0.06132499
23	0x3db6a61a	0.089184
24	0x3e3e1ff0	0.1856687
25	0x3c132b03	0.008982423
26	0xbdc53578	-0.09629339
27	0x3ece3e96	0.40282124
28	0xbe4d706e	-0.2006242
29	0xbd80b32a	-0.06284173
30	0xbe45c9c9	-0.19315256
31	0xbcb7a688	-0.022418275
32	0xbe9dada9	-0.30796555
33	0xbe1236c9	-0.14278711
34	0x3dcb82f0	0.09937084
35	0x3c3fa233	0.011696386
36	0xbdc706b4	-0.097180754
37	0xbdbe2e2a	-0.09286149
38	0xbd4f3190	-0.050584376
39	0xbce2362c	-0.027613722
40	0xbdd36351	-0.103216775
41	0x3e4552a0	0.192698
42	0xbde1fb00	-0.110342026
43	0x3cd0c822	0.025486056
44	0x3e3425ef	0.17592596
45	0x3ebf4f7a	0.37365323
46	0x3d19afc1	0.037521128
47	0xbe9a4c27	-0.30136225
48	0x3ea63850	0.32464838
49	0xbccc6972	-0.024952624
50	0x3d7bc02d	0.06146257
51	0x3de386a4	0.11109665
52	0x3e185beb	0.14878814
53	0x3e376989	0.17911352
54	0x3f077fe8	0.52929544
55	0xbe316181	-0.17322351
56	0xbe0f7107	-0.1400796
57	0x3d2b6643	0.04184557
58	0x3e99c1a9	0.30030563
59	0x3daebc83	0.085320495
60	0x3dc24fd9	0.09487886
61	0x3e92027d	0.28517523
62	0xbe24f435	-0.16108783
63	0x3e15f769	0.1464516
64	0x3e12c404	0.14332587
65	0x3de4a385	0.111640014
66	0x3ec03c24	0.37545884
67	0x3d7f215e	0.06228768
68	0x3ea7b0d9	0.32752112
69	0xbdc3ecde	-0.09566663
70	0xbdb01396	-0.08597486
71	0x3edb9362	0.42885882
72	0x3e4cad31	0.19987942
73	0x3c6a78b6	0.014311006
74	0x3edfa2a1	0.43678764
75	0x3e0b68a0	0.1361413
76	0x3c69e534	0.014275838
77	0xbb8ae108	-0.0042382516
78	0x3cf2111f	0.02954918
79	0x3d644246	0.055727266
80	0xbe1dd07f	-0.15411566
81	0x3e1a06ed	0.15041704
82	0xbcd0643b	-0.025438419
83	0xbcf2011d	-0.029541546
84	0x3d8b202d	0.067932464
85	0x3e46bb61	0.19407417
86	0xbe280a88	-0.16410267
87	0x3e5c864e	0.21535608
88	0xbdc78466	-0.0974205
89	0xbd7b12d4	-0.061297253
90	0x3e5b0cd0	0.21391606
91	0xbd9ef2c4	-0.077611476
92	0xbdaa7cae	-0.08324562
93	0xbca2b83c	-0.01986324
94	0xbe5bbf06	-0.21459588
95	0xbe11bb3f	-0.14231585
96	0x3d0be60d	0.03415494
97	0x3d7990cd	0.06092911
98	0x3c4ee874	0.012628663
99	0x3df05708	0.1173535
100	0x3e27c6c6	0.1638442
101	0x3e19df30	0.15026546
102	0x3dd3adaf	0.10335862
103	0x3d82f7c2	0.06394912
104	0xbd1a91e1	-0.037736777
105	0x3e36d921	0.17856266
106	0xbd7fbbb2	-0.06243486
107	0xbdbc4876	-0.09193508
108	0x3c38d5f3	0.011281478
109	0x3d12d4a1	0.03584731
110	0x3d3b90ec	0.045792505
111	0x3c2e7aaa	0.010649363
112	0x3dee7a46	0.116444156
113	0xbb8d0404	-0.004303457
114	0x3d3297f4	0.043601945
115	0x3df33a51	0.11876357
116	0x3d77dc8f	0.060513075
117	0x3d12d893	0.035851073
118	0x3dfcabe4	0.12337473
119	0x3e4e6b80	0.20158195
120	0x3d9bef56	0.07614009
121	0xbd09e0e7	-0.03366175
122	0x3d6503c6	0.0559118
123	0x3ded30f8	0.11581606
124	0x3e6a4ae9	0.22880138
125	0x3dda2087	0.10650735
126	0xbe0a4557	-0.13503014
127	0x3e074152	0.13208511
128	0xbd80c0ec	-0.06286797
129	0xbbf4a52d	-0.0074659796
130	0x3dc71630	0.09721029
131	0xbd9d9114	-0.07693687
132	0x3d72c753	0.05927212
133	0x3d9818e7	0.07426625
134	0xbd190a33	-0.037363242
135	0xbdd2f445	-0.10300497
136	0x3e07de5b	0.13268416
137	0xbd858fea	-0.0652159
138	0xbd33658a	-0.043798007
139	0x3c3e9f35	0.011634638
140	0x3da23f10	0.079221845
141	0x3e03cb7d	0.12870593
142	0xbd906590	-0.070506215
143	0xbd0b8bc8	-0.034068853
144	0x3d07217f	0.03299093
145	0x3bb46e4a	0.0055063115
146	0x3e0d22bd	0.13782783
147	0xbd83ed28	-0.06441718
148	0xbd0e22c9	-0.034701142
149	0x3c86134c	0.016366623
150	0x3d73512b	0.05940358
151	0xbd04501f	-0.032302972
152	0x3cf843dd	0.030305797
153	0xbe2ee3bd	-0.17079063
154	0x3d57ade9	0.052656088
155	0xbdfda3fe	-0.12384795
156	0xbe3db0a9	-0.18524422
157	0x3de399d1	0.111133225
158	0xbca06a8c	-0.019582056
159	0xbc793e92	-0.015212672
160	0x3d159dfa	0.03652761
161	0x3e4be51c	0.19911617
162	0x3e0097f7	0.1255797
163	0xbdfe76e4	-0.1242502
164	0x3e2a7b8b	0.1664869
165	0x3de40a14	0.11134735
166	0x3da17f63	0.07885625
167	0xbdc6bb6b	-0.09703716
168	0x3db985ee	0.09058748
169	0x3e56864d	0.20949669
170	0x3dc9792e	0.09837566
171	0xbd625c50	-0.055263817
172	0xbc45ee83	-0.012080791
173	0xbc63d639	-0.013906055
174	0xbe003574	-0.12520391
175	0xbe09affe	-0.13446042
176	0x3daf64bc	0.085641354
177	0x3e82386b	0.25433668
178	0x3ca5dbb8	0.020246372
179	0x3d5a33bb	0.05327199
180	0x3e835ba2	0.25655848
181	0x3e064eef	0.13116048
182	0xbdf0ecdc	-0.11763927
183	0x3daf8445	0.0857015
184	0xbd85e913	-0.06538596
185	0x3d06dafa	0.032923676
186	0xbe3311ef	-0.1748731
187	0x3e619beb	0.22032134
188	0xbc31e7df	-0.010858505
189	0x3e416d62	0.18889382
190	0x3d133543	0.035939466
191	0xbd7e793d	-0.06212734
192	0x3e3626e4	0.17788273
193	0x3e07520c	0.13214892
194	0x3db2666f	0.08710944
195	0x3e192a47	0.14957534
196	0x3d08969a	0.03334675
197	0x3e3c4cc3	0.18388657
198	0x3dc131a5	0.09433297
199	0xbc3ae8d3	-0.011408049
200	0x3dbe428e	0.09290038
201	0x3f03adec	0.5143726
202	0xbd373182	-0.04472495
203	0xbd81a130	-0.06329572
204	0xbda7e0c2	-0.08197166
205	0xbe651538	-0.22371376
206	0x3ef604cc	0.48050535
207	0xbe2a211f	-0.16614197
208	0x3c0ba4bf	0.008523165
209	0xbe585f93	-0.21130209
210	0xbde4aa35	-0.11165277
211	0x3db45241	0.08804751
212	0xbe1ff364	-0.1562019
213	0xbe04e7a6	-0.12978992
214	0xbdd7f68e	-0.105450734
215	0x3e64f92b	0.22360675
216	0x3e84def3	0.25951347
217	0x3e05bb12	0.13059643
218	0xbdba9ed4	-0.09112325
219	0x3e2f4e11	0.17119624
220	0x3ebcf241	0.36903575
221	0x3e909812	0.2824102
222	0x3e948cb1	0.2901359
223	0xbbf54652	-0.0074851895
224	0x3e97e5bf	0.2966747
225	0x3d0dac27	0.034588005
226	0xbd24d4e7	-0.040242102
227	0x3e46ca58	0.19413126
228	0x3e169291	0.14704348
229	0xbd1bde37	-0.038053717
230	0x3cd0b37f	0.025476215
231	0x3d04270e	0.032263808
232	0xbc221426	-0.009892499
233	0x3e01d90f	0.12680458
234	0xbc14c702	-0.00908065
235	0x3ec0c124	0.37647355
236	0x3e832a5b	0.25618252
237	0x3e410b33	0.18851928
238	0xbe1f0500	-0.15529251
239	0x3d33bc04	0.043880478
240	0x3df01fb3	0.11724796
241	0xbe0e28e9	-0.13882793
242	0x3e94e1b8	0.2907846
243	0x3e8313f2	0.25601155
244	0x3e67febe	0.2265577
245	0xbad82571	-0.0016490651
246	0xbd86756a	-0.06565364
247	0x3e8c66cc	0.27422178
248	0x3e84b3d9	0.25918463
249	0xbd5c0a98	-0.05372104
250	0xbe4bf4bd	-0.19917579
251	0x3e09514d	0.1340992
252	0x3dbf44d8	0.09339303
253	0x3df4efc9	0.11959798
254	0xbc5771bf	-0.013149678
255	0x3e962197	0.29322502

model/conv1d_13/Conv1D f4 [16, 1, 7, 20]
0	0x3c7b4f8b	0.015338789
1	0x3cd412e9	0.025887923
2	0x3daab413	0.08335128
3	0xbd86064c	-0.0654417
4	0xbe07d6bd	-0.1326551
5	0x3d86a551	0.065745
6	0xbd06c160	-0.03289926
7	0x3cdf64a7	0.027269674
8	0xbc1c3c46	-0.009535855
9	0x3e076f06	0.13225946
10	0xbdf97ce1	-0.12182022
11	0x3c852e3d	0.0162574
12	0xbdf26789	-0.11836154
13	0xbe05b2e6	-0.13056526
14	0x3ac88b94	0.0015300387
15	0x3c9b9c0d	0.01899531
16	0x3cb7becb	0.022429844
17	0x3d6b7825	0.057487626
18	0x3c7a4d29	0.0152771855
19	0x3dc02198	0.093814075
20	0xbd876d7c	-0.06612679
21	0x3e231ffc	0.1593017
22	0xbdf022e9	-0.117254086
23	0xbdda36af	-0.10654961
24	0x3d4cce89	0.050001655
25	0xbe006ed1	-0.12542273
26	0x3c6bbf58	0.014388882
27	0x3dc8e68b	0.098095976
28	0x3dd7a007	0.1052857
29	0x3da0e3c6	0.07855944
30	0x3cad9781	0.021190407
31	0x3d7545af	0.05988091
32	0x3cf875f2	0.030329678
33	0x3e0c1ae4	0.13682133
34	0x3da0e23b	0.0785565
35	0xbd6cf7cc	-0.057853505
36	0x3e223865	0.15841825
37	0xbcb94c31	-0.022619339
38	0x3da37bac	0.07982573
39	0xbe1557e1	-0.14584304
40	0x3e20f3cf	0.15718006
41	0xbb6d29f8	-0.0036188345
42	0x3ce02c8c	0.027364992
43	0x3db5a2cb	0.08868941
44	0x3c361497	0.011113307
45	0x3dcc56e7	0.09977513
46	0x3d8291f9	0.06375498
47	0xbd0f49a5	-0.034982342
48	0xbc9e093c	-0.019291513
49	0x3d6362e2	0.055514224
50	0xbd5aa7d2	-0.053382702
51	0xbce76412	-0.02824596
52	0x3c90aed5	0.017661491
53	0x3ca99e27	0.020705296
54	0x3e2bce8f	0.16778015
55	0x3da4b727	0.08042746
56	0xbdc639ff	-0.096790306
57	0x3e20466e	0.15651867
58	0x3de1a7ba	0.110183194
59	0xbdd54e88	-0.10415369
60	0x3df66338	0.12030643
61	0xbbd8f63a	-0.0066211494
62	0xbd1fdf43	-0.03903128
63	0x3dc9eb08	0.09859282
64	0xbd2a6a25	-0.041605134
65	0x3bcc752e	0.006239555
66	0x3caeb266	0.021325301
67	0x3d9b7f1f	0.07592606
68	0xbd94cd6d	-0.07265744
69	0xbd3c3fb5	-0.045959193
70	0xbd083d84	-0.03326179
71	0x3d09b86e	0.03362315
72	0x3e15fc58	0.14647043
73	0x3e105aa5	0.14097078
74	0x3e2f1079	0.17096128
75	0x3db313d7	0.087440185
76	0xbd6076ad	-0.054800678
77	0x3de2b9a0	0.110705614
78	0x3dab680b	0.08369454
79	0x3d823210	0.06357205
80	0x3de922f6	0.113836214
81	0xbd0b40b6	-0.03399726
82	0x3daa9a58	0.0833022
83	0x3dfde1c8	0.1239658
84	0x3dd7da9d	0.10539744
85	0x3cc8030d	0.024415517
86	0x3de44f63	0.11147954
87	0x3d1623a5	0.036655087
88	0xbb979bcc	-0.0046267267
89	0xbd490c4a	-0.049083985
90	0xbbaeedea	-0.00533842
91	0x3df9924c	0.12186107
92	0x3d734c73	0.05939908
93	0x3e202dec	0.15642518
94	0x3cb665ff	0.022265432
95	0xbe21d751	-0.15804793
96	0xbdbd8101	-0.09253121
97	0x3ca9ba4a	0.020718712
98	0xbdebc200	-0.11511612
99	0x3d956c5e	0.0729606
100	0x3ad6ae9e	0.0016378944
101	0x3d9af559	0.075663276
102	0xbda69185	-0.081332244
103	0xbdf5256b	-0.119700275
104	0xbe0b8f59	-0.13628902
105	0xbdc08134	-0.093996435
106	0xbc7160d3	-0.014732557
107	0x3d78ed32	0.060773082
108	0x3d202c15	0.03910454
109	0x3d91dbe9	0.07122023
110	0xbcd45c41	-0.025922896
111	0x3d846323	0.06464221
112	0x3e058897	0.13040386
113	0x3d9cadf7	0.07650369
114	0x3e020b43	0.12699609
115	0x3c887625	0.016657898
116	0xbcb7c75f	-0.022433935
117	0xbc6da4ae	-0.014504595
118	0xbdbe50c7	-0.09292751
119	0xbdb8b841	-0.09019519
120	0x3e202e11	0.15642573
121	0xbd92c520	-0.07166505
122	0x3cd7432b	0.026277145
123	0x3dea4022	0.114380136
124	0xbd83059b	-0.063975535
125	0xbcabcdb3	-0.020972108
126	0xbdeac8ba	-0.11464067
127	0x3d1e9bec	0.038722917
128	0x3db035cf	0.08604013
129	0xbdb02b5a	-0.08602019
130	0xbda05a53	-0.07829728
131	0xbd976f04	-0.073942214
132	0x3e14471d	0.14480253
133	0x3e2048fe	0.15652844
134	0x3dd6ecc1	0.10494376
135	0x3d64fa57	0.055902805
136	0x3b6ddd86	0.0036295368
137	0x3d8402fb	0.06445881
138	0xbddaafc2	-0.106780544
139	0xbdf3e246	-0.119083926
140	0x3d010dc2	0.03150726
141	0xbdeecc78	-0.11660093
142	0x3d90acd3	0.070642136
143	0x3db26d43	0.08712246
144	0x3db8145d	0.08988259
145	0x3da5dc8d	0.08098707
146	0x3df987f5	0.12184135
147	0x3e0dce06	0.13848123
148	0xbd1c1183	-0.038102638
149	0x3cd9c932	0.026585195
150	0x3d623375	0.055224854
151	0xbd3af805	-0.045646686
152	0x3dab302d	0.08358798
153	0x3e12920a	0.14313522
154	0x3ddd3fee	0.10803209
155	0x3dc6509c	0.09683344
156	0x3db6a014	0.08917251
157	0xbca7e197	-0.020493312
158	0xbd22dde6	-0.0397624
159	0xbbcdb965	-0.0062782043
160	0x3d3fbdc3	0.04681183
161	0xbd9986a8	-0.07496387
162	0x3e9e9115	0.30970064
163	0x3ea43479	0.32071283
164	0x3e55ce32	0.20879439
165	0x3e2c59bb	0.16831104
166	0x3e85bb9f	0.26119706
167	0x3dd80969	0.1054867
168	0x3dcabea3	0.09899642
169	0x3d91afc4	0.07113603
170	0x3da281a1	0.07934881
171	0x3caf727a	0.021416891
172	0x3e100a1b	0.14066355
173	0xbd45803a	-0.04821799
174	0x3e86a825	0.2630016
175	0x3cf21748	0.029552117
176	0x3e4ce2a8	0.20008337
177	0xbd2b04d1	-0.04175264
178	0xbd0f2efd	-0.03495692
179	0x3e2cc4b4	0.16871911
180	0xbe39a7a4	-0.18130356
181	0xbbe63250	-0.0070250407
182	0x3dc30043	0.09521534
183	0xbe0fd0d6	-0.14044508
184	0x3e0096b9	0.12557496
185	0xbdce8269	-0.100834675
186	0xbe44283f	-0.19155978
187	0x3e6c6fc6	0.23089513
188	0xbd852958	-0.06502026
189	0xbd6e30b5	-0.05815192
190	0xbddd0a06	-0.107929274
191	0xbdb00aa8	-0.085957825
192	0xbd86f5d5	-0.065898575
193	0xbcd9e871	-0.026600095
194	0x3c6ab0f0	0.014324412
195	0xbe36d708	-0.17855465
196	0xbd84a159	-0.06476087
197	0xbd67ba3e	-0.0565741
198	0x3dfc1a1e	0.12309669
199	0x3d455ed5	0.048186142
200	0x3dede16c	0.116152614
201	0xbd9a13bc	-0.07523295
202	0x3d1b15f4	0.037862733
203	0xbcd9a23f	-0.026566623
204	0x3e5d91f2	0.21637705
205	0xbd006d68	-0.031354338
206	0x3d980fa1	0.07424856
207	0x3c8f2231	0.017472358
208	0xbdc54901	-0.09633065
209	0xbcdda79e	-0.027057465
210	0x3e38dc03	0.18052678
211	0xbd9bc2fc	-0.0760555
212	0x3dabe28b	0.08392819
213	0xbce6eb46	-0.028188359
214	0x3e4ffc4b	0.20311086
215	0x3e3d9a39	0.18515863
216	0xbca4e959	-0.0201308
217	0x3dc9279e	0.098220095
218	0xbd055315	-0.032549936
219	0x3d80c860	0.062882185
220	0x3dbdacbe	0.092614636
221	0x3dd6c62f	0.10487019
222	0x3e233da0	0.15941477
223	0xbdafdd2f	-0.08587109
224	0x3e903f63	0.2817336
225	0x3df8f840	0.12156725
226	0x3dfc0540	0.12305689
227	0x3d7d3e68	0.061827093
228	0xbc4f5137	-0.0126536405
229	0x3d617521	0.055043343
230	0x3dc6aedc	0.097013205
231	0x3dc2c019	0.09509296
232	0x3e1d9c03	0.15391545
233	0x3de27535	0.11057512
234	0x3db478f9	0.08812136
235	0xbd9b922e	-0.07596241
236	0xbd31d8e4	-0.043419734
237	0x3c28075c	0.010255661
238	0x3dbc4d91	0.09194482
239	0x3e5c4676	0.21511254
240	0x3be00866	0.0068369387
241	0xbdbb67ce	-0.091506585
242	0x3e02c78f	0.12771438
243	0xbb9cfdf5	-0.004791016
244	0x3dc033b3	0.09384861
245	0xbda704bc	-0.081552
246	0xbd140009	-0.036132846
247	0x3d0de2aa	0.03463999
248	0xbdaa5c1a	-0.08318348
249	0x3e56e909	0.20987333
250	0x3d418dc1	0.047254328
251	0xbd7edbc4	-0.062221304
252	0xbd2a18ee	-0.04152768
253	0x3e610178	0.21973217
254	0x3d0445e8	0.03229323
255	0x3e0045ee	0.12526676

model/conv1d_14/Conv1D f4 [16, 1, 9, 20]
0	0x3e829a34	0.25508273
1	0xbd94d7ee	-0.07267748
2	0x3d6e7b96	0.05822333
3	0x3dd71ec8	0.10503918
4	0x3e74bce5	0.23900183
5	0x3d66aea5	0.056318898
6	0x3b878f2e	0.0041369414
7	0x3e05b5a7	0.13057576
8	0xbc998a40	-0.01874268
9	0x3d00313e	0.03129696
10	0xbdbfddce	-0.09368478
11	0x3e017ab6	0.12644467
12	0xbaa0de1c	-0.0012273225
13	0x3de320e4	0.11090258
14	0x3e898740	0.26861
15	0x3e781a41	0.24228765
16	0xbaa26dc1	-0.0012392328
17	0xbdb33e2d	-0.087520935
18	0x3db09c0b	0.08623513
19	0x3d936a76	0.0719804
20	0x3e99561c	0.2994851
21	0x3dcc2cf9	0.09969515
22	0xbe149c8e	-0.14512846
23	0x3da4e6ef	0.080518596
24	0x3be066e9	0.0068482053
25	0x3f0cd47d	0.5501173
26	0x3e741b96	0.23838648
27	0xbe03b191	-0.12860705
28	0x3e6f9a3b	0.23398678
29	0xbd148ecd	-0.036268998
30	0x3e2bdbd1	0.16783072
31	0x3da879c7	0.08226352
32	0x3e8fd089	0.28088787
33	0xbe0379dc	-0.12839454
34	0x3e76e882	0.24112132
35	0x3d956833	0.07295265
36	0x3e9c6d36	0.3055207
37	0xbd98b3d2	-0.07456173
38	0xbd0708ae	-0.032967262
39	0x3d55f349	0.052233968
40	0x3dd61729	0.10453636
41	0x3ec49ac5	0.3839933
42	0xbf03d186	-0.5149158
43	0xbeb2ef4f	-0.34948203
44	0xbdcf870e	-0.101331815
45	0x3d145c1f	0.036220666
46	0xbe25f7fa	-0.16207877
47	0xbe193008	-0.14959729
48	0xbd89abee	-0.06722246
49	0xbd53cf59	-0.051711414
50	0xbd6b10f2	-0.057389207
51	0x3e4b22ee	0.19837543
52	0xbd644636	-0.05573102
53	0xbcc5eb4c	-0.02416005
54	0xbe4a61d5	-0.19763882
55	0x3d379461	0.04481924
56	0x3c88c6d1	0.016696366
57	0x3b0db9e5	0.0021625694
58	0x3d5d91ef	0.05409425
59	0x3dadb026	0.08480863
60	0x3d28974c	0.041159913
61	0x3e42c3a6	0.19019946
62	0x3e143645	0.14473827
63	0x3e71ab4f	0.23600505
64	0x3e4f0b63	0.20219187
65	0x3db27048	0.08712822
66	0x3ee7995b	0.45234188
67	0x3c774746	0.0150926765
68	0x3e4e8ddf	0.20171307
69	0xbd89f2b7	-0.06735747
70	0xbdd5837f	-0.104254715
71	0x3d9ba02e	0.07598911
72	0x3c65400d	0.013992322
73	0x3e31fadf	0.17380856
74	0x3d8a17f2	0.067428485
75	0x3e5bb6bb	0.21456425
76	0x3e9c902a	0.30578738
77	0x3e1826e0	0.1485858
78	0x3e2721e6	0.16321525
79	0xbc38e591	-0.011285202
80	0xbca84232	-0.020539377
81	0x3d9d65ff	0.0768547
82	0xbe01c33e	-0.12672135
83	0xbd499469	-0.0492138
84	0xbdb1efc0	-0.08688307
85	0xbd9f63fa	-0.07782741
86	0xbd12f280	-0.035875797
87	0xba388ee2	-0.0007040334
88	0xbd7a3dfc	-0.06109427
89	0x3e0a4669	0.13503422
90	0x3e6766d3	0.22597818
91	0xbe225805	-0.1585389
92	0x3e3cbb86	0.1843091
93	0xbd3c5c0a	-0.045986213
94	0x3e01fd2b	0.12694232
95	0x3d2894b4	0.04115744
96	0x3be2f832	0.00692656
97	0x3da58bee	0.0808333
98	0x3cce65d6	0.025195044
99	0x3e07d8da	0.13266316
100	0x3e466e87	0.193781
101	0xbb6889bd	-0.003548249
102	0xbe300410	-0.1718905
103	0x3cfe7d43	0.031065589
104	0x3ce5e46a	0.028063018
105	0x3e29bc35	0.16575702
106	0xbb177058	-0.0023107734
107	0xbdc31772	-0.09525956
108	0x3d10bfa9	0.03533903
109	0x3ebcbd71	0.36863282
110	0x3e30b4fb	0.17256539
111	0x3d384f13	0.044997286
112	0x3eb46247	0.3523123
113	0x3e0142b7	0.12623106
114	0xbda0e56e	-0.0785626
115	0xbd1bb0bc	-0.038010344
116	0x3e8101bb	0.25196633
117	0x3cf13268	0.02944298
118	0x3de0ed55	0.109827675
119	0x3ebf5555	0.3736979
120	0x3e93d969	0.28876808
121	0x3e44207f	0.19153021
122	0x3e2f2304	0.17103201
123	0x3d635cbf	0.05550837
124	0x3e92bf3f	0.28661534
125	0x3d87b3b1	0.0662607
126	0xbd40c494	-0.04706247
127	0x3dabad4c	0.08382663
128	0x3e26d33a	0.16291514
129	0x3e65ac97	0.22429119
130	0x3dedfbf2	0.116203204
131	0x3ddd9c0f	0.108207814
132	0x3e01d62d	0.12679358
133	0x3e205b45	0.15659817
134	0x3e63fae5	0.22263677
135	0x3dd5a79d	0.1043236
136	0x3e830dc9	0.25596455
137	0x3c38f9ff	0.011290072
138	0x3e0a4e8b	0.13506524
139	0x3e02a1db	0.12757055
140	0x3dd8f4c8	0.10593563
141	0x3e154663	0.14577632
142	0xbd47bf8e	-0.048766665
143	0xbc9b8448	-0.018983975
144	0x3e1d9a16	0.1539081
145	0xbd3fcd96	-0.04682692
146	0xbdb12d22	-0.086511865
147	0x3dda667d	0.10664079
148	0x3e83db37	0.25753185
149	0x3e5029cc	0.20328444
150	0x3e251d75	0.16124518
151	0x3e433e8d	0.1906683
152	0x3e839fd1	0.25707868
153	0x3e886490	0.26639223
154	0x3d9627d6	0.07331817
155	0x3d326d22	0.04356111
156	0x3dbc9d3d	0.09209678
157	0x3e4db454	0.20088321
158	0x3d1adbdb	0.037807327
159	0x3e89fe6e	0.26951927
160	0x3dd17e70	0.10229194
161	0xbd2b9a7c	-0.041895375
162	0x3dcecd68	0.10097772
163	0x3e6de7e2	0.23232988
164	0x3e378b24	0.17924172
165	0xbb7cebdc	-0.0038592732
166	0x3e415e71	0.18883683
167	0x3da25a5e	0.079273924
168	0x3e037290	0.12836671
169	0x3e0ccca1	0.13749935
170	0x3e2b0eb9	0.16704835
171	0x3d4ddf22	0.050261624
172	0x3e10d8e2	0.14145234
173	0x3deac703	0.1146374
174	0x3ced3c6a	0.028959472
175	0x3e5ae22e	0.21375343
176	0x3e4632a3	0.19355254
177	0x3d8f770e	0.0700513
178	0x3e1e2fb7	0.1544789
179	0x3dd27937	0.10277026
180	0xbd9b3a64	-0.075794965
181	0x3db1e63c	0.08686492
182	0x3d615fc5	0.055022974
183	0x3d180e28	0.037122875
184	0x3dce437c	0.100714654
185	0x3d74a0f4	0.05972381
186	0xbd09ad47	-0.033612516
187	0x3de41631	0.11137045
188	0xbcf6cb88	-0.030126348
189	0x3e1829a7	0.14859639
190	0x3d974445	0.07386068
191	0x3e03bdaf	0.12865327
192	0x3e1fb907	0.15597926
193	0x3e20a398	0.15687406
194	0x3e375f29	0.17907394
195	0xbe4f3fe0	-0.2023921
196	0xbd05b703	-0.032645237
197	0x3df52df9	0.11971659
198	0x3dd0ecbf	0.10201406
199	0xbcdf4f7e	-0.027259585
200	0x3e828081	0.25488666
201	0x3d2afad0	0.0417431
202	0x3d396c3b	0.045269232
203	0x3dbdcb25	0.09267262
204	0x3e379fb7	0.1793202
205	0x3d1d75af	0.03844231
206	0x3de8fc19	0.11376209
207	0x3e176115	0.14783128
208	0xbc8f2ba9	-0.017476873
209	0x3e57395a	0.21017972
210	0x3e87a835	0.2649552
211	0xbd66e460	-0.05637014
212	0xbc88bafa	-0.01669072
213	0x3cddbf0a	0.027068634
214	0x3da05623	0.07828929
215	0x3e433f4e	0.19067118
216	0x3e2041a4	0.1565004
217	0x3c69fb57	0.0142811155
218	0x3e49e840	0.19717503
219	0x3dbad18f	0.091220014
220	0x3c8a6feb	0.01689907
221	0x3e6eeee0	0.23333311
222	0x3e194087	0.14966021
223	0x3d22edb9	0.03977749
224	0x3e980ba4	0.2969638
225	0x3e3a418e	0.1818907
226	0x3d1547df	0.036445495
227	0x3c50d150	0.0127452165
228	0x3e85ff62	0.26171404
229	0x3d838c69	0.064232655
230	0x3e002ac0	0.12516308
231	0x3c95ae32	0.01827154
232	0x3b71f7f9	0.0036921485
233	0x3e1f3a08	0.15549481
234	0x3e68fd80	0.22752953
235	0xbd579fa1	-0.05264247
236	0x3d6d2f70	0.057906568
237	0x3e34ed57	0.17668663
238	0x3de56dbe	0.11202572
239	0x3e57a6c2	0.21059707
240	0x3e827068	0.25476384
241	0x3ea4e9e2	0.32209688
242	0x3d96a2db	0.07355281
243	0x3e0c68d9	0.13711871
244	0x3ee2f2d0	0.44325876
245	0x3eb27d21	0.3486109
246	0x3e80d1e8	0.25160146
247	0x3e1faaad	0.15592451
248	0x3e50090a	0.20315948
249	0x3d63e845	0.05564143
250	0x3e06a066	0.13147125
251	0x3eb38df3	0.35069236
252	0x3dbda13a	0.09259267
253	0x3d932dbe	0.07186459
254	0x3e7e2555	0.24818929
255	0x3d4ae557	0.04953512
