results/fold_0/checkpoint/model_1204_fold_0.tflite (tflite, 406736 bytes, 73 tensors)

model/conv1d_10/BiasAdd/ReadVariableOp f4 [16]
00000000: e904 82be 56e8 90be f791 bbbd cd4d 8abd
00000010: 7760 71bd 6396 09bd 1ee2 b0bd dc97 44be
00000020: 8305 8abd d4ea 04be 4fc4 4ebd 0b78 3ebe
00000030: bd0b e7bd baef 5dbe 697a 29bd 9a6c f7bd
-0.2539437 -0.28302258 -0.091587 -0.067531206 -0.058929887 -0.033590686 -0.086368784 -0.19198555
-0.067393325 -0.12980205 -0.050480183 -0.1860048 -0.11281536 -0.2167348 -0.041376505 -0.12081261

model/conv1d_11/BiasAdd/ReadVariableOp f4 [16]
00000000: 92fb 67be 9a60 00be a4c7 0fbe c251 cbbd
00000010: 6dd2 3bbe d9ef 28be 32e0 2ebe 384f 07be
00000020: 6637 05be c2d0 dfbd 4d55 25be 7911 1fbe
00000030: 32c3 3fbe 5045 f2bd 64e4 18be 0db8 0dbe
-0.2265456 -0.1253685 -0.14041 -0.099277034 -0.1834199 -0.16497745 -0.17077711 -0.13213813
-0.13009414 -0.10928489 -0.16145821 -0.15534009 -0.18726805 -0.118296266 -0.14930874 -0.13839741

model/conv1d_12/BiasAdd/ReadVariableOp f4 [16]
00000000: cbbd 2ebe 7082 c2bd 63d4 2dbe 1943 32be
00000010: 84e2 8cbe fd6d bfbd 4a37 01be 8baf dfbd
00000020: 70e7 5dbe bc99 10be 96ee b7bd 16b1 b9bd
00000030: 56fd b5bd e3c4 f7bd 8ab0 89bd d23f 38be
-0.17064588 -0.09497535 -0.1697555 -0.17408408 -0.27516568 -0.093471505 -0.12618747 -0.10922154
-0.21670318 -0.14121145 -0.089810535 -0.090669796 -0.088862106 -0.120981 -0.06723125 -0.17993096

model/conv1d_13/BiasAdd/ReadVariableOp f4 [16]
00000000: 8b62 18be f859 1dbe 9447 36be b9e9 ccbd
00000010: 163e 94bd c194 65bd ad82 babd d7b1 19be
00000020: 1482 e9bd 5e2f 853c b6e8 26bd 69c5 eabd
00000030: 8926 1ebe 32b1 6bbe 0950 03be d668 08be
-0.14881341 -0.15366352 -0.17800742 -0.100055166 -0.072384045 -0.056050066 -0.09106956 -0.15009247
-0.114017636 0.016257938 -0.040749274 -0.11463434 -0.15444387 -0.23016813 -0.128235 -0.13321242

model/conv1d_14/BiasAdd/ReadVariableOp f4 [16]
00000000: 5e15 b5bd 0ad9 9abd 94aa 30bd 7cd7 e5bd
00000010: f89c e4bd 4c03 b4bd 7f79 d2bd 1662 a0bd
00000020: fae4 ccbd 840a f3bd b7ee d2bd af72 bebd
00000030: 42da b7bd 84c4 06be 53c0 c6bd 80a5 c0bd
-0.08841966 -0.07560928 -0.043131426 -0.11222741 -0.11162752 -0.08789691 -0.1027708 -0.078312084
-0.10004611 -0.1186724 -0.102994375 -0.09299218 -0.08977176 -0.13160902 -0.09704652 -0.094065666

model/conv1d_15/BiasAdd/ReadVariableOp f4 [16]
00000000: 4ef0 01be 0dd1 1bbe 671d 6bbe 1760 72be
00000010: 2535 02be 5efc 62be ebd5 48be cbf8 26be
00000020: d1f1 00be 02c3 58be 920f 28bc 3479 36be
00000030: 1e8f 26be 11ef c6bc 1ebb e3bd b2ce f0bd
-0.12689325 -0.15216465 -0.22960435 -0.23669468 -0.12715586 -0.22166583 -0.19612853 -0.16305844
-0.12592246 -0.2116814 -0.0102576185 -0.17819673 -0.16265532 -0.024283918 -0.11119674 -0.11758174

model/conv1d_16/BiasAdd/ReadVariableOp f4 [16]
00000000: be48 20be 3223 47be a57a 6dbe e33a 5ebe
00000010: fcfb 11be 33c0 4abe 3b63 01be 0551 4ebe
00000020: dc30 70be 6e32 06be 9f2a 0abe 006c ecbd
00000030: 007c 28be 9f3f 17be b211 9abd 59e2 47be
-0.15652749 -0.1944702 -0.23191316 -0.21702151 -0.1425628 -0.1979988 -0.1263551 -0.20148094
-0.23456138 -0.13105175 -0.13492821 -0.11544037 -0.16453552 -0.14770363 -0.07522906 -0.19519939

model/conv1d_17/BiasAdd/ReadVariableOp f4 [16]
00000000: 9ad7 52be 1a6b 8cbe d9d6 3dbe 3d47 17be
00000010: 4eeb 11be 11eb 71be d7be 02be e55c 0cbe
00000020: 3d3d 2bbe 9d61 6abe cdeb eabd 3d23 f0bd
00000030: 5a76 1cbe c4ce e0bd b385 31be e8f9 e6bd
-0.20590058 -0.27425462 -0.18538989 -0.14773269 -0.14249918 -0.23624827 -0.12768112 -0.13707311
-0.1672258 -0.22888799 -0.11470757 -0.11725471 -0.15279523 -0.109769374 -0.17336158 -0.112781346

model/conv1d_18/BiasAdd/ReadVariableOp f4 [16]
00000000: a59d 03be aaae 49be 38a8 cbbd 8bac 13be
00000010: a85e 2cbe 8577 4dbe 7234 1dbe b15f 0dbe
00000020: ad53 c5bd ffdd 5abe 0b7a 1bbe 8a62 f8bd
00000030: 0494 15be d789 13be d76a f9bd 3cab 18be
-0.12853105 -0.19695535 -0.099441946 -0.14421289 -0.16832983 -0.20065124 -0.15352038 -0.13806035
-0.096351005 -0.21373747 -0.15183274 -0.1212817 -0.14607245 -0.1440805 -0.12178581 -0.1490907

model/conv1d_19/BiasAdd/ReadVariableOp f4 [16]
00000000: 1052 40bd 8f58 e7bd e8df ecbd c3d3 30be
00000010: 9422 40be 0100 10bd b3f5 16be bb9f a7bd
00000020: 85ad bcbd 5854 12be 27d9 adbd 8e0a 04be
00000030: bcf6 14be 2f90 e5bd 6707 d7bd 8063 16be
-0.04695326 -0.11296188 -0.11566144 -0.1726828 -0.1876319 -0.035156254 -0.14742164 -0.08184763
-0.09212784 -0.14289987 -0.08488684 -0.12894651 -0.14547247 -0.112091415 -0.10499459 -0.14686394

model/conv1d_20/BiasAdd/ReadVariableOp f4 [16]
00000000: 9cfc ffbd 56dc dcbd af94 eebd 3559 73be
00000010: 561f 03be 3429 c0bd f05d f3bc dbf1 18be
00000020: ab20 9fbd cfbe f4bc a6f9 28be bd36 3cbe
00000030: bd3f abbd 28b4 22be b03e 69bd b566 aabd
-0.12499353 -0.10784213 -0.11649453 -0.23764499 -0.12804922 -0.09382859 -0.029707879 -0.1493601
-0.07769903 -0.02987614 -0.16501483 -0.18380256 -0.083617665 -0.15889037 -0.05694455 -0.08320371

model/conv1d_21/BiasAdd/ReadVariableOp f4 [16]
00000000: 892a e3bd b614 abbd 64b6 9fbd 2299 f2bc
00000010: e8e4 67be 1cb8 2dbe bc9c 9fbd 724c cebd
00000020: fb02 efbd 69a7 10be fcce d0bd edc9 ffbd
00000030: 9fe3 fdbd f759 4cbe 6591 8ebd 703f 8ebd
-0.11092097 -0.0835356 -0.0779846 -0.029614035 -0.22645915 -0.16964763 -0.077935666 -0.100731745
-0.1167049 -0.14126362 -0.10195729 -0.12489686 -0.12396931 -0.19956194 -0.069613256 -0.069456935

model/conv1d_22/BiasAdd/ReadVariableOp f4 [16]
00000000: d492 c2bd 54c7 a8bd f61e c5bd 4f27 80bd
00000010: 4579 9fbd dc47 d2bc 67dc e8bd 742e 02be
00000020: bdc3 a2bd 005a 17be 8f72 0dbe deb7 70bd
00000030: 93d5 27be 55ef 32bc 046f c0bd 49a2 9fbd
-0.095006615 -0.08241144 -0.09625046 -0.062574975 -0.07786802 -0.02566903 -0.113701634 -0.12713033
-0.0794749 -0.14780426 -0.13813232 -0.0587691 -0.16390066 -0.010921319 -0.093961746 -0.07794625

model/conv1d_23/BiasAdd/ReadVariableOp f4 [16]
00000000: 7573 22be 00e3 06bd baae 06be 4879 7cbd
00000010: 33ca 5ebd 4291 88bd 1873 50bd ace3 f2bd
00000020: 9382 bdbd 0c8f eabd 66b7 edbd 0d6c dcbd
00000030: b291 72bd 83a2 15bd 9b3f b9bd c806 eabc
-0.15864356 -0.032931328 -0.1315259 -0.0616391 -0.05439205 -0.06668331 -0.050891012 -0.11859831
-0.09253421 -0.11453065 -0.11607246 -0.107627966 -0.059220977 -0.036531936 -0.09045335 -0.028567687

model/conv1d_24/BiasAdd/ReadVariableOp f4 [16]
00000000: 5bae eebd 1d19 11be caf2 c7bd f98f efbd
00000010: c110 e7bd 9f2f d7bd 6e4a 0ebe fec3 7cbd
00000020: 09c6 13be 1834 f0bd cc18 8fbd c77f 13be
00000030: af72 6bbd 2cff f4bd 7031 09be acbf d4bd
-0.116543494 -0.14169736 -0.09763105 -0.116973825 -0.112824924 -0.1050713 -0.1389558 -0.06171035
-0.14431013 -0.11728686 -0.069871515 -0.14404212 -0.057482418 -0.11962733 -0.13397765 -0.10388121

model/conv1d_25/BiasAdd/ReadVariableOp f4 [16]
00000000: 969d babd 5097 64be 4a17 34be 26db 21be
00000010: 35a4 8fbc 797e c9bd 80bf 21be 2880 8dbc
00000020: 7208 d9bd d0af 2bbd f0b5 11be b923 25be
00000030: 6209 06be 34cd b9bd e6a0 babd 507f 69be
-0.091120884 -0.22323346 -0.17587009 -0.15806255 -0.017534355 -0.09838576 -0.15795708 -0.017273024
-0.10597314 -0.041915715 -0.1422956 -0.16126908 -0.13089517 -0.090723425 -0.0911272 -0.22802472

model/conv1d_26/BiasAdd/ReadVariableOp f4 [16]
00000000: 96b4 e1bd c677 87be ec9e 0abe 2eb4 35be
00000010: 8ecf 25be cb8e d7bd 8af0 acbd b3e0 32be
00000020: 756c 59bd 5a20 05be 7bb3 08be 3ac2 21be
00000030: 4b96 2ebe 9b4e a4bd 50ee 83bd 0f49 e8bd
-0.11020772 -0.26458567 -0.13537186 -0.17744514 -0.16192457 -0.105252825 -0.08444317 -0.17468528
-0.05308195 -0.13000622 -0.13349716 -0.15796748 -0.1704952 -0.08022805 -0.06441939 -0.1134206

model/conv1d_27/BiasAdd/ReadVariableOp f4 [16]
00000000: 73cf ecbd 9fed 7abd 8700 b5bd fcb3 c4bd
00000010: fe79 05be 97e8 5fbe 9dac 10be a0aa 0ebd
00000020: 479f 2ebe 6a38 e9bd 5fc4 1fbe e3af 03be
00000030: 9a4e 17bd 43fa 2cbe 3322 e8bd ce36 ffbd
-0.11563005 -0.06126177 -0.08837991 -0.09604642 -0.13034818 -0.2186607 -0.14128347 -0.03483069
-0.17052947 -0.11387713 -0.15602253 -0.12860064 -0.036940195 -0.16892342 -0.11334648 -0.12461625

model/conv1d_28/BiasAdd/ReadVariableOp f4 [16]
00000000: e475 80bd 4132 b1bd 764e ecbd cd88 1bbe
00000010: 5b2f 86bd 3f82 10be d5d4 12bd 7b53 33be
00000020: 7dc4 bbbd d264 c8bd 6f99 48be 017d 87bd
00000030: 290e ddbd c5be a3bd 0cff 17be e2dc 11bd
-0.06272486 -0.08652163 -0.11538403 -0.15188904 -0.06552001 -0.14112185 -0.035847504 -0.17512314
-0.091683365 -0.09784855 -0.1958978 -0.066156395 -0.107937165 -0.07995371 -0.14843386 -0.03561104

model/conv1d_29/BiasAdd/ReadVariableOp f4 [16]
00000000: 6e5e f6bd e4dc 60bd 1040 b1bd 863b 13be
00000010: afb5 93bd 620b 99bd 1052 d1bd a6b3 20be
00000020: 89a6 d6bd c996 8bbd 5bf9 8fbd 28a7 24be
00000030: 3c76 acbd 4ded debd 2567 a5bd 48d1 09be
-0.1202973 -0.054898158 -0.08654797 -0.14378175 -0.07212388 -0.07472874 -0.1022073 -0.1569353
-0.10480983 -0.06815869 -0.07029983 -0.1607939 -0.08420989 -0.10885105 -0.08076314 -0.1345874

model/conv1d_30/BiasAdd/ReadVariableOp f4 [16]
00000000: 10d3 47be 56de 26be 8063 44be e45e 27be
00000010: a6eb 4cbe b418 afbd 097b 30bd 4e0b f1bd
00000020: 197e 0ebe 3261 9ebd d8e0 cfbd 612d 45be
00000030: dac5 35be 29d1 15be 0000 0000 b983 01be
-0.19514108 -0.16295752 -0.19178581 -0.16344792 -0.20011768 -0.085496336 -0.043086085 -0.11769734
-0.1391529 -0.07733382 -0.101503074 -0.19255592 -0.17751256 -0.1463057 0.0 -0.12647904

model/conv1d_31/BiasAdd/ReadVariableOp f4 [16]
00000000: 225b 8ebe f3ab cbbd 44d6 57be 7cc9 7fbe
00000010: 1c65 0ebe affd 3ebe 469d 62be 709a 37be
00000020: bc65 bebd a65a 56be 333d 0cbe db67 18be
00000030: e776 88be b96b 44be d5d7 0dbe 202b d53b
-0.27803904 -0.09944906 -0.2107783 -0.24979204 -0.13905758 -0.1865146 -0.22130308 -0.17930007
-0.09296748 -0.20933017 -0.1369522 -0.14883368 -0.26653215 -0.19181718 -0.13851865 0.006505385

model/conv1d_32/BiasAdd/ReadVariableOp f4 [16]
00000000: 814b fbbd 1673 b6bd a1f8 19be 3fbf 14be
00000010: d85a 9fbd 2db7 b6bd 89d3 1cbe 08a2 2dbe
00000020: 8e0d 83be fc4d d5bd 88de 00be 3a5c 92bd
00000030: 81e1 57be 9573 2dbe e1a8 edbd 93ce 3ebe
-0.122702606 -0.0890867 -0.1503625 -0.1452608 -0.07780999 -0.08921657 -0.1531507 -0.16956341
-0.2559628 -0.10415265 -0.12584889 -0.07146497 -0.21082117 -0.16938622 -0.11604477 -0.1863349

model/conv1d_33/BiasAdd/ReadVariableOp f4 [16]
00000000: 0199 2abe 4bad 18be 7340 21be 69e1 edbd
00000010: 0467 eebd fe4d 47be 67d4 ffbd 22ff 0abe
00000020: ec26 29be f655 34be 4ab1 33be 2da4 bcbd
00000030: 5394 bdbd fe35 09be b432 61be 9e5c f9bd
-0.16659929 -0.14909856 -0.15747242 -0.11615259 -0.116407424 -0.19463345 -0.124916844 -0.13573888
-0.16518754 -0.17610916 -0.17548099 -0.092110015 -0.09256806 -0.13399503 -0.21991998 -0.121758685

model/conv1d_34/BiasAdd/ReadVariableOp f4 [16]
00000000: 5b99 f0bd 7bc1 d9bd 0041 cbbd 0a43 a2bd
00000010: f195 b4bd 3332 8fbd 9e6c 1fbe bbc5 16be
00000020: e66d 1ebe 2cd9 a9bd 4d49 22be 775a 12be
00000030: 49e1 1ebe 36f7 33be 8673 2bbe 48e2 5ebe
-0.11748 -0.106326066 -0.09924507 -0.07922943 -0.088176616 -0.069919966 -0.15568778 -0.14723866
-0.1547161 -0.082933754 -0.15848275 -0.14292322 -0.15515627 -0.17574772 -0.16743287 -0.21766007

model/conv1d_5/BiasAdd/ReadVariableOp f4 [16]
00000000: 4ba1 e9bc 8bb5 23be 07d2 a7bd 82b6 eabd
00000010: dc48 8fbd 7afe 363c 0df0 dcbd 2503 26be
00000020: e374 16be 986c 5abe 6e75 57bd bd1b 08be
00000030: ba30 8bbd 88d9 85be 78c5 2bbe f7fb 8bbd
-0.028519293 -0.15987222 -0.081943564 -0.11460592 -0.06996319 0.01116907 -0.107879736 -0.16212137
-0.14693026 -0.21330488 -0.052602224 -0.13291831 -0.06796403 -0.26142526 -0.16774547 -0.06835168

model/conv1d_6/BiasAdd/ReadVariableOp f4 [16]
00000000: eba2 13be 1eec 3bbd f324 95bd 72ba 56be
00000010: 76a8 85bd ee97 31be f009 2dbe d974 0abe
00000020: 4ca7 10be 01a3 00be efd6 e4bd be2b bebd
00000030: b0b4 17be 32bc 10bd 4ed8 12be 0a14 42be
-0.14417617 -0.045879476 -0.07282438 -0.2096956 -0.06526272 -0.17343113 -0.16898322 -0.13521136
-0.14126319 -0.12562181 -0.11173808 -0.09285687 -0.1481502 -0.035335727 -0.14340326 -0.18952957

model/conv1d_7/BiasAdd/ReadVariableOp f4 [16]
00000000: f1ca 32be 9386 37be 4bd4 6cbd b9b5 e0bd
00000010: 24b8 edbd 2622 27be 02fa fbbd b34c e0bd
00000020: a7d8 9cbd 779c b3bd 6048 9bbd d6a0 b9bd
00000030: a132 f3bd 03bc 20be 8387 03be 1caf d2bd
-0.17460229 -0.1792243 -0.057819646 -0.10972161 -0.11607388 -0.1632162 -0.123035446 -0.10952129
-0.07658511 -0.08770078 -0.07582164 -0.0906388 -0.11874891 -0.15696721 -0.12844662 -0.10287306

model/conv1d_8/BiasAdd/ReadVariableOp f4 [16]
00000000: 3190 afbd 27bb c8bd 4b10 10be 458e 87bd
00000010: 2756 01be 5f47 01be 6e56 16be b44f cebd
00000020: a4eb 3fbe 4a7f 1cbe f278 e3bc f436 cbbd
00000030: e707 e9bd 2f30 0abe 8e40 16be 8a1f 1bbe
-0.08572424 -0.098013215 -0.14068715 -0.06618933 -0.12630521 -0.12624882 -0.14681408 -0.10073796
-0.18742234 -0.15282932 -0.027767632 -0.09922591 -0.113784604 -0.13494943 -0.14673063 -0.1514875

model/conv1d_9/BiasAdd/ReadVariableOp f4 [16]
00000000: ab1f 36bd d1b0 10be 95aa c6bd fcbf f3bd
00000010: 5959 d2bd 7774 ffbd a9c7 06be 49c1 afbd
00000020: 258d 31be 74ca fdbd c394 d3bd 2d06 abbd
00000030: efb8 41be d8ef 69bd 5a84 15be b97f 85bd
-0.044463795 -0.1412995 -0.09700505 -0.119018525 -0.10270948 -0.12473386 -0.13162102 -0.08581788
-0.17338999 -0.123921305 -0.103311084 -0.08350787 -0.18918203 -0.0571135 -0.1460127 -0.06518502

model/conv1d/BiasAdd/ReadVariableOp f4 [16]
00000000: 7196 10be 8dd9 cebd e931 46be 3a0e 92bd
00000010: b819 34be fe4c a5bd df44 d4bd 5c1a 80be
00000020: 1f19 78be 63b3 9dbd 4265 1ebe 9c2a 7dbe
00000030: fab4 d5bd f500 adbd 8841 32be 915f 30be
-0.14119889 -0.10100088 -0.19354977 -0.0713162 -0.17587936 -0.08071326 -0.103646986 -0.2502011
-0.24228333 -0.07700231 -0.15468314 -0.24723285 -0.10434909 -0.08447448 -0.1740781 -0.17223956

model/conv1d_1/BiasAdd/ReadVariableOp f4 [16]
00000000: bf40 aebd 93b6 11be 3651 46bd 406b 0bbe
00000010: 42f7 cdbd 5edb 68bd 3232 16be d34d 24be
00000020: ef0a 07be 20d0 dabd d221 67be 4fc0 1ebe
00000030: b7d2 47be 7176 2dba 40af 11bd 0395 3ebe
-0.08508443 -0.14229803 -0.048417293 -0.13615131 -0.10056926 -0.05684983 -0.14667585 -0.16045313
-0.13187765 -0.10684228 -0.22571495 -0.15503047 -0.19513975 -0.00066170754 -0.035567522 -0.18611531

model/conv1d_2/BiasAdd/ReadVariableOp f4 [16]
00000000: 9467 2fbe f876 60be ef46 0dbe 9ae5 37be
00000010: 9066 8d3c 8d73 1dbe 407c 34be fc22 83be
00000020: 06dd 6abe f0c0 07be 4ec1 60be 35fc 31be
00000030: 8f18 31be 3d09 39be f39f 49bd c52e 74be
-0.17129356 -0.21920383 -0.1379659 -0.1795868 0.01726082 -0.1537611 -0.17625523 -0.25612628
-0.22935876 -0.13257194 -0.2194874 -0.17381366 -0.17294525 -0.1806993 -0.049224805 -0.23845966

model/conv1d_3/BiasAdd/ReadVariableOp f4 [16]
00000000: 43b1 e3bd 8834 11be 450a f5bd c09e 55be
00000010: 51f0 25be 27f7 12be 0db9 dbbd d546 22be
00000020: e794 53be 68fe 8cbd 5ee2 9dbe 2a84 46be
00000030: 7760 04be 0731 12be 36bb d9be ae2f f8bd
-0.11117794 -0.14180195 -0.119648494 -0.2086134 -0.16204955 -0.14352094 -0.10728655 -0.15847333
-0.2066227 -0.06884462 -0.30836767 -0.19386354 -0.12927423 -0.14276515 -0.42525643 -0.12118469

model/conv1d_4/BiasAdd/ReadVariableOp f4 [16]
00000000: 318d 12be 53f5 4ebe adc9 a5bc 07fb f0bd
00000010: 2495 15be bc73 8abe c9a4 cdbd 34aa 59bb
00000020: ec64 0cbe ae20 10be 86d3 28be e875 8bbe
00000030: adba 60be 3c9c 52bd bb79 16be 39d4 0dbe
-0.14311673 -0.20210771 -0.020237768 -0.1176663 -0.14607674 -0.27041423 -0.10041196 -0.0033213021
-0.13710374 -0.14074966 -0.1648694 -0.27238393 -0.21946211 -0.051418528 -0.14694874 -0.13850488

model/conv1d_10/Conv1D f4 [16, 1, 1, 20]
00000000: 9a96 8a3e ab74 863d 914e a23d 9cea e53e
00000010: 17b8 f73d 4698 283e 507b e3bd f338 36be
00000020: f28e 35be 3f99 21bd 907f a03e 0515 a6be
00000030: 259b c3bd 2f3c 893d d398 8c3d 1128 23be
00000040: d570 183d b04d 38be 07fc 34be 1dfa 5ebe
00000050: b042 27bd 9a6e de3c 35ba 893d be9a 44be
00000060: 4021 81bd 0e4c 673d 24d6 a43d 2f53 f83d
00000070: 9420 1e3f 857e c53d 8c8d 513e 69d6 893e
00000080: 4439 fdbd 35c9 9d3d 38c2 81bd 2712 d23e
00000090: b386 a0be f94a 67be ad5e a03d 3c74 eebc
000000a0: 6922 50be 4cd2 a53e 7e89 593e 8717 b0be
000000b0: 4bf4 9a3e 6e5a 74be 3c9d 273e 4888 823e
000000c0: 0559 febd 4183 73be 4319 703e 5e76 a1be
000000d0: 9667 2fbe 09ad ca3e 08cf 5a3e 9fb5 0abe
000000e0: 2b82 af3e def9 ce3e 3440 8cbe c84b af3d
000000f0: 9f8f 8ebe 587f 94be ee5b d73d 57d7 323e
00000100: 3a37 5e3e 9f29 c2be 73b1 1ebe cd6e db3d
00000110: 37e9 e2bb 6d7c a53e 904a 8c3e e185 9abd
00000120: cecb f3bc 8ed0 1c3d cd08 283f 600f 243e
00000130: 29ae f63e a604 e6bd bbe7 b03e 7c70 cebe
00000140: e962 9abe 8fbb 183e 47bb 25be c2ae 4a3c
00000150: 3309 6cbd da84 91be 86c5 c1be e082 f23c
00000160: 8731 3dbe e361 5f3e 981c b3be 978f a43d
00000170: 5ea5 913e 8412 9dbe 2715 0c3f 989f 0f3e
00000180: 8bbb d73e 738a e73e 15f8 e3bd 0dc3 0bbd
00000190: 1187 43be a463 a13e 00ea 973d fe35 5e3e
000001a0: 09ac b73e eb4f 41bd e53a 62be c9ee a63d
000001b0: 450a 0b3b f808 98be 6649 bdbe 548a 0f3e
000001c0: 0586 813e 1a52 1a3e f589 9e3e 8bab 7e3e
000001d0: ff8f 1bbe 2499 bd3d 9cbe 5e3e 42f5 3f3e
000001e0: 799b 12be d12e fabd 32d7 6fbe 6c73 2fbd
000001f0: c1fd 11be bf49 44be 3672 893e ee2f 283e
00000200: 3716 1ebe b0e1 883d 916d 7fbd 66a9 f9bc
00000210: 5608 88bd bc3a 033d c930 363f 8818 88be
00000220: 9d43 fd3d 9316 ea3c e73b e13d 88f6 ed3c
00000230: e218 f93d 0cc8 7dbe 07de 4b3e e408 4dbe
00000240: b973 2e3e 0c75 a2be d053 be3d 9237 db3d
00000250: db17 b9be cdad 91be b5d0 9c3e efec d8bd
00000260: 9a4c 893c 5eaf e9bc 40e1 b93e f8e7 643d
00000270: 187b 9a3e a596 cc3e 4292 943e 2fa6 f03d
00000280: 1617 0abe 1a2f 183e 7116 57be 5ecc fa3c
00000290: 81a2 263d 1ac5 9dbd 602d 903e f258 6c3e
000002a0: 88e6 aa3e c634 f93d 434d 913c 83b0 473e
000002b0: 4aed 093e 5762 4cbd 199b 293e ca48 5cbe
000002c0: 8b0a aabe f52d 753e dd70 e23e 9613 953e
000002d0: 53c7 213e b244 1fbe 1d19 0a3e 2013 92be
000002e0: 4c6e 513e 8fc9 a73e 7e8d a13d 4b87 5b3e
000002f0: 799d 203e 2039 30bd 1280 a6bd 41f7 81be
00000300: 1f70 903d da82 0ebe 8139 0a3e 5c39 833d
00000310: 6f53 59be 0fe6 b13e 3887 003f e523 8d3e
00000320: c105 adbe 3435 4e3e 7c38 30bc b91e 87be
00000330: 171d b53d 68f5 333e 0650 873e 2901 b63e
00000340: 218b 20be 82e2 463e f1a1 70be f7b8 b53d
00000350: a579 67ba 3729 12bc 67c4 123e e838 72be
00000360: 7d99 453e b0a1 363e 09d1 4bbe e495 963e
00000370: 3669 2a3e 723d 943e 59f1 2cbe 2c35 0a3f
00000380: 4a45 48be b58e 6dbe 6360 c13d b17f 183e
00000390: ed70 80be 08c0 2fbe 7f21 94bd 8678 41be
000003a0: b823 98be 5370 e93e 37ce 153e 91ea 133e
000003b0: 8e8d acbd e32e 5fbe 7e17 0ebd dd83 f33e
000003c0: 6ecf 173f 54bc 753e f397 093e 314d 623c
000003d0: e578 3e3e 547e f73b d891 dd3e 0a80 11be
000003e0: f867 84be 1403 6cbe 4e6d 6e3e 9c4c 96be
000003f0: 3aeb 4b3e f9e0 153a 4802 9cbd f06c 1e3e
0.27068025 0.065652214 0.079251416 0.44905555 0.12095659 0.16464338 -0.11107504 -0.17795162
-0.1773031 -0.039452787 0.31347322 -0.32437912 -0.09551076 0.06700932 0.068650864 -0.15933253
0.03721698 -0.17998385 -0.17674266 -0.21775098 -0.040835083 0.027152348 0.06724969 -0.19199654
-0.0630517 0.056469016 0.080486566 0.12125241 0.6176846 0.09643272 0.20464152 0.26921394
-0.12364438 0.07704393 -0.063358724 0.41029474 -0.31352767 -0.22587194 0.07830558 -0.02910816
-0.20325626 0.32387006 0.21243855 -0.3439295 0.30264506 -0.23862621 0.16368574 0.254946
-0.12419323 -0.23780538 0.23447137 -0.3153562 -0.17129359 0.3958514 0.21368039 -0.13545845
0.34278998 0.4042501 -0.27392733 0.08559376 -0.2784395 -0.29003406 0.10515581 0.17464958
0.21700755 -0.3792238 -0.15497379 0.10714493 -0.006924774 0.32321492 0.27400637 -0.075450666
-0.029760268 0.03828483 0.6563843 0.1602149 0.4817975 -0.11231355 0.34551796 -0.40320194
-0.30153587 0.14915298 -0.16184722 0.012370767 -0.05762596 -0.2842167 -0.3784601 0.029603422
-0.18475924 0.21814685 -0.34982753 0.080352 0.28446478 -0.3067819 0.54719776 0.14025724
0.4213527 0.45222816 -0.11131302 -0.03412156 -0.19094492 0.31521332 0.07417679 0.21700284
0.3587344 -0.047195356 -0.22092779 0.081510134 0.0021215838 -0.29694343 -0.3697006 0.14017612
0.2529756 0.15070382 0.30964628 0.24870126 -0.15191649 0.09257725 0.21752399 0.18745902
-0.1431712 -0.12215961 -0.23421934 -0.042834684 -0.14256956 -0.19168757 0.2684495 0.16424534
-0.15438162 0.066836715 -0.06236035 -0.030476283 -0.06642215 0.032038435 0.7116819 -0.26581216
0.12366412 0.028575217 0.109977536 0.02904822 0.12162949 -0.24783343 0.19908915 -0.20022923
0.17036332 -0.31729925 0.0929333 0.107039586 -0.36151013 -0.28452912 0.3062798 -0.105920665
0.01676016 -0.028526004 0.36304665 0.055885285 0.30172038 0.39958683 0.29017836 0.11750447
-0.13485369 0.14861718 -0.21004654 0.030615028 0.04068232 -0.0770361 0.28159618 0.23080805
0.33379006 0.12168269 0.017737037 0.19500928 0.13469425 -0.04989847 0.16563071 -0.21512142
-0.3321117 0.23943312 0.44226733 0.29116505 0.15798692 -0.15553549 0.13486142 -0.28530216
0.20452231 0.32770965 0.078883156 0.21438329 0.15685071 -0.04302323 -0.08129896 -0.25383952
0.070526354 -0.13917103 0.13498498 0.06407425 -0.21223234 0.34745833 0.5020633 0.27566448
-0.33793452 0.20137483 -0.010755654 -0.26390627 0.08843439 0.17574084 0.2642824 0.3554776
-0.15678073 0.19422343 -0.23499276 0.0887317 -0.0008830077 -0.008920959 0.14332734 -0.2365452
0.19296832 0.17835116 -0.1990396 0.29411232 0.16641697 0.2895313 -0.16888942 0.53987384
-0.19557682 -0.2319897 0.094422124 0.1489246 -0.25086156 -0.17163098 -0.072329514 -0.18893632
-0.2971475 0.4559351 0.14629446 0.14444949 -0.08425437 -0.2179523 -0.034690373 0.4756154
0.5930089 0.23997623 0.1343687 0.013812349 0.18600805 0.0075529013 0.43275332 -0.14209
-0.25860572 -0.23048049 0.23283884 -0.29355323 0.1991395 0.00057174225 -0.076176226 0.15471244

model/conv1d_11/Conv1D f4 [16, 1, 3, 20]
00000000: ce76 5f3d c94e 8bbe c2fc 1f3d fe65 7cbd
00000010: 8e73 3f3d 2545 ef3d 947d 31be 6845 0a3d
00000020: 3e45 03be 9920 e53e 3c4a d43d f049 fe3d
00000030: cfe2 b43e 5c0c 343e 1e8b afbc 680a 43be
00000040: bc31 833b b747 4bbe 3636 873d bac3 a03e
00000050: 526f 3abe 718c 86bd bf60 1b3e 65c2 363e
00000060: 3349 a43d b1bb 3e3e e196 0e3e ca28 4b3e
00000070: dfba fc3c 3a0c a4bd 7ccf a93c 9928 9dbe
00000080: 4cac d43e 2cca b33e e283 ce3d dc98 903d
00000090: aa25 c63c e1f8 c63e e884 2b3e 65bf bbbd
000000a0: 9d71 563c 5b08 163d b7f2 293e e1f7 07bd
000000b0: c86a 9b3c 3c7a ac3e 5d7a 613d a1a5 7d3e
000000c0: 8edd 733e e7d0 583e 0c44 673d 0f89 853d
000000d0: a52c 273e ea56 143e 8453 133e fb9b 3f3e
000000e0: be45 9fb9 cd56 f43d 6926 1d3e daca 2a3e
000000f0: 36bb 913e fcc9 403e 72c8 383d cec0 48be
00000100: 21aa 863e f669 68be 0281 a3bd f6ea fd3c
00000110: 6487 363d 2352 4d3e 00e0 2e3e b0c0 aa3c
00000120: 1f5a 97be 24fc e03c 5f9c 013e bf4c 933e
00000130: b267 ce3e 39bf 733e ed60 1bbe 90e7 c03d
00000140: f8a8 52bd de4e b93d 3c09 a23e 317f 90bd
00000150: 0e10 a83e 0cc9 6fbd d7b0 5ebd fa07 533e
00000160: 52e8 593e 1f9a 793e 20bf e83d f6b5 8cbd
00000170: 2cc7 c43e f167 53be 1549 f63c 7950 673d
00000180: 06f6 b63d d66d 50be d476 1ebd 070c 6cbe
00000190: cac8 213d 3858 14be 743a 91be 8ac9 4c3e
000001a0: 5a04 353e 8c7d a33b 5b9e 453e 33e8 39bd
000001b0: 864a 463a 4909 ca3e 463d bc3e e35c 72be
000001c0: 7138 863e b508 6cbd e920 35bd 35da d1bd
000001d0: 5ad8 213e 119d bf3d b1fb 933c 6fe7 1a3e
000001e0: 0f64 473e 3c4d 11be 278c b2bd 0a7a 20be
000001f0: 5165 343d 58b7 123e 7a3b 49bd 326d 70bd
00000200: 43fe 093e 69a5 9b3e abdb 0c3d e90c 30be
00000210: 78eb 11be 656e acbc 06e1 b2bd 01af a53e
00000220: b262 e33e e086 42bd c1a7 cabd f861 123e
00000230: ac37 783e 701e 3c3d fa04 aa3e 1658 573d
00000240: d693 92ba 5d5a 183f 03c1 073e fad0 493d
00000250: 192f 30bd 68eb e43d 421b f03d e9de ba3e
00000260: 51fe ce3d e43f 1d3e e1bc c63e 87e4 423d
00000270: 91ea fa3e e0ea 653e a574 ab3d 4a56 cd3d
00000280: 1e7e 803d f298 2c3f 1239 163e 7360 8cbe
00000290: 7e89 d9bd 7736 563e b141 03be c590 babd
000002a0: 6265 333e 32d0 f93c 1d5d 5bbd 1c8d 8b3e
000002b0: 4223 99be 2ca9 9a3e b7d7 1abe b37e 9abe
000002c0: 4ed7 6dbe 4bdb 253e 6184 373e 0901 5f3e
000002d0: 4066 b73e d420 353e 0f81 0fbe 8ab5 593e
000002e0: f73b eb3e 7db7 18be e469 84be 2fd6 483e
000002f0: 6716 1b3d 2e60 903d 4362 883d 77dc 033d
00000300: 2376 8cbd 8d93 393e 7d41 463c 114e aebd
00000310: b9bf cfbd e431 773e 0127 f7bd aeeb 193d
00000320: 7b33 1bbd b9bf e63d ab37 ab3e da41 e73e
00000330: d08b 933e a7e0 91be d337 9bbe cb35 6b3e
00000340: edb8 7a3e aba9 3d3e f440 26be baa9 9f3c
00000350: d858 e63d 8730 2bbe 757c 483e db5c bdbc
00000360: fe46 883e b918 863d ca7e 7c3d d3cf d33a
00000370: 5240 89be 68b2 933e 548c e63d e0bc c73d
00000380: 6ca7 a83e 8c15 6fbd 6d2d 13be a362 70be
00000390: 410e 39be 66af 893d 3f78 0d3e f128 173e
000003a0: 055c 7b3e 4aa6 883e 9ff7 e63d c7dc a03d
000003b0: ed0d c73e 7d9c c2bd 28b3 f8bc 2d1c b23e
000003c0: 7323 413e 24e9 b93d fc1c 953d ae20 053e
000003d0: fe9a 83bd 32ab 313d e39b 44be 7e7a 893e
000003e0: 1ab5 25be 37b5 2abe d7a9 c4bd 0975 54bd
000003f0: 7dfc 8cbd e2b2 d43d d56f 123e 67f2 7f3c
0.05455666 -0.27208546 0.039059408 -0.061620705 0.04674106 0.1168311 -0.1733306 0.033757597
-0.12819383 0.44751433 0.103657216 0.12416446 0.3532929 0.1758284 -0.021428641 -0.19046938
0.0040037315 -0.19851576 0.06602137 0.31399328 -0.18206528 -0.06569756 0.15173624 0.17847593
0.08021774 0.18626286 0.13924743 0.19839779 0.030850826 -0.080101445 0.02072882 -0.30695036
0.41537702 0.35115182 0.100837484 0.070604056 0.024187881 0.38861755 0.16749918 -0.09167365
0.013088611 0.036629062 0.16596495 -0.03319538 0.018971816 0.33687007 0.055048335 0.24770214
0.23814985 0.2117344 0.05646138 0.065202825 0.16325624 0.1448628 0.14387327 0.18711846
-0.00030378805 0.119306184 0.15346684 0.16678944 0.28463143 0.18827051 0.045113035 -0.19604799
0.26301673 -0.22696671 -0.07983591 0.030995827 0.044562712 0.20050864 0.17077637 0.020843834
-0.29560944 0.02746398 0.12657307 0.2876949 0.40313488 0.23803414 -0.15173693 0.09419167
-0.051430672 0.09048246 0.3164767 -0.0705551 0.3282475 -0.058541343 -0.054367866 0.20608512
0.2128003 0.24375199 0.11364579 -0.06870644 0.38433206 -0.20645119 0.030064145 0.05647323
0.08933644 -0.20354399 -0.038687542 -0.23051463 0.039498128 -0.14486778 -0.2836491 0.19998756
0.17677441 0.0049893316 0.19298689 -0.045387458 0.00075642054 0.3946021 0.36765498 -0.23668246
0.26214936 -0.05762549 -0.04422084 -0.10246698 0.15805188 0.0935613 0.018064352 0.15127347
0.19471763 -0.14189619 -0.08718138 -0.15671554 0.044041935 0.14327753 -0.049128987 -0.058697887
0.134759 0.30399635 0.03438918 -0.17192425 -0.1424998 -0.021048734 -0.08734326 0.3236008
0.44411236 -0.047491908 -0.09895278 0.14295185 0.24239987 0.045927465 0.33206922 0.05257424
-0.0011182975 0.59512883 0.13257222 0.04927156 -0.043013666 0.11177713 0.11723949 0.36498192
0.10107101 0.15356404 0.38815978 0.047581222 0.49007085 0.22452879 0.083718576 0.10026224
0.06274055 0.67420876 0.14670208 -0.27417335 -0.10621928 0.20919214 -0.12818028 -0.09109644
0.17519143 0.030494783 -0.053555597 0.27256095 -0.29909712 0.30207193 -0.15121351 -0.3017479
-0.23226663 0.16196935 0.17921592 0.21777739 0.35820198 0.17688304 -0.14014076 0.21260658
0.45944187 -0.14913745 -0.25862038 0.19612955 0.03786316 0.07049595 0.06659367 0.032192674
-0.0685847 0.18122692 0.012100575 -0.08510984 -0.1014399 0.24140126 -0.12067986 0.037578277
-0.037890892 0.11267037 0.3344091 0.45167428 0.28817606 -0.2849171 -0.30316028 0.22969739
0.24484606 0.18521754 -0.16235715 0.019490112 0.11247414 -0.1671773 0.19578727 -0.023115566
0.26616663 0.06547684 0.061644353 0.0016159959 -0.26806885 0.2884705 0.11257234 0.09752822
0.32940233 -0.058370158 -0.14372797 -0.23475127 -0.18071844 0.06722908 0.13815401 0.14761712
0.24546821 0.26689368 0.11277699 0.0785461 0.38877812 -0.09502504 -0.030358866 0.3478712
0.18861179 0.09077671 0.07280919 0.13000748 -0.06426047 0.043376155 -0.19200091 0.26851267
-0.16182366 -0.1667069 -0.09602707 -0.051869426 -0.06884096 0.10385682 0.14300473 0.015621758

model/conv1d_12/Conv1D f4 [16, 1, 5, 20]
00000000: b47b 263e c2ef 363d 3e7c a5bd 6f13 123e
00000010: 1f2b f4bc 10e9 0b3d 859e e1bd 9a71 f63d
00000020: 0443 22be 7804 c73d f3dd 8a3e 5fc6 31bc
00000030: 42bb 0d3e 6929 8d3d e37b 9dbd c3f2 38be
00000040: a3ed 05be 31f3 223e c5bc 12be c532 b43d
00000050: f095 83bd dc69 263f 4c57 523d 9aaf 253c
00000060: ba1c c23d 62a2 a9bd 319f abbd 9021 d73c
00000070: 91a2 f0bd f5bd b6bd 5ea3 b5bd 166e 7f3e
00000080: fc6f 8abe 1143 d4bd 338c 0bbe a17c 03be
00000090: 9b21 853d b4c8 6bbe 7983 3ebd ae5e a2bb
000000a0: 1d9d 103e 4839 843e 62fb ac3d a940 16bd
000000b0: cab2 d63e 27f3 4bbb afaa cd3d 61cc 483e
000000c0: 58e7 743e 7d1a c0bd 26b1 723d 9fc8 ab3d
000000d0: 04f7 223e 4d9e 7e3e 9759 c7bd 4e5a 983b
000000e0: 9ab4 4c3d 9ca2 d83b 6cc0 2b3e 76c7 c43d
000000f0: 1322 e9bd a206 1e3e 6aab 8b3d e1c5 e33d
00000100: 2b19 263e d550 cdbd d3ab 2e3d 2104 6f3e
00000110: 4bc0 cc3e 3cd6 6f3c fbd1 91bd 4a9e 353e
00000120: 5abc 8b3e 639c 383c 03db 3c3e 9ecf adbd
00000130: bdea f5bd b2cd b83b a963 ac3d eee8 ec3d
00000140: 7dec cd3d 11af 533e b948 38bb 6dfb 45bd
00000150: 0546 3c3e 6ec8 013e 1c54 173d 1ae9 1d3e
00000160: ed82 2c3c 3d7d 4b3d f7d6 823e 963f 0a3d
00000170: 6a1f 083e 6024 a93d 5f34 26bd b74f ddbd
00000180: b2be 90bd 9685 9a3d 82b6 413d 6d58 843e
00000190: c786 8a3e 0e56 3e3e 0d3b ddbd 8071 673d
000001a0: 7331 31be 051e c73e 3eb2 2e3e 5af5 1ebe
000001b0: bfa7 243e 9a51 c9bd d309 a9bd 8b80 9c3d
000001c0: b9ca 793d acaf a6bd 30e8 363e 4b2a f83d
000001d0: a298 4f3d e9a5 853d be73 9c3e a748 043e
000001e0: b7d4 2c3e 2d6e 6bbd 412d 323e aa48 903e
000001f0: 6829 733e b88b a63c 4fbe 57be b34b a33e
00000200: beaf d9bc a339 04be e3d6 90bd ebb7 babd
00000210: c665 d8bd 1153 69bc 9743 c33d 3529 363e
00000220: c924 703e 30ff eebd 2b32 c1bd 643c c5bd
00000230: bb72 6f3e f561 393e 6f3d abbd 6b58 0dbe
00000240: bbb8 d13d 089b 713e cc5f 243e db27 83bd
00000250: 7f7b 413e fe6f 473e 9e18 fb3d 66e9 a13d
00000260: a3a7 763e d341 8cbd ffd3 223e 4105 49be
00000270: 6a30 29be 948e af3e 5071 803e 315e 3a3e
00000280: 2e80 923d aa63 373e 3080 d73d 8918 c73c
00000290: 0363 0d3e d61a e33e 2b86 e83e b83f e5bd
000002a0: db10 923e afc4 373e f618 c53d 8de7 ca3d
000002b0: c4e5 463d be10 93bd b116 a73d d3a9 8bbe
000002c0: 6d05 f6bd eeb7 913e bf06 f23c 36b4 a23b
000002d0: 6a58 8abd 4943 8ebd ab5b c8bd fdcf 3f3e
000002e0: 4a39 40be 2122 4ebe b2e1 78be 6e87 82bc
000002f0: d62a 2fbe c5da 403e 65ca 33bd 5acf b4be
00000300: 541d a73d ba36 ce3d ba8f d2bb 42ac d0bc
00000310: 66e9 223e 18c1 083e 1913 803c d718 4abc
00000320: f1a5 f03d 2275 913e ee5a f33c 1881 05be
00000330: 14e3 15bd 6a8d 1e3e cec6 d63e 11b0 c4bd
00000340: ecb8 da3e ecb8 dcbd 1591 afbc b523 5d3e
00000350: 6483 783c 1e6f afbd 5480 043e 5e2e 423e
00000360: f52f 893d 2174 9e3e 7b8e 9bbc dd7d 083e
00000370: 5025 fc3d 7953 51ba 90ab 0c3f 57e1 4a3e
00000380: 1e5c 453e 9948 09be b656 06be 8640 923e
00000390: b0ef 223f 566d 5a3d 2c3f bdbd aeb7 22be
000003a0: e57f 9ebc 7489 163e 34b9 873e 06a5 593e
000003b0: 65cb be3d 5af3 5f3e 08dd aabc 62ce 6e3d
000003c0: 903c 7d3e 47a6 cfbd a66d d1bc 61da ed3d
000003d0: 1ae9 ad3e 36fa 62be b8c8 1abe 1d70 0e3e
000003e0: c398 01be 4351 c6bb d5cb 09be 6636 3e3d
000003f0: 7345 05bd 7d72 833e 461b 2f3e cbd7 f73e
0.16258126 0.044662245 -0.08080338 0.14265226 -0.029805718 0.034157813 -0.11016563 0.120333865
-0.15845877 0.09717649 0.2712246 -0.010850518 0.13840964 0.06892664 -0.07689645 -0.18061356
-0.13078932 0.15913083 -0.14329822 0.08798746 -0.06425083 0.6500528 0.051352784 0.010112667
0.094781354 -0.08282925 -0.08379973 0.026261121 -0.11749757 -0.0892295 -0.088690504 0.24944338
-0.27038562 -0.103643544 -0.136277 -0.12840511 0.0650055 -0.23025781 -0.0465121 -0.0049551344
0.14122434 0.25824952 0.08446385 -0.03668276 0.4193328 -0.0031120272 0.10042321 0.19609214
0.23916376 -0.09380052 0.059250973 0.08387875 0.15914541 0.24865074 -0.09733885 0.004649437
0.049976923 0.0066111814 0.16772622 0.09608357 -0.11383452 0.15432218 0.06819804 0.11121727
0.16220538 -0.10025183 0.042644333 0.23341419 0.39990458 0.01463848 -0.07120129 0.17736164
0.27292138 0.011267754 0.18442921 -0.084868655 -0.120076634 0.005639755 0.08417446 0.11567865
0.10054872 0.20672251 -0.0028119518 -0.04833548 0.18386085 0.12674114 0.036945447 0.15420952
0.010529262 0.049679983 0.2555463 0.033752047 0.13293234 0.08258891 -0.04057729 -0.1080622
-0.07067622 0.07545011 0.047293194 0.25848714 0.27055952 0.18587515 -0.10802279 0.056504726
-0.1730402 0.3889009 0.17060181 -0.15523282 0.16079615 -0.098300174 -0.08253827 0.07641705
0.060984347 -0.081389755 0.1786201 0.12117442 0.05068267 0.065257855 0.30557054 0.1291834
0.1687802 -0.05747812 0.17400075 0.28180438 0.23746264 0.020330295 -0.2106869 0.3189369
-0.026573058 -0.12912612 -0.070722364 -0.09117111 -0.10566287 -0.014240996 0.09534376 0.17789157
0.23451532 -0.11669767 -0.09433397 -0.09630659 0.2338361 0.18103774 -0.08361327 -0.1380326
0.10240313 0.23594296 0.16052169 -0.06404086 0.18894766 0.19476315 0.12260555 0.07905845
0.24087386 -0.068484925 0.15901183 -0.1963091 -0.16522375 0.34288466 0.2508645 0.18199994
0.071533546 0.17909113 0.10522497 0.024303691 0.13807301 0.44356412 0.45414862 -0.11193794
0.28528485 0.17946123 0.096239015 0.09907446 0.048558965 -0.07180928 0.08158625 -0.27278003
-0.12012754 0.2846064 0.029544232 0.0049653305 -0.06755145 -0.069464274 -0.09783109 0.18731685
-0.18771854 -0.20130207 -0.24304846 -0.015933719 -0.17106184 0.18833454 -0.04389419 -0.35314447
0.08159891 0.10069032 -0.006425825 -0.025472764 0.15909347 0.1335491 0.015634106 -0.012335024
0.11750401 0.28409678 0.029706445 -0.13037527 -0.03659351 0.15483633 0.4194855 -0.096038945
0.4271921 -0.107774585 -0.021431485 0.21595652 0.015168045 -0.08566116 0.12939578 0.18963
0.066986 0.30947974 -0.018988838 0.13329263 0.12311804 -0.00079851557 0.54949284 0.19812523
0.19273421 -0.134066 -0.13119015 0.28564852 0.63646984 0.053326927 -0.09240565 -0.1589038
-0.019348094 0.14700872 0.26508486 0.21254358 0.09316138 0.21870175 -0.020857349 0.05830229
0.24730134 -0.10139137 -0.02556498 0.11613918 0.33966905 -0.2216576 -0.1511563 0.13909955
-0.1265593 -0.0060521676 -0.13456662 0.046438597 -0.032536935 0.25673285 0.17100248 0.48406824

model/conv1d_13/Conv1D f4 [16, 1, 7, 20]
00000000: 152a 80bd 0578 e83c 84ca 993d 509e dcbd
00000010: 1929 45be aca8 b83b cc26 f5bd 690a 813e
00000020: 3931 7dbd db02 aa3d 08cc 44be 28a4 c23b
00000030: 63e0 41be 83bd 78be bd4b 60bc b9bd 8abd
00000040: 923e 58be 042d 253d b986 06be 8d10 f03b
00000050: 2b18 293b 1d84 7c3d 4617 5ebe f2ed bcbd
00000060: 160f ac3b 63a9 a5bd 0586 1d3d 1266 313e
00000070: fcf2 093e ea02 38bc 7906 55be 3092 e33d
00000080: 1e82 4abe abb2 233e 7688 163f acd6 9fbd
00000090: 1ae3 683d daa7 3c3e fa43 8c3e bc5b 75be
000000a0: 620f 113e 4b7d 803e 6a4c 0f3d f9b2 453e
000000b0: 16a3 423d 2219 903e bf25 9f3e 1284 eabd
000000c0: 9d87 89bb 8002 b53a bd67 8fbd dd62 613e
000000d0: 969c 2bbd 15f8 12bc 215d 903e 548d 013e
000000e0: 89a7 0fbd 81b7 403e 02ac a33d 923f 19be
000000f0: 1399 b73e b6aa 8d3d bd2d 54be 1077 7abd
00000100: 35a4 373e 4b19 1bbc e4ce a8bd 0a26 7e3e
00000110: 4d2e 67be 4252 483d d1a7 803d 66e0 293c
00000120: 2f91 eb3d d28e 6f3e b3a8 b63e c6b4 5d3e
00000130: ac47 f93e 85f9 933e 16bd da3d 7fbc 623e
00000140: dd4c be3e b616 4c3e caa7 9bbc 40bb ce3b
00000150: 7860 953e 4942 b13d e804 6c3e 83e8 07be
00000160: ff59 0f3c 20b4 e33d 516d 423e 6f20 e03e
00000170: d5c2 b33e f3ca 863e dd3b 653e bfa2 443a
00000180: f82f 483e e193 0f3e 566f 0ebd 2d24 6f3e
00000190: 4487 8b3c 6705 983c 9022 20be 3e0a 0cbe
000001a0: 3d01 bebd b5cf b5bd 5776 e13d 4ee5 c6bc
000001b0: c22a 03bc 90ad ac3d ecb3 babc c19c f73c
000001c0: 7095 ed3d d561 443d 81d2 a03d 6afc 8fbd
000001d0: b521 b4bd fc41 e33b bf40 12be cdda 25bd
000001e0: e296 c73d 20dc f3bd 97b0 653d 9563 183d
000001f0: 0dde 97bd f8a9 d2bd 114e 20be 40f6 16be
00000200: cf3b 493d 6dc0 f5bd 10a4 2abe 3a84 12be
00000210: 6eb1 683d ccea e73d 15c4 7c3d 76de 92bc
00000220: c02a a5bc ac44 903c f6db 1fbe dd4a 16be
00000230: 76ee 5dbe 6edf 6dbe 3041 1c3d 5dbe 703e
00000240: 42d5 0f3d 87dc 8b3e 6860 a23e 63d5 babd
00000250: 7a67 f2bb 212f bf3d 4259 d73e c77e 84be
00000260: 954e 003f 8df2 023e af2a d53c dd97 99bd
00000270: 2ae1 1a3d ecf1 2abd b186 10be 6836 9dbc
00000280: 0604 853d 073f 3ebe 916b b23e 1db8 8e3e
00000290: 3df2 473e 2144 333e a8a4 603e 3057 863d
000002a0: 51e9 df3d 602e 8c3d 0fbe fe3c 827f 05bb
000002b0: 75f9 0e3e f501 9abd e7de 123e 071e b43d
000002c0: 200d 003d cc07 dabd f61e 5cbd aca6 1f3e
000002d0: 63f6 31be 64e9 c93e 2aaa 823d bc83 7abe
000002e0: d6ba ee3d baf1 2c3d a0f7 39be 4f25 8f3e
000002f0: 94d4 763c ba2d b73b 034e 3e3a 6973 a73e
00000300: 81b1 a33d 2fb9 c73b a42c 77bc 8538 07be
00000310: 0ef4 9f3d 5278 1b3c 4826 5e3e 8797 dd3d
00000320: 0bba 423d 2186 c9bd 7932 8b3a e79a 5dbe
00000330: c803 833e ffe3 1dbe 0b54 8ebd 1e0d f0bd
00000340: 3f4d 1abe 37bd b7bd f6db c63d 4454 f6bd
00000350: e392 bcbb 760d 50bd e8a6 153e e3ed 903e
00000360: ef7f 813c 808f 2a3d 98d5 a8bd c207 f63c
00000370: 73b0 20bd 4c74 633e 49e7 d43d 5791 01be
00000380: 8326 c63e 33a2 073e 42e2 e23d 25b8 aabd
00000390: 7e77 cbbc bf5c ff3d e267 343e d0f6 f13d
000003a0: 2595 533e 47c1 3a3e 544d d73d 8cc0 34bb
000003b0: bf06 723e 5f99 603d 48c5 163e 7634 973e
000003c0: 63f8 12bc 54f8 9bbd f63b 1a3e bb6d 85bb
000003d0: a175 133e 7ac3 31bd 6444 1ebd ebe0 9d3d
000003e0: 9e16 84bd 9b73 8a3e 01e9 3c3e da45 45bd
000003f0: e722 9d3d a897 333e c07c aa3c 89b6 bf3d
-0.062580265 0.028377542 0.0750933 -0.10772383 -0.19253959 0.0056353416 -0.119702905 0.25203255
-0.06181452 0.08301326 -0.19218457 0.005939979 -0.18933253 -0.24291043 -0.013689932 -0.06774468
-0.21117619 0.040326133 -0.1313733 0.0073261918 0.0025801759 0.06164943 -0.21688566 -0.09225072
0.005250822 -0.080889486 0.03845789 0.17324093 0.13471597 -0.0112311635 -0.2080325 0.111118674
-0.19776198 0.15986125 0.5880197 -0.07804617 0.056857206 0.18423405 0.27395612 -0.23960775
0.14166024 0.2509559 0.034984984 0.19306554 0.047518812 0.28144175 0.31083485 -0.11450972
-0.0041970746 0.0013809949 -0.070022084 0.2201037 -0.04189738 -0.00897028 0.28196052 0.12651569
-0.035071883 0.18820001 0.07991792 -0.14965656 0.35858974 0.06917326 -0.20720573 -0.061148703
0.17933734 -0.0094664795 -0.08242586 0.24819198 -0.22576256 0.048906572 0.062820084 0.010368442
0.11502301 0.23394325 0.35675582 0.21650991 0.48687494 0.28901306 0.106805965 0.22142218
0.37168017 0.19930539 -0.019000906 0.006308943 0.29175162 0.08655221 0.23048747 -0.1327229
0.008749484 0.111183405 0.18987013 0.43774745 0.35109583 0.26326713 0.22386117 0.00075010577
0.19549549 0.14021255 -0.034774147 0.23353644 0.017032273 0.018557264 -0.15638185 -0.13675782
-0.0927758 -0.088775076 0.110089 -0.024279263 -0.0080058 0.08431542 -0.022790872 0.030226113
0.116007686 0.047944862 0.078526504 -0.07030566 -0.087954916 0.006935356 -0.14282511 -0.040491868
0.097455755 -0.1190722 0.056076612 0.037204344 -0.074154 -0.10286325 -0.1565478 -0.14742374
0.049129304 -0.11999593 -0.16664147 -0.14308253 0.056809835 0.11324081 0.061710436 -0.017928343
-0.020161986 0.01761087 -0.15611252 -0.14676996 -0.21672997 -0.23229763 0.038148105 0.23510118
0.035115488 0.27316687 0.31714177 -0.091227315 -0.0073975893 0.09335161 0.42060286 -0.25877973
0.50119907 0.12787838 0.02602133 -0.07499669 0.03781239 -0.04173462 -0.1411388 -0.019190982
0.06494908 -0.1857873 0.34847692 0.27874842 0.19526 0.17506458 0.21937811 0.065595984
0.109331734 0.06844783 0.031096486 -0.002037019 0.13962348 -0.075199045 0.14342843 0.0879479
0.031262517 -0.106460184 -0.053740464 0.15590924 -0.17379145 0.39435875 0.063801125 -0.24464315
0.1165673 0.042222716 -0.18160868 0.27958152 0.015065331 0.005590168 0.00072595495 0.32705238
0.079928406 0.0060950737 -0.015086327 -0.13205154 0.078102216 0.009489136 0.2169429 0.10819917
0.047540706 -0.09840036 0.00106199 -0.21641122 0.25588822 -0.15419005 -0.06949624 -0.11721252
-0.1506853 -0.08971637 0.09709923 -0.12027791 -0.005754815 -0.050794087 0.14614451 0.28306493
0.015808074 0.04164076 -0.08243865 0.030032996 -0.039230775 0.22212332 0.10395677 -0.12653099
0.38701257 0.13245468 0.110783115 -0.08335904 -0.024837252 0.12468862 0.17617753 0.11814654
0.20662363 0.18237792 0.10512796 -0.0027580587 0.23635386 0.054833766 0.14723694 0.29532212
-0.008970353 -0.07615724 0.15061936 -0.004071919 0.1440034 -0.04339931 -0.03863944 0.07708915
-0.064496264 0.27041325 0.18448259 -0.04816232 0.07672673 0.17538321 0.020811439 0.09360988

model/conv1d_14/Conv1D f4 [16, 1, 9, 20]
00000000: 5b53 86bd 76ab 2a3c a581 113e a794 ba3d
00000010: a2be 073e 8a58 9cbd 3190 3fbd fb36 dc3d
00000020: fc67 2dbb 4934 083e 2c83 62bd 9369 6b3d
00000030: 7980 a03d 8d6c a63d cf7a 473e b1ee 28bd
00000040: a76e 73bd dc5f abbc 4307 2e3d 23e4 003e
00000050: e32d 8e3e fbd7 8bbd 6ba9 beba e704 45bd
00000060: a1d4 863d d20c b63d 5938 5cbd 0f2f d93d
00000070: 7d1f 573d 0148 d13c f78e ad3d 2a92 993b
00000080: 8632 083e ac9d a9bd 4846 173e 943f b4bd
00000090: 9eb0 053e 6279 67bd fae8 3ebd be08 ee3d
000000a0: 8a04 0e3e f339 19bb f7a6 ffbc 4564 143e
000000b0: 7e8d 71bc a9fd a63d d365 33bd ae1f 3a3d
000000c0: 84f8 3cbc 6ff2 25bc 781d 71bd 12ba 64bc
000000d0: c3db d0bd 6c91 8abd 20e5 7c3d 37f7 273e
000000e0: d67b d13c b46b 943c aff6 843a b9b0 533d
000000f0: 78cc 0e3d c7f8 0f3e 16b9 563d bcf8 1d3e
00000100: 08bd 8e3e 73aa a7bd d10b 1d3e f428 1c3e
00000110: fd98 193e 9774 003d fa45 4ebd 6431 9fbd
00000120: f2c0 933c 1528 373e ad3d cabc 3bd6 153e
00000130: f2a0 883e 782d 4a3e ed1e 033e c40a 203d
00000140: 87c4 adbc 6b78 0f3e 970f ddbd 2f19 303d
00000150: f6e5 debc a6bb a0bd f918 cebc e82a 0d3e
00000160: cddc ddbc 297c 033e 2974 6f3e 415e 9dbd
00000170: 0a8d 043e 2524 213c 6fd0 063e de8d f53d
00000180: 020b 103d 266a cc3d 349b 273d 79f4 e53d
00000190: d2c9 483d 0341 b73e 9782 1fbd 970c 423e
000001a0: 373e eabd 8e60 8c3e b62e 083e 3e29 e3bc
000001b0: cb93 db3d 0887 b1bc 2b38 1fbe 8a25 a33e
000001c0: d261 50bc 5376 83be 1a9a 9fbd c247 f3bb
000001d0: 753a e33d d08f e4bd 609f 3abe 1551 503c
000001e0: 2cd2 cb3d ecd2 833e 79d4 4a3e a546 1a3d
000001f0: 3ce6 b03e e167 493e b234 c5bd 826b b23e
00000200: 384a 353e c05a 453e 8c2a 073d 51da 873e
00000210: 9e01 ae3d 25c5 a23d 648b e1bd fe90 123e
00000220: 2078 293e 95dd c3bc 82b7 ad3d 8a3a 1b3e
00000230: 33c1 d13c f1ed 853d 1cbe 1a3e 071a 7f3d
00000240: f434 d93d f343 4abd 82dc e5bd b453 013e
00000250: 4fa3 d23e 00ec f23d 6116 bc3c dadc 6a3e
00000260: 3ce4 363e 118b 113e a221 3bbd a0bf fc3c
00000270: 0858 833d 0e04 973d 74bc 0dbd 882e 2a3e
00000280: b9fa 49bd 0f9a 21be 9b3f 26bd 5a09 c9bc
00000290: 5265 133d 6639 2cbe 8c73 84bd 0aa3 66bd
000002a0: abb6 7e3b e852 a83e d45c c93e b6e4 c0bd
000002b0: 1ea1 c53e 0dd9 613e 31a8 0dbe 5ad6 893d
000002c0: ca28 c53b 896c b0bc 0251 2a3e 1fe2 793e
000002d0: 13fd d8bd e5eb 843d 1717 253e aba7 373e
000002e0: 4c4c 4e3d 31c0 d33d 29a7 01bb b2f2 85bd
000002f0: 5c92 993d b32e 0a3e 3fcb b73d ca50 c33d
00000300: c898 143e 1cab b23d 7938 4d3e 9ddb 1cbe
00000310: fe97 143e 1dbc 743c 7888 5e3d efc0 f6bc
00000320: fc71 fc3d abf1 933d 908d 43bd 1ff4 2c3d
00000330: 1f63 6e3d ac8f 953d f0b0 353e fef1 913d
00000340: ed6c 283d 4ec3 c43d f530 343e 2305 443d
00000350: f04c 69bd 8349 a1bc 195f 8d3b 61fd d03d
00000360: 89cc 983c fa38 58bc b965 143e f12b cdbc
00000370: 3dee 6fbd 0993 343e ef07 14bd 6c8e 2dbe
00000380: beb9 3b3e e316 ca3d b9dd 2ebe 0c75 17be
00000390: 1ab5 983d 87a8 9f3d f67b 583e 7350 f4bc
000003a0: 00c8 843c fdf5 1e3e 9703 093e 794a 3abe
000003b0: 8bf0 98bb 431e 293e 7a5f d93c 3a26 273e
000003c0: b3b6 5a3d 1a92 03bd 16cd 1ebd 3fc4 953d
000003d0: cec6 0a3e 0a4c 0c3e b08e f73d 2f65 f83a
000003e0: 45c7 f93d 9e6d 13bd ce9b d03d 7555 f03c
000003f0: 5eb6 3b3c 9611 683d dae4 c0bc 7767 9ebc
-0.065588675 0.010416856 0.14209612 0.091103844 0.13256314 -0.07634075 -0.04676837 0.10752674
-0.0026459685 0.13301195 -0.055300876 0.05747373 0.07837004 0.08126173 0.19480442 -0.04124326
-0.0594317 -0.020919733 0.042487394 0.12587027 0.27769384 -0.068283044 -0.001454634 -0.04810038
0.065835245 0.08889164 -0.053764675 0.10604679 0.052520264 0.02554703 0.08474534 0.0046866136
0.13300523 -0.08282027 0.14772904 -0.08801189 0.13055655 -0.056512244 -0.046608903 0.11622761
0.13868919 -0.0023380488 -0.031207545 0.14491375 -0.014743207 0.081538506 -0.04379828 0.04544037
-0.01153386 -0.010128601 -0.058865994 -0.013960378 -0.10198166 -0.06766018 0.061741948 0.16402899
0.025571745 0.018117763 0.0010144318 0.051682208 0.034862965 0.14059745 0.052422605 0.15426916
0.27878594 -0.081868075 0.15336539 0.15249997 0.14999767 0.03136119 -0.050359704 -0.077730924
0.01803634 0.17886384 -0.024687612 0.14632504 0.26685292 0.19743907 0.12804766 0.039072767
-0.021211876 0.1401078 -0.10793989 0.042992767 -0.027209263 -0.07848291 -0.025158392 0.13785899
-0.027082825 0.12840332 0.23384155 -0.07683993 0.12944427 0.009835278 0.13165449 0.1198995
0.035166748 0.09981184 0.040919498 0.1122827 0.049020596 0.35791788 -0.0389429 0.18950115
-0.11437648 0.27417415 0.13299069 -0.027729627 0.10721549 -0.021670833 -0.1554877 0.31864578
-0.012718635 -0.25676212 -0.077930644 -0.0074243257 0.11095134 -0.111602426 -0.18224859 0.012714644
0.099521965 0.25746858 0.19807614 0.037665028 0.34550655 0.19668533 -0.096291915 0.34847647
0.17704093 0.192729 0.03299956 0.2653375 0.08496402 0.079477586 -0.11012915 0.14313123
0.1654973 -0.02390937 0.08482267 0.1515905 0.02560482 0.06539524 0.15111583 0.06228068
0.10605803 -0.049381208 -0.11223699 0.12629586 0.4114022 0.1186142 0.02295989 0.2293581
0.17860502 0.14213206 -0.04568637 0.030853093 0.06413275 0.0737382 -0.03460355 0.16619313
-0.049311373 -0.15781425 -0.040588003 -0.024540592 0.0359853 -0.16818771 -0.06467351 -0.05630783
0.0038866203 0.32875752 0.39328635 -0.09418623 0.38599485 0.22055455 -0.13833691 0.067303374
0.0060168253 -0.021536129 0.16632465 0.24402665 -0.10595145 0.06490306 0.1612209 0.17935054
0.05036573 0.10339392 -0.0019783473 -0.06540431 0.07498619 0.13494377 0.08974313 0.09536894
0.14511406 0.08724043 0.20041074 -0.15318151 0.14511105 0.014937428 0.054329365 -0.030121295
0.12326428 0.07223829 -0.047742426 0.042225 0.058199998 0.07302794 0.17743278 0.071262345
0.041119505 0.09607564 0.175968 0.04785646 -0.05695814 -0.019688373 0.004314315 0.10204578
0.018652217 -0.013197178 0.14491929 -0.025045367 -0.05857681 0.17634214 -0.03614038 -0.16948861
0.18332574 0.098676465 -0.17076768 -0.14790744 0.074564174 0.07795816 0.21141037 -0.029823517
0.016208649 0.15523525 0.13380276 -0.18192472 -0.004667347 0.1651545 0.026534785 0.16323176
0.05339689 -0.032121755 -0.038769804 0.073128216 0.135524 0.13700882 0.12087762 0.0018951053
0.12196211 -0.03599321 0.101859674 0.029337624 0.011457054 0.056657396 -0.023546625 -0.019336445
