results/fold_0/checkpoint/my_netTCR_model_fold_0.tflite (tflite, 406736 bytes, 73 tensors)

model/conv1d_10/BiasAdd/ReadVariableOp f4 [16]
00000000: a416 48be 408a cabe 2687 efbd b08c b5bd
00000010: 5e77 15be 6d86 6fbd 15e2 22be 5c9d 95bd
00000020: 135d c8bd db3f 0dbe caae 32bd 557d 2dbe
00000030: ce1b 0ebe 3fce 8fbe 6892 11bd 255d a2bd
-0.19539887 -0.395586 -0.116956994 -0.08864725 -0.14596316 -0.058477808 -0.15906556 -0.073054045
-0.097833775 -0.1379389 -0.043623723 -0.16942342 -0.13877794 -0.2808704 -0.035540015 -0.07927922

model/conv1d_11/BiasAdd/ReadVariableOp f4 [16]
00000000: 00c2 94be 660f bdbd 3810 4dbe ced3 3ebe
00000010: f6bb 1abe 5f80 e0be 8b45 d2bd f4cf 66be
00000020: 4365 9fbd dfb6 46be 7057 03be 23ec 4dbe
00000030: b634 12be eefd 2abd 48a0 0cbe c509 0cbe
-0.2905426 -0.09231453 -0.20025718 -0.18635485 -0.15110764 -0.4384794 -0.102671705 -0.22540265
-0.07782986 -0.19405697 -0.12826324 -0.2010961 -0.1427792 -0.041746072 -0.13733017 -0.13675602

model/conv1d_12/BiasAdd/ReadVariableOp f4 [16]
00000000: 6ce5 67be 1501 f4bd f133 77bd 9aa9 51bd
00000010: 2932 38be f413 95be b021 8abd 4ec9 4fbe
00000020: 20cc f6bd 7907 63be 8180 fcbd c469 1cbe
00000030: a82a 43be b72f 32be 235d 23be 63ec 32be
-0.22646111 -0.11914269 -0.06035227 -0.051187135 -0.17987885 -0.29116786 -0.06744707 -0.20291635
-0.120506525 -0.2217082 -0.12329198 -0.15274721 -0.19059241 -0.17401014 -0.15953498 -0.17472987

model/conv1d_13/BiasAdd/ReadVariableOp f4 [16]
00000000: de3c 73bc 772a 66be 2076 53be c67f d3bd
00000010: 0e9d 43be 6977 6bbe bfd4 bebd 4fa5 1bbe
00000020: 70e1 d7bd 5247 18be 443d 9dbe 6a9c c2bd
00000030: de1b c1bd 7d9d 41be 5a0b 38be 3b1a 4ebd
-0.014846055 -0.22477137 -0.2065053 -0.10327105 -0.1910288 -0.2299477 -0.09317922 -0.15199779
-0.10541046 -0.14870957 -0.30710804 -0.0950249 -0.09429143 -0.18907733 -0.1797308 -0.050317984

model/conv1d_14/BiasAdd/ReadVariableOp f4 [16]
00000000: 26e8 46be 80b8 1cbe 7d65 7abd 3b85 0ebe
00000010: c220 71be 9dda cbbd 1efe d5bd 9dfa 2dbe
00000020: 8d61 0bbd 2c55 febd 4c70 75be fb7a 3bbe
00000030: 0a15 afbd 82d3 4dbd 8b89 52be d3d2 1abe
-0.19424495 -0.15304756 -0.061131943 -0.13918011 -0.23547652 -0.099538065 -0.1044886 -0.16990133
-0.03402858 -0.12418589 -0.23968619 -0.18308632 -0.08548935 -0.050250538 -0.20560281 -0.15119486

model/conv1d_15/BiasAdd/ReadVariableOp f4 [16]
00000000: d8b1 33be 8416 1abe 975c 6dbe 3a42 a2be
00000010: e5c6 56be 11fc 2ebe 0a76 cfbd b67e 95be
00000020: 3083 63be 3eb2 86be cd55 3bbc 576e 5ebe
00000030: dd4b 38be 4ab3 14bd 2609 c2bd 3896 6cbd
-0.17548311 -0.15047652 -0.23179851 -0.31691152 -0.2097431 -0.17088343 -0.10129936 -0.29198235
-0.22218013 -0.26307863 -0.011434031 -0.21721779 -0.1799769 -0.036303796 -0.09474401 -0.057760447

model/conv1d_16/BiasAdd/ReadVariableOp f4 [16]
00000000: 9f53 83be 22f8 0bbe efea 7abe 707d 9bbe
00000010: a4ad 2fbe be25 c9be d571 3bbe 03d0 6dbe
00000020: 51b4 a4be 18fa a0be dd1e 22be 36bb 56be
00000030: d46a a2be 616a 08be ddf8 f1bd 0c8b 7abe
-0.25649735 -0.13668874 -0.24503683 -0.3036914 -0.17156082 -0.39286608 -0.18305142 -0.23223881
-0.3216882 -0.31440806 -0.15832086 -0.20969853 -0.31722128 -0.1332183 -0.11815045 -0.24467105

model/conv1d_17/BiasAdd/ReadVariableOp f4 [16]
00000000: 937a 52be f0ac 6ebe b9c4 acbd e990 72be
00000010: e5dc 19be bdb8 89be 019a 78be 2be0 83be
00000020: 315f 07be d4ba aebd bbac 50be 0943 65be
00000030: 7a5d 98be 59dc 1dbe c58e 79be 4015 0ebe
-0.20554571 -0.23308158 -0.08435959 -0.23688091 -0.15025671 -0.26898757 -0.24277498 -0.25756964
-0.13219906 -0.085317284 -0.20378391 -0.22388853 -0.29758817 -0.15416087 -0.24370869 -0.13875294

model/conv1d_18/BiasAdd/ReadVariableOp f4 [16]
00000000: 1257 66be 3971 2fbe 02aa 29be 7112 a6be
00000010: 01bd a8be 5628 91be 5e49 41be 3690 9ebe
00000020: b253 43be b304 87be 19c1 1dbe 9810 81be
00000030: 2e0b ccbd 7733 e0bd 4474 2abe 2053 85be
-0.22494152 -0.17133035 -0.16568759 -0.32435945 -0.329567 -0.28351086 -0.18875644 -0.309694
-0.19074896 -0.26370773 -0.15405692 -0.25207973 -0.0996307 -0.10947316 -0.16645914 -0.26039982

model/conv1d_19/BiasAdd/ReadVariableOp f4 [16]
00000000: e04d 69be d822 0fbe f09a a3bd f476 2bbe
00000010: 7279 87be 9b8f 1cbe 9e5a 15be bf11 6cbe
00000020: c2b5 a4bd 43fb 70be b568 d9bd 5444 e3bd
00000030: f6ec 83be b0e5 1abe 5e34 83be 3b35 ccbd
-0.22783613 -0.13978136 -0.07988536 -0.16744596 -0.26459843 -0.15289156 -0.14585349 -0.23053645
-0.0804248 -0.23533349 -0.106156744 -0.11097017 -0.25766724 -0.15126681 -0.2562589 -0.099710904

model/conv1d_20/BiasAdd/ReadVariableOp f4 [16]
00000000: a72c 81be af83 05be dae0 52be af08 4dbe
00000010: a4aa 4cbe 52a5 2cbe b93b 1bbe a4f1 dabd
00000020: 71cc 35be a195 a53c df1f 10be 3b62 45be
00000030: 99f0 b7bd 33cd 19be 08e2 07be 87ff 98bd
-0.2522938 -0.13038515 -0.20593587 -0.20022844 -0.19986969 -0.1685994 -0.15159501 -0.106906205
-0.1775377 0.02021295 -0.14074658 -0.19275753 -0.08981437 -0.15019684 -0.13269818 -0.07470613

model/conv1d_21/BiasAdd/ReadVariableOp f4 [16]
00000000: dff5 63be e09b 2abe 64b0 acbd 7b35 34be
00000010: 4bb2 f5bd 6c1d 44be 518e debd f81f 27be
00000020: 4440 47be f38e 6cbd 9105 b8bd 37da 18be
00000030: 1b15 ddbd 829a 31be a42d 51be 556e 56be
-0.22261761 -0.16661024 -0.08432081 -0.17598526 -0.11996897 -0.19151849 -0.108669885 -0.16320789
-0.19458109 -0.057753514 -0.08985437 -0.14926992 -0.10795041 -0.17344096 -0.20427567 -0.20940526

model/conv1d_22/BiasAdd/ReadVariableOp f4 [16]
00000000: edd3 c7bd 18f6 c6bd 95d6 55be c0ec 13be
00000010: d453 64be d032 33be a5e3 26be fa6c 1cbe
00000020: 16d2 22be 6dcf 16be 51e4 babd 4dd3 a3bd
00000030: 5ca1 83bd 9a8e b1bc 28a9 d5bd 48a3 32be
-0.097572185 -0.097149074 -0.20882638 -0.14445782 -0.22297603 -0.17499852 -0.16297777 -0.15275946
-0.15900454 -0.14727564 -0.09125579 -0.07999287 -0.06427261 -0.021674443 -0.104326546 -0.174451

model/conv1d_23/BiasAdd/ReadVariableOp f4 [16]
00000000: 8616 d1bd 8bd7 4ebe 3d7f 4dbd 5bfd 70be
00000010: 0e75 34be fa27 bbbc 34e4 edbd 3a32 27be
00000020: 88e1 9ebd 6e59 b1bd 6fe6 2ebe 8413 45be
00000030: 21bc 99bd 8b2f 93bd e1dd 9cbd 6d28 64bd
-0.10209374 -0.2019941 -0.050170172 -0.23534147 -0.17622778 -0.02284621 -0.11615792 -0.16327754
-0.077578604 -0.086596355 -0.17080091 -0.19245726 -0.07506586 -0.071868025 -0.076595075 -0.055702616

model/conv1d_24/BiasAdd/ReadVariableOp f4 [16]
00000000: 50f1 9abd c1af 1ebe 9166 1fbe d5e2 e0bd
00000010: 3064 05bd 97c4 10be 8d54 46bd 8e1a 79be
00000020: 3bd0 c0bd 3c3c 19be 9941 e4bd 524a ddbd
00000030: 85fc b3bd 0e67 f3bd 12f3 3fbd cf28 34be
-0.07565558 -0.15496732 -0.1556647 -0.10980765 -0.03256625 -0.14137493 -0.048420478 -0.24326536
-0.09414717 -0.14964384 -0.11145324 -0.10805191 -0.08788399 -0.118848905 -0.04686267 -0.17593692

model/conv1d_25/BiasAdd/ReadVariableOp f4 [16]
00000000: b23b 23be ca29 2bbe f94c 10be f184 fbbd
00000010: 5667 b8bd e083 05be 3bf8 50be d7d4 74bd
00000020: 4c09 0dbe afcf 2fbd 303d 4abe 0d2c 52be
00000030: e61f 8cbe 1688 90be 0cf3 15be 1d9b 8fbe
-0.1594074 -0.1671516 -0.14091863 -0.12281216 -0.09004085 -0.13038588 -0.20407192 -0.059773292
-0.13773078 -0.042922672 -0.19749904 -0.20524617 -0.27368087 -0.28228825 -0.14643496 -0.2804803

model/conv1d_26/BiasAdd/ReadVariableOp f4 [16]
00000000: 57d4 08be 7598 64be 0394 0cbe 7293 55be
00000010: 320d 1fbe 6bdb 0cbe 82ba 60be 3b37 c7bd
00000020: a21f f0bd ec07 77be 7ad5 6dbe ff04 7dbe
00000030: e11f 86be 8a82 e2bd a22c 2cbe 5594 1fbe
-0.13362251 -0.22323783 -0.13728337 -0.20857027 -0.15532377 -0.13755576 -0.21946147 -0.09727331
-0.117247835 -0.24124116 -0.23225966 -0.24708937 -0.26196197 -0.110600546 -0.16813901 -0.15583928

model/conv1d_27/BiasAdd/ReadVariableOp f4 [16]
00000000: 2cc1 45bd b9e1 21be f487 19be 1e63 1ebe
00000010: b75b 70be e509 15be b0dd 65be 7777 37be
00000020: 936b 81be a8a3 51be a58a 34be a4c5 67be
00000030: 764f 01be d2da babd acb8 7abe b409 46be
-0.048279926 -0.15808763 -0.14993268 -0.15467498 -0.23472486 -0.14554556 -0.22447848 -0.17916666
-0.25277385 -0.20472586 -0.17631014 -0.22633988 -0.12627968 -0.09123768 -0.24484509 -0.19339639

model/conv1d_28/BiasAdd/ReadVariableOp f4 [16]
00000000: c9cf 41be 4851 9bbd 7c6b 5cbe f31f 5abe
00000010: a3fe 58be 297a 29be 7b5d 7ebd 0e55 78be
00000020: 8761 8fbe c15d 49be a558 10be 2619 1abe
00000030: 7d95 0fbe 7701 37be daa3 60be 0190 4ebd
-0.1892692 -0.075838625 -0.21525377 -0.2130125 -0.21190886 -0.16550507 -0.06210087 -0.24251196
-0.28004095 -0.1966467 -0.14096315 -0.15048656 -0.14021869 -0.17871653 -0.21937504 -0.0504303

model/conv1d_29/BiasAdd/ReadVariableOp f4 [16]
00000000: a71f 33be 1639 2cbe 291a 44be f633 33be
00000010: ad3a fbbc 5c74 08be ecb1 03be 6f98 30be
00000020: 7ba9 3ebd e7f7 51bd 4a93 0cbe 92ed 73be
00000030: 9ba3 e1bd b283 3cbe 6243 2fbe 0c49 afbd
-0.17492543 -0.16818652 -0.19150604 -0.1750029 -0.030667627 -0.13325638 -0.1286084 -0.17245649
-0.046548348 -0.05126181 -0.13728061 -0.23821095 -0.110175334 -0.18409613 -0.17115548 -0.085588545

model/conv1d_30/BiasAdd/ReadVariableOp f4 [16]
00000000: 9bd1 95be 55fe 4bbe 1bb1 2cbe b5f0 46be
00000010: 4302 98be da7d 73be d097 35bd 5b3d 6dbe
00000020: a964 2ebe 7f32 d0bd ff6d 32be b970 58be
00000030: 0487 84bd 479d c8bd 0000 0000 de72 f4bd
-0.2926148 -0.19921239 -0.16864435 -0.1942776 -0.29689226 -0.23778477 -0.044334233 -0.23167937
-0.17030586 -0.10165881 -0.17424773 -0.2113675 -0.06471065 -0.09795623 0.0 -0.11935972

model/conv1d_31/BiasAdd/ReadVariableOp f4 [16]
00000000: 63fd 36be b47a 68be 2612 3abe 04c8 25be
00000010: 2ed4 d2bd b525 50be 5d96 89be d175 15be
00000020: 7752 20be 4ff7 22be dbdd 69be d062 31be
00000030: faa6 2cbe 1f10 5fbe fab1 88be 8680 7bbd
-0.17870097 -0.22703058 -0.18170986 -0.16189581 -0.10294376 -0.20326884 -0.2687253 -0.14595725
-0.15656458 -0.15914653 -0.22838537 -0.1732285 -0.16860572 -0.21783493 -0.26698285 -0.061401866

model/conv1d_32/BiasAdd/ReadVariableOp f4 [16]
00000000: b271 46be 9096 93be f34f b4bd e857 8cbe
00000010: 4953 26be 4d17 80be ea69 d2bd c1e9 59be
00000020: 85bd 4dbe 0c0e 82be 1b09 e6bd dd1e 06be
00000030: ce6d 44be 6c5a 91be d789 69be dccd 74be
-0.19379309 -0.28825808 -0.088043116 -0.27410817 -0.16242708 -0.25017777 -0.10274108 -0.21280576
-0.20091827 -0.25401342 -0.112322055 -0.13097711 -0.19182512 -0.283893 -0.22806488 -0.23906654

model/conv1d_33/BiasAdd/ReadVariableOp f4 [16]
00000000: 1494 48be 6181 72be b39f 4dbe 1a1d 0abe
00000010: e4cd f4bd 3f8c 80be 9b44 0ebe 8753 19be
00000020: 0631 7cbe 0daa 52be 3cf2 92be 213b 80be
00000030: 6ca7 49be ca66 25be 96d4 43be 15d7 8cbe
-0.19587737 -0.23682167 -0.20080452 -0.13487664 -0.11953333 -0.25107 -0.13893358 -0.1497327
-0.24628076 -0.20572682 -0.28700435 -0.25045112 -0.19692773 -0.16152492 -0.19124064 -0.27507845

model/conv1d_34/BiasAdd/ReadVariableOp f4 [16]
00000000: 2986 b7be 2ccd 32be 7735 fabd 4d84 1cbd
00000010: 79fa 23be 9ee0 37be 15aa 9dbd 6919 09be
00000020: eca9 67be 964a 5ebe f648 3fbe 4f9e f6bd
00000030: fb2b 1ebe 4f5f 8bbe e780 7ebe ffb7 8dbe
-0.35844544 -0.1746108 -0.12217229 -0.03821211 -0.16013516 -0.17956778 -0.07698456 -0.133886
-0.22623414 -0.2170814 -0.18680176 -0.12041914 -0.15446465 -0.27221152 -0.2485386 -0.2767944

model/conv1d_5/BiasAdd/ReadVariableOp f4 [16]
00000000: a224 97bd 0c8f a9bc bc3a 01be cb85 2dbe
00000010: 78d7 cdbd 92d5 53bd 36c1 8fbd 24f7 31be
00000020: cd8d f4bd 7dce ecbd 48b8 49be f059 cabd
00000030: 7de1 a2bd 26c9 8fbe 107b 4fbe aa1d a4bd
-0.07380034 -0.020698093 -0.12620062 -0.16945569 -0.10050863 -0.05171735 -0.07019274 -0.17379433
-0.11941109 -0.11562822 -0.19699204 -0.098804355 -0.07953165 -0.28083152 -0.20261788 -0.080134705

model/conv1d_6/BiasAdd/ReadVariableOp f4 [16]
00000000: dbff 2cbe 08f7 4ebd e5ad 97bd 2d1a 26be
00000010: c662 3abe ceac 38be 5a71 34be 330d 89be
00000020: e90a 6abe f5ba 16be 7e7e 0cbe 7ef9 26be
00000030: 8a03 40be 1e55 efbc e4bb 6ebe b461 a5be
-0.16894476 -0.050528556 -0.074062146 -0.16220923 -0.18201742 -0.1803467 -0.17621365 -0.26767883
-0.22855724 -0.14719756 -0.13720128 -0.16306111 -0.1875135 -0.029215392 -0.23313862 -0.32301104

model/conv1d_7/BiasAdd/ReadVariableOp f4 [16]
00000000: 7350 23be cd93 e1bd 109f b6bd 652b 8bbe
00000010: bead 7cbe 44f7 0fbe 7974 6dbe 8f0b 31be
00000020: 1be5 45be fe7e 0ebe ae3e bbbd 1ce6 05be
00000030: 1e16 8cbe 5a99 18be 35c0 5bbe 965d 20be
-0.15948658 -0.11014519 -0.089170575 -0.27181545 -0.24675652 -0.14059168 -0.23188962 -0.17289566
-0.19325678 -0.13915631 -0.091428146 -0.13076061 -0.27360624 -0.14902249 -0.2146004 -0.156607

model/conv1d_8/BiasAdd/ReadVariableOp f4 [16]
00000000: b32b 3fbe 3df9 2fbe 67c4 51be 6deb fcbc
00000010: b48b fabd 2de1 d8bd 9754 00be 0193 55be
00000020: 02a0 84be 28e6 2abe 239d e3bd 3909 3cbe
00000030: b9f4 3bbe 60f5 10be 33f5 28be 021a 04be
-0.18669014 -0.1718492 -0.20485078 -0.030873979 -0.122336775 -0.10589824 -0.12532268 -0.20856859
-0.25903326 -0.1668936 -0.11113956 -0.18362893 -0.18355073 -0.14156103 -0.16499786 -0.12900546

model/conv1d_9/BiasAdd/ReadVariableOp f4 [16]
00000000: 2031 c1bd edb1 62be 3c77 d6bb ae1e 26be
00000010: c979 56be c5ea 8bbe e2f5 3cbd 96c3 87be
00000020: 5609 46bd 1096 4fbe 031b 69be d6d7 e3bd
00000030: abd3 9fbd 8fe0 0bbe 1d9d 26be f7b4 53be
-0.09433198 -0.22138186 -0.0065449756 -0.16222641 -0.20944895 -0.27327552 -0.04613293 -0.26516408
-0.048348747 -0.20272088 -0.2276421 -0.11125152 -0.07804044 -0.13659881 -0.16270871 -0.20674501

model/conv1d/BiasAdd/ReadVariableOp f4 [16]
00000000: 6728 18be 7ed5 14be a5a6 4bbe a9fb 84bd
00000010: 1219 75bd 4f70 12be a761 b8bc d62c 63be
00000020: be0e 2fbe 9127 e7bc f81c 4bbe 9aab 03be
00000030: 287d fcbd dadb d0bd 712a 94be c98d b0bd
-0.14859162 -0.14534566 -0.19887789 -0.06493313 -0.059838362 -0.14300655 -0.022507502 -0.22185072
-0.17095467 -0.028217109 -0.1983527 -0.1285843 -0.12328559 -0.10198183 -0.2893863 -0.08620793

model/conv1d_1/BiasAdd/ReadVariableOp f4 [16]
00000000: 3af8 5c3d ad94 8bbd b9a2 30bd bade 6dbe
00000010: e9df 12be 577f 8bbd 17ba 89be 1267 31be
00000020: 1f18 8bbe c37f 83be b442 7dbe 9d59 bfbc
00000030: 853a 6bbe 3a95 78be 82d9 15be 3f88 d4bd
0.053947665 -0.06815467 -0.043123934 -0.23229495 -0.14343227 -0.068113975 -0.26899788 -0.17324474
-0.2716684 -0.25683412 -0.24732476 -0.02335816 -0.22971542 -0.24275675 -0.14633754 -0.103775494

model/conv1d_2/BiasAdd/ReadVariableOp f4 [16]
00000000: b491 65be e28e 29be 5ada 65be f07d 7dbe
00000010: 35f2 46be 448f 7bbe 4be0 45be 170b 6dbe
00000020: a7da 50be 48ab 9dbd 9045 afbe 797b 48be
00000030: 8865 c6bd 9dc9 abbe 1cc4 debd 6194 56be
-0.22418863 -0.16558412 -0.22446576 -0.24755073 -0.19428332 -0.2456637 -0.19323842 -0.23148762
-0.20395909 -0.07698685 -0.3423276 -0.19578351 -0.09687334 -0.33552256 -0.10877249 -0.2095504

model/conv1d_3/BiasAdd/ReadVariableOp f4 [16]
00000000: bf0d 1bbe cc98 53be 9c58 78be 4aa6 12be
00000010: 499f e3bd d136 12be fa98 83be 431a 21be
00000020: d4af 8dbe 7607 55be 08d9 50be 6797 2abe
00000030: 5fa2 c4be 8bd7 2fbe 3c4e 44be c7b5 5ebe
-0.15141962 -0.20663756 -0.24252552 -0.14321247 -0.111143656 -0.14278723 -0.2570265 -0.15732674
-0.2767321 -0.20803627 -0.20395291 -0.16659318 -0.3840513 -0.17172067 -0.19170469 -0.2174903

model/conv1d_4/BiasAdd/ReadVariableOp f4 [16]
00000000: 9456 37be 802b 9abe 833d 26be f775 f3bd
00000010: 989a c7bd 1fa0 5dbe dbf3 66be 41f6 11be
00000020: 25f4 43be 81ce 01be 9f55 57be f785 51be
00000030: 0a09 77be 8870 2dbe 2519 58be 5acd e5bd
-0.1790412 -0.30111313 -0.16234402 -0.118877344 -0.09746283 -0.21643113 -0.22553961 -0.14254095
-0.19136102 -0.12676431 -0.21028756 -0.2046126 -0.24124542 -0.16937459 -0.21103342 -0.11220808

model/conv1d_10/Conv1D f4 [16, 1, 1, 20]
00000000: 1455 a33e 73df 153e ed26 503e 6adc 773e
00000010: f242 3c3e e47b 6f3e df91 81be dd22 77be
00000020: a99f 8bbc 791d 90bc b955 9d3e 5fbe 26be
00000030: 4ff8 90ba d685 be3d 86a7 143e 0351 ffbd
00000040: efd8 383e 5e36 2abe 6fa3 16be 6311 36be
00000050: eb0f 41bd 60ca e93c 0720 5b3e 812e 4dbe
00000060: d81d a93d 4fd8 3d3e 4d99 123e c615 563e
00000070: ae2a 7a3f 2e52 bb3d 152c 973e 57a8 3d3e
00000080: 8536 c0bd f915 0c3e bf37 703d 4ac5 933e
00000090: c2d8 c7be d4ce e2be ef21 363e 8883 48bd
000000a0: deee 82be dd01 633e 0857 2e3e 6644 cbbe
000000b0: 193a c23e 4f34 ddbe 7396 f93d c487 583e
000000c0: a257 9fbe 0de8 60be 3a8c 6e3e 25f7 cabe
000000d0: 0f69 e3be 12de 163f 52bf 5b3e 2b63 24be
000000e0: f52f a43e 2e66 013f 930d 6dbe e3b1 dcbb
000000f0: 0103 13be bfbd abbe 60e0 413e 5b5c 9d3e
00000100: eabf 883e be45 aebe 8459 69be 76a2 7c3e
00000110: f0d6 d23b 74b5 dd3e 3c4b 9b3e 62c0 44bd
00000120: 3f1a 643d ea07 c03d 3643 a63e d07e 393e
00000130: 99a5 bc3e 57e6 e1bd 4d7d d23e 6f65 adbe
00000140: 6ee1 1dbe fb6e 573d 884c c2bd 6a86 353e
00000150: f24c 04bd e4b1 0fbe cd85 86be 3ff0 883d
00000160: 0d51 b2bd c56f a73e 66f4 a0be 35cb 693e
00000170: d6ff b53e 87d9 86be fa74 383f 82a6 10ba
00000180: bdd5 7a3e 2a24 033f 2500 2cbd 6b78 0abc
00000190: 0b71 4fbe 0a5c ad3e 537a 303d fed1 7a3e
000001a0: 316e b33e fd95 54bd 489b 42be 6c2c 9f3d
000001b0: 631f 813c 5ad8 94be 2009 b3be f1c8 f73d
000001c0: d861 823e 14e6 133e 41d2 ab3e 44fe 4c3e
000001d0: 0330 32be 4a5d c93d 275a 473e 071b 473e
000001e0: 8c91 22be bff5 c4bd fe45 31be 3aa4 a8bb
000001f0: aae3 e6bd 242c 4bbe 523c 773e a741 013e
00000200: 52fb 20be cafd 7c3d 9aa3 52bd 608e 31bd
00000210: 8358 8abd aa55 90bb efe3 2d3f f208 82be
00000220: abf2 ad3d 94ac 2c3d 54e3 9b3d 6e44 9f3c
00000230: c180 ad3d 9fac 29bd 016b 7c3e 2fed 23be
00000240: c34d 5fbd 9b86 5bbd 74c2 e43d 7452 913d
00000250: 4656 023d f26d 11bf df38 b23c e110 e8bc
00000260: e848 473e 597f d5bd 323d 963e 4226 823d
00000270: c34c 653e 89bd 183f 6ee7 063f 00a7 5f3b
00000280: e2a7 babd 348d 293e 7e56 2dbe 607f d53d
00000290: 7e07 f33c 684c 69bd 9a09 753e 518d 8b3e
000002a0: 94f0 c43e 51dc 113e aa84 9cbd 5b55 fb3d
000002b0: ed0c 9c3e 0ffc 69bd 032e 253e ff84 3dbe
000002c0: 02ee 9ebe 62a1 d13e be44 083f 4e99 c83e
000002d0: 73fc 3c3e e203 4cbc 34c6 1d3e efb5 81be
000002e0: 2d13 6c3e 6022 303f 5548 823e 3b8d 323e
000002f0: f822 3c3e 2956 d6bd b2e4 683d 628b 7abd
00000300: d878 aa3e ea42 91be 0985 623e eb6f 943e
00000310: 00e7 2dbe dc8a 8a3e 63bc 8f3e 35ec 073e
00000320: 67a2 59be f464 423e 99ad 613e 0164 b6be
00000330: d0cf 0c3e 72a7 d33e a734 f83e 2fba b43e
00000340: eb1e 32be b065 903e 0cb0 67be 029e 143f
00000350: f702 3dbd 2df3 c6bd 916a 883e 45ad c43d
00000360: db8d a23d 77a2 223e 4215 b7be 2109 963e
00000370: e260 6c3d 2b61 903e a431 0dbf 41e3 413e
00000380: 6112 59be 7237 f3bd 7828 253d 9da7 443e
00000390: 50e5 94be 814b 5abe 3300 fcbd 55a6 25bc
000003a0: 1cd6 81be 08e4 eb3e 8ce1 563f 7f57 86bd
000003b0: d436 e3bd 49ff 0cbe cb22 99bd 184a e03e
000003c0: a966 913d b059 b73e 1a22 c23e 00c4 6bbd
000003d0: e7bc e03d e6ca 7a3e 3b14 043f 7991 4dbe
000003e0: 3e55 babd eba8 6cbe 9267 e83e 825b c3be
000003f0: f1a6 113f 7866 ecbc d4a4 f9bd cdda 103e
0.31900847 0.1463602 0.20327349 0.24205175 0.18384913 0.23387104 -0.25306603 -0.24134393
-0.017043905 -0.017592179 0.30729464 -0.16283558 -0.001106033 0.09302871 0.1451703 -0.12466624
0.18051504 -0.16622302 -0.14710782 -0.1778007 -0.04713432 0.028538883 0.21398936 -0.20037271
0.08257645 0.18539546 0.14316292 0.20906743 0.97721374 0.09146534 0.2952582 0.18521248
-0.09385399 0.13680257 0.058646914 0.28861457 -0.3903256 -0.44298422 0.17786382 -0.048953563
-0.25572866 0.2216868 0.17025387 -0.3970062 0.3793495 -0.4320397 0.12186899 0.2114554
-0.31121546 -0.2196352 0.2329568 -0.3964168 -0.4441609 0.589326 0.21459702 -0.16053455
0.32067838 0.5054654 -0.2314971 -0.006735073 -0.14356615 -0.33543202 0.18933249 0.30734524
0.2670892 -0.34037584 -0.22788054 0.24671349 0.006434314 0.433025 0.30330837 -0.048035033
0.055689093 0.093765095 0.32473153 0.18114781 0.3684509 -0.11030262 0.41111222 -0.3386645
-0.15418026 0.052596074 -0.094872534 0.17727056 -0.032299943 -0.14032704 -0.26273957 0.06686448
-0.087068655 0.3270246 -0.3143646 0.22831424 0.3554675 -0.26337835 0.7205349 -0.00055179757
0.24495597 0.51227057 -0.041992325 -0.008451561 -0.20257966 0.33859283 0.043085407 0.24494168
0.35045007 -0.051900852 -0.19004548 0.07772145 0.015762037 -0.29071313 -0.349679 0.120988734
0.25465274 0.14443237 0.33558849 0.2001887 -0.17401128 0.098322466 0.19467984 0.19443904
-0.15875834 -0.09617185 -0.17311856 -0.0051465305 -0.11273892 -0.19841057 0.24144104 0.126227
-0.15720871 0.06176547 -0.051425554 -0.04334867 -0.067551635 -0.004404743 0.67925924 -0.2539745
0.08493551 0.04215677 0.07611719 0.01944181 0.084718235 -0.04142439 0.24650194 -0.16008447
-0.05451752 -0.053595167 0.111699015 0.07095805 0.031820558 -0.5680839 0.021755634 -0.028328361
0.19461405 -0.1042468 0.29343563 0.06354953 0.22392564 0.5966421 0.52696884 0.003412664
-0.09114052 0.16557771 -0.16927525 0.104246855 0.029666658 -0.056957632 0.23929444 0.27256253
0.38464797 0.142442 -0.07642491 0.1227214 0.30478612 -0.057125147 0.16130833 -0.18507765
-0.3104096 0.40943438 0.5322989 0.39179462 0.18455677 -0.012452098 0.1540764 -0.25334117
0.2305419 0.6880245 0.2544581 0.17436688 0.18372715 -0.104656525 0.056858726 -0.061168082
0.3329532 -0.28371364 0.22121061 0.28991637 -0.16982651 0.27059066 0.28073415 0.132737
-0.21253358 0.18983823 0.22038879 -0.35623172 0.13751149 0.41338688 0.4847767 0.35298297
-0.17394607 0.2820258 -0.2262575 0.580536 -0.046145406 -0.09714351 0.26643804 0.09603361
0.07937213 0.15882288 -0.35758406 0.2930384 0.057709582 0.28199133 -0.5515387 0.18934347
-0.21198417 -0.1187581 0.040321797 0.19204564 -0.29081202 -0.21317865 -0.123047255 -0.010110457
-0.25358665 0.46072412 0.8393791 -0.06559657 -0.11094442 -0.13769259 -0.07477339 0.4380653
0.07099659 0.35810614 0.37916642 -0.057559967 0.1097353 0.24491462 0.5159337 -0.20075025
-0.0909829 -0.23111312 0.45391518 -0.38155752 0.5689536 -0.028857455 -0.121896416 0.14145966

model/conv1d_11/Conv1D f4 [16, 1, 3, 20]
00000000: b84e 833e fe34 3dbe 8b04 2fbd 2c5f a3bd
00000010: 3a70 733e fe02 b93d 24a9 aabd a9f5 213d
00000020: 5802 10be 251d be3e 45f6 813d 3894 d63d
00000030: b0d2 4a3e c402 913d 21c9 0bbd 7aab 17be
00000040: d72f 003e f4b5 1ebe 5387 f13d 6d08 d13e
00000050: 866c afbd 8c8e a13e ca99 5c3e 2a4d 093e
00000060: e80a f93c 8ad6 6a3d ffbe 1d3d 235c ad3e
00000070: 92d1 803e ed15 20bd 6862 bcbd 23ae 30be
00000080: 3d3f c83e a4d3 813e 7a68 1f3d ace0 66bd
00000090: 5616 42bd c434 ff3e 5217 903e 7387 b93d
000000a0: 49bf 823e 4c50 c7bd 0958 353e f91c 983e
000000b0: bb91 a23e b6bc a23e 1e6c 7ebd 0008 063f
000000c0: 2791 9e3e 03bf 703e 8a5d cb3d 0d46 e8bd
000000d0: 74d2 373e acda 663e 12d9 c23e b35b 9c3e
000000e0: 6edd a33d af36 0b3e 8e97 823e 16fd 7a3e
000000f0: e5fb 0dbe 4ca3 7f3e 1b49 463d d140 66be
00000100: a978 a23d bbf3 83bc 6b3b 1fbe 2539 5abe
00000110: c736 c13e 0b35 b23e 78b2 a73e 96eb 4ebd
00000120: c5a8 8fbd 0c55 053e a354 833e 55c2 d43d
00000130: b1db 8a3e 425a f33e e092 6f3d 775c 263e
00000140: a50a 253f a7c7 603e 0696 803d 5e61 19bd
00000150: 4b4c f93e 1ca6 983d 2fd3 a8bd 36f0 743e
00000160: e03e 893d 9be1 f03d 9043 9bbd bd6a 5f3d
00000170: 7b19 083e 0243 01be c633 943e f21a 0c3f
00000180: 8621 fc3e d425 0abe 0883 1c3e ec6c 3bbe
00000190: bcfd 173f 6501 dcbd f8ca fdbe dd97 df3c
000001a0: 6a49 c03e ee5f a9bd 7a9e 3abc f87b b6bc
000001b0: 3f8a f1bd c45c a83e 7f19 523e c4ef 5ebe
000001c0: bc9c b83d 7183 0fbe 5f65 583e 1947 9b3e
000001d0: 6ed4 423f f6e8 403d f841 473b da3b 553e
000001e0: 1fc6 563e 296b 893e 3f2a 7f3c f60f f83b
000001f0: d051 a53e 3de9 f73e e4dc 3d3e 8a0a af3e
00000200: 32b3 f03e 0f93 043f c806 be3d a263 4c3e
00000210: aa34 67bd c36a 473e 6de4 683e 0c3a 16bc
00000220: 9f5a 573e 49d0 f53e f3df 743e 061d 4e3e
00000230: 67e3 e83d 22a8 04be 7a42 4f3e a9b8 163d
00000240: 4d6b af3d 2dcc 0a3e 0209 1abd 45a9 76bd
00000250: d337 77be 4c28 a93e 8a3d 753e 2ab0 943e
00000260: a645 483d bc91 783e 4488 a93e 0c32 20be
00000270: d91e 933e e72c 773d 4906 0abc 6a8d 9f3e
00000280: 75e2 a13e 36e3 773e 7da0 723e a707 2bbe
00000290: 6cbb ce3c 3a6e d13d d061 48be 5a99 c43c
000002a0: 85cb 0bbd e983 8d3e ff62 623d 4929 75bd
000002b0: 71b2 71bd 8618 603e e500 00be d189 63be
000002c0: 7090 46be 3d2d 203e 4770 2c3e 3a7e 0e3f
000002d0: 7fdb 4a3d 03f5 2b3d 4fee 7a3e 48ab 083f
000002e0: 43e2 8b3e d58b 23bd 5e03 04bd ff22 353e
000002f0: 730f 9b3d 789b aabd 5e6a 11bd 3a95 bfbc
00000300: 22d1 2fbe a54c bc3c e983 63be 9d36 06bd
00000310: 3bfc 86be 072f ad3d 1304 8dbe b2a4 1bbe
00000320: 2a5b a1be 95b4 9d3e 42cc fabd 5a45 b23e
00000330: aab7 433e a61e e6bd 67b1 a13d 749f 043e
00000340: 06e9 d83e 280e bb3d 59ac 00be b268 d13e
00000350: 2977 ebbb f8d3 b0bd 3ee8 4d3f 3b2b 1ebf
00000360: 48b9 3cbe 414d c03d 5665 b03d eda1 85bd
00000370: 53e2 edbc a785 923e e2f1 ae3d 6e13 143e
00000380: 1764 7b3e 6d04 83be 4371 88be 0e7a f1bd
00000390: 2760 41be 4c53 5d3e 9f60 a03d d65f 2b3e
000003a0: cafd 973d 96ea 9e3e a8b8 073f 4909 9d3d
000003b0: 7c31 7d3e fca7 06be 5ad8 2e3d f754 e53e
000003c0: dbca 053e 34e1 e73d 4c49 3f3e f54b 303e
000003d0: 7493 d0bb 76e4 f5bd b871 8abe 76b5 143e
000003e0: ec8e 96bd 1d58 8b3c 7e80 5abd 9ba4 1bbe
000003f0: ef29 4abc f0bc 483e fcd5 a33d 298e 1fbd
0.25645995 -0.18477246 -0.042728942 -0.07977137 0.2377328 0.09033774 -0.08333042 0.03954092
-0.14063394 0.3713161 0.063458 0.10477489 0.19806933 0.070806056 -0.03412736 -0.14811507
0.1251825 -0.15499097 0.11793389 0.4082674 -0.08565621 0.31554067 0.21543041 0.13408342
0.030400708 0.057333507 0.038512226 0.33859357 0.2515989 -0.03908341 -0.09198457 -0.17253928
0.39110747 0.2535678 0.038917996 -0.056366608 -0.047384582 0.49844944 0.28142792 0.09059038
0.25536564 -0.09732112 0.17709364 0.29709604 0.3175181 0.317846 -0.062114827 0.5235596
0.30970117 0.23510365 0.099299505 -0.11341486 0.17951375 0.22544354 0.38056237 0.3053871
0.08001219 0.13595079 0.25506252 0.24510607 -0.13865621 0.24964637 0.048409563 -0.22485663
0.0793317 -0.01610743 -0.1555001 -0.21310861 0.37737104 0.34806094 0.32753348 -0.05051764
-0.07014612 0.13020724 0.2565051 0.103886284 0.27120736 0.475298 0.05848968 0.1624621
0.6446937 0.21951161 0.06278615 -0.037446372 0.4869102 0.07453558 -0.08243405 0.23919758
0.067014456 0.11761781 -0.07581246 0.054545153 0.1329097 -0.12623218 0.2894575 0.54728615
0.49244326 -0.13490993 0.1528436 -0.18303269 0.5937154 -0.107424535 -0.49568915 0.027294094
0.3755601 -0.0827025 -0.011390323 -0.02227591 -0.117939465 0.32883275 0.20517538 -0.21771151
0.0901427 -0.14014985 0.2113242 0.3032768 0.7610539 0.04709717 0.003040431 0.20823613
0.20974015 0.2683957 0.015574037 0.007570262 0.3228898 0.48420134 0.18541294 0.34187728
0.47011715 0.51786894 0.09278637 0.19959882 -0.05644671 0.1947432 0.22743388 -0.009169113
0.21030663 0.4801047 0.23913555 0.20128259 0.113714986 -0.12954763 0.20240203 0.0367972
0.08565388 0.1355445 -0.037606247 -0.06022002 -0.24142389 0.33038557 0.23949257 0.29040653
0.048894547 0.24274343 0.33111775 -0.15644091 0.28734472 0.060345557 -0.00842435 0.31162578
0.31618086 0.24207768 0.23694034 -0.16702138 0.025235854 0.10226102 -0.19568563 0.023998905
-0.03412964 0.27639702 0.05527019 -0.059853826 -0.059008066 0.21884355 -0.12500341 -0.22220542
-0.19391036 0.15642257 0.16839705 0.55661356 0.049525734 0.04198171 0.2450497 0.53386354
0.27321061 -0.039928276 -0.032229774 0.17689131 0.07571306 -0.083304346 -0.03550183 -0.023386586
-0.17169622 0.022985766 -0.22218288 -0.032766927 -0.26364312 0.084562354 -0.2754217 -0.15199545
-0.31514865 0.30801836 -0.1224599 0.34818536 0.19113031 -0.112363145 0.07895165 0.12951452
0.42365283 0.091335595 -0.12565745 0.4090019 -0.007185836 -0.0863418 0.804325 -0.61784714
-0.18430054 0.09389735 0.08613078 -0.065250255 -0.029038584 0.28617594 0.08542229 0.14460537
0.245499 -0.25589314 -0.26648912 -0.11790858 -0.18884335 0.21613806 0.07830929 0.16735777
0.07421453 0.3103835 0.5301614 0.07667787 0.24725908 -0.13150018 0.042686798 0.44791386
0.13065664 0.11322251 0.18680304 0.17216475 -0.006365234 -0.12006466 -0.27039886 0.14522347
-0.07351479 0.01700979 -0.053345196 -0.15199511 -0.012339099 0.19603324 0.07999799 -0.038953934

model/conv1d_12/Conv1D f4 [16, 1, 5, 20]
00000000: 373f 7d3e 41c4 0a3f 2ea8 893d e15e 823e
00000010: dd23 273e adaa db3e 5d15 813e b0e2 a33e
00000020: f4bf 2c3e 00ef a0bb 9f1a 413e 3f98 083f
00000030: 21d0 d83d a8e8 823d 6eb2 0bbe fce9 593d
00000040: 6175 6f3d 179e 953e 559a 6dbc 4edf 6bbc
00000050: 00bd 593d 86e6 563e 88ce 113f 4d1d 073f
00000060: db87 043f 8e2f 45be ca3a 203d 33a2 913e
00000070: 40a2 a33e 2498 053e ea87 c23c 1555 55be
00000080: 74a2 a4bd b96b f93d 7ee5 443e a141 e7ba
00000090: df1b 573e c4a5 86bb 9ff5 633e cfa7 da3d
000000a0: 0003 f63e 51cf fdbc 1920 56bc 5ad2 26be
000000b0: 8024 a13e 81ac 6dbe 7619 d8bd ed26 023f
000000c0: d194 10be e147 83be 3835 babd e68e e9bc
000000d0: 3393 2dbe 7f81 853d 3cd4 8a3e 0dc9 eb3d
000000e0: 5a8c 4bbe e20c 713c 3af4 03be ad1e c3bd
000000f0: d8b5 983e da74 2abc 7ee1 8b3d 5271 cb3e
00000100: f985 243e f21c b63d 9876 0f3e 9d77 aa3e
00000110: 675c a03d f6af c9bc 4cf5 c4bd 83b5 8a3d
00000120: ab09 203e 525f e6bd 8236 cf3e 7aec e43e
00000130: 88f1 a73c b51c c6bd db60 ecbd b4bd de3d
00000140: 12d0 c53d 1d88 993e f976 a7bd 9e31 d4bd
00000150: ebf5 053e c81f 5b3e d75a 6fbd e051 283e
00000160: b35b c8bd e055 473d 55c6 273e 7f57 173e
00000170: c382 e7bd 65c4 9abd 0fa7 8bbd 95b0 ffbd
00000180: 4594 b7bd f32f 473c 1e19 bbbc e5fb 9d3e
00000190: f230 a13e a1b6 e03d 3ce8 11be 0767 cabd
000001a0: 8980 933a 2b1c fc3d e4e8 ecbd 3e90 33be
000001b0: 7607 cbbd c357 54bc ca03 8f3c f07f 56bc
000001c0: 9930 633d 6617 43bb 8532 163f c155 1f3e
000001d0: b92f 2e3e 0b44 d93d 18ae 743d fd42 483e
000001e0: 2ce1 b63b 0178 f8bd 3e4a 9abd a069 20bc
000001f0: d6b6 de3d 681c 093e c454 59be 4e19 bf3d
00000200: 8a30 13be 5fe2 3f3d 4959 d93e 405f 23be
00000210: 0933 e33e c081 063d 9c36 53be bf31 93be
00000220: 0137 45bd dba0 23be ba2a 92be 4554 33bd
00000230: c46b d33e 55ef 673e 5285 463d cfc8 a33c
00000240: 9660 953e 19f9 383e 6db5 5b3e a452 b93b
00000250: ecc4 94bd 9cab 3e3e 5859 683e afe3 453c
00000260: 8f93 693e 15eb f7be 4d6e be3c 8128 a13d
00000270: 71dc ae3e 8341 fa3d ba07 83be f1c4 6d3e
00000280: bc76 1ebe 23a7 103f 743b e5bd 0973 8abe
00000290: dd6d 0a3e 3676 2abd 4e71 953d 4d2c 31be
000002a0: 18a5 7abe d9b5 8f3e 68fa a73e 7461 853e
000002b0: 661f 483d 5282 aabd 17fa 38be 08be 8dbe
000002c0: ea57 24bd d941 d23d 40ea 9fbe ea79 913d
000002d0: a1b0 403e 5590 1b3e 8955 703e d44a fd3e
000002e0: 5ad2 11bd b5e4 babc 7134 5abe e016 9a3e
000002f0: c4db 043e 3478 dc3d a2b5 41bd 9de5 2fbc
00000300: bd23 4f3d 3da2 f53d 9e4f 9d3d f98c 903e
00000310: 732a f73d 3a55 133e 3f63 013e 06fb 07be
00000320: d0c9 c0bb cb63 55bb 0722 f63d 5d50 0cbe
00000330: 0b25 07be 08a4 04be a0ca 433e 3378 7cbb
00000340: 73e7 d33d fbab 86bd f829 23bc 1b13 cabd
00000350: 65e8 9f3d 5dd9 f0bd 8623 46bd 26a7 ed3d
00000360: fa59 913d 1474 5d3e c1f5 6abd 6859 083e
00000370: a8b8 f43d 5cd4 cd3d 0df3 7a3d a76d dd3c
00000380: 346e 833d bbaa 4bbd 39d2 a5bd 9e2e b93c
00000390: 7e6a fc3d a93b 19bd 90f0 66bd daca 02be
000003a0: 27ac 9abd 95f6 ff3d d9e8 293e 1169 393d
000003b0: 43b2 8bbd 9444 493e 94bf d2bd 7785 713c
000003c0: e8c6 653d 74a6 0abe 17ef dcbd 2415 d33d
000003d0: 7878 093e 88a9 c0bc 432a 56bd d067 b83d
000003e0: 8500 5c3a c893 35bd a493 ecbd 1f5d f03d
000003f0: c5ee e63d 0545 4d3e 3355 49bd 3e2c 053e
0.24731146 0.5420571 0.06721531 0.25463012 0.16322275 0.42903653 0.2521161 0.32008886
0.168701 -0.0049113035 0.18857811 0.5335731 0.105865724 0.06392032 -0.13642284 0.05320166
0.05846155 0.29222175 -0.014502128 -0.014396502 0.05315876 0.20986375 0.56955767 0.52779084
0.517698 -0.19256422 0.039118566 0.2844406 0.31959724 0.13046318 0.02374645 -0.20833237
-0.08038798 0.121787496 0.1922817 -0.001764346 0.21006726 -0.0041091163 0.22261666 0.10676538
0.48049164 -0.030982645 -0.013069176 -0.1629118 0.3147316 -0.23210336 -0.10551731 0.50840646
-0.14119269 -0.25640777 -0.09092182 -0.028510522 -0.16950683 0.0651884 0.27115047 0.11512957
-0.19877759 0.014712544 -0.12886134 -0.09527335 0.29826236 -0.010403836 0.068301186 0.39734894
0.16066732 0.0889224 0.14010084 0.33294383 0.07830124 -0.024620038 -0.09617099 0.06772902
0.15628688 -0.1124865 0.40471274 0.44711667 0.020500913 -0.09673444 -0.11541911 0.10876027
0.09658827 0.2998666 -0.08176989 -0.10361026 0.13082092 0.21398842 -0.05843624 0.16437483
-0.09783115 0.04866588 0.16384251 0.14779471 -0.11304238 -0.075569905 -0.06818973 -0.12484852
-0.08963827 0.012157428 -0.022839125 0.30856243 0.31482655 0.10972334 -0.14248747 -0.09882932
0.0011253516 0.1231006 -0.11567858 -0.17535493 -0.099135324 -0.012960377 0.017457861 -0.013092026
0.05546627 -0.0029768585 0.58670837 0.15560056 0.17010392 0.10608681 0.05973634 0.19556804
0.005581042 -0.12132264 -0.07533692 -0.009790808 0.10874717 0.13389742 -0.21223742 0.09330998
-0.14373985 0.046846744 0.42450932 -0.15954304 0.44374874 0.032838583 -0.206263 -0.2874889
-0.04814816 -0.1597933 -0.28548223 -0.043781538 0.41293156 0.22649892 0.048466988 0.019993214
0.29175252 0.18063773 0.21455927 0.0056556035 -0.07264122 0.18620151 0.22690332 0.01207821
0.22810195 -0.4842154 0.023245955 0.07869054 0.34152558 0.122195266 -0.25591832 0.23219658
-0.15474981 0.5650503 -0.111929804 -0.2704089 0.13518472 -0.04161664 0.07297002 -0.17302056
-0.24477041 0.28068426 0.32808232 0.26050913 0.04885807 -0.08325638 -0.18064152 -0.27684045
-0.040122904 0.10266466 -0.31233406 0.071033314 0.18817379 0.15191777 0.23470129 0.49471152
-0.035600998 -0.022814134 -0.21309067 0.30095577 0.12974459 0.107651144 -0.04729236 -0.010735896
0.050571192 0.11993835 0.076812014 0.28232554 0.120686434 0.1438798 0.12635516 -0.13279352
-0.005883433 -0.0032560702 0.12018209 -0.13702531 -0.13197725 -0.12953198 0.19120264 -0.0038523793
0.1034688 -0.065757714 -0.009958737 -0.09866925 0.078079976 -0.11760209 -0.04837372 0.11604147
0.0709724 0.21626312 -0.057363275 0.13315356 0.11949283 0.1005027 0.061266948 0.027029825
0.06417504 -0.04972337 -0.080967374 0.022605237 0.12324999 -0.037410412 -0.056381762 -0.12772694
-0.07552367 0.12498204 0.1659273 0.045266215 -0.0682111 0.19655067 -0.10290447 0.014741293
0.056097895 -0.1354006 -0.1078779 0.10306767 0.13424861 -0.023518339 -0.052286398 0.09004176
0.00083924114 -0.04433039 -0.11551598 0.117365114 0.112760104 0.2004586 -0.049153518 0.13005158

model/conv1d_13/Conv1D f4 [16, 1, 7, 20]
00000000: ecaf 3d3c 4e32 003d 879d b83d f807 76bd
00000010: 0084 02be f35e 923d 7a36 e4bc c7c3 393d
00000020: 577b bfbb 2651 f13d abd4 fdbd c327 b63c
00000030: 6c0f fbbd e119 07be 1905 ae3b 46f9 843c
00000040: 11ae 8c3c 3fba 713d fbb4 fb3b ac76 913d
00000050: a9d4 85bd 569e 1f3e a73d f2bd 2a17 debd
00000060: 5265 4a3d bc2b 03be 867e 453c 3c36 c53d
00000070: 95dd d13d 4f47 a43d 0577 c33c 62ee 743d
00000080: bb4a 003d 6385 093e 1b99 9d3d c20b 6fbd
00000090: fdf7 233e 138e d2bc 80fa 943d b95b 17be
000000a0: 963a 163e 036b 35bb 3566 013d 2916 d33d
000000b0: 6fbf 8f3a 4bd7 f33d 4636 a63d 7d64 34bd
000000c0: 8978 c0bc b828 473d 1b70 6ebd d3ba e5bc
000000d0: 47d2 8b3c 7e6e a83c 696f 243e 7916 8f3d
000000e0: 96d9 cbbd c3b2 223e 160c d33d 6208 e8bd
000000f0: 10e0 063e d037 91bc 4379 10bd 07af ba3d
00000100: 8007 55bd 2b4f 4bbb ae23 3c3c af94 a23d
00000110: e1cb a9bd 2412 6abd 46d0 3cbd 13ec b83c
00000120: 3d87 073e 22b4 073e 040f 273e 1654 b93d
00000130: 1516 6abd 544e d53d f6d2 983d ab5a 503d
00000140: c4a4 f33d c04d f5bc cfce b23d b45e e03d
00000150: 1173 d13d cc0d d13c eeb4 df3d 69e1 b13c
00000160: 0711 1abc f34b 68bd 527a 57bc 6823 013e
00000170: 7253 513d 4f03 1a3e 3389 943c 9a2d 08be
00000180: 4b8e 96bd 2d36 4d3c a17d f9bd 3e3d 8a3d
00000190: f12d 913b 8007 973d eab5 9ebd e9ee fcbd
000001a0: 845a 0bbe 5cf7 c4bd e3f7 99bc ff75 5b3d
000001b0: c004 273d 8818 993d 02fe bdbc d120 783d
000001c0: 3288 093e 6dd5 a73d 81e1 de3d 780f a73c
000001d0: d3b3 85bc a580 4abc b550 aabd 7a3e afbd
000001e0: 81ef 1d3e 470c 99bd 0fcc 0a3d 9455 e73d
000001f0: db79 8fbd 9ce4 a1bc 76d7 e3bd f75b 193d
00000200: 45ef af3d 3076 bbbd f0e8 adbd 0d4c 98bd
00000210: 2699 0d3e e29d 183e 3cab e23d bea4 713d
00000220: 90d9 643b 0d7c 6a3d e0ba e3bd 86fe ffbd
00000230: 3bf0 60be c255 5fbe ead5 32be a23c 4abd
00000240: d715 c93d 483c d33d b748 ed3d 7b97 7fbe
00000250: 4659 31be 1fa1 783e 5b05 093f 6687 4abe
00000260: 8951 083f d53e 1c3f 8e77 223d 61a5 a0bd
00000270: 2487 5e3e a743 2abc b2bd 21be 0e4f bf3d
00000280: a70c 8cbd 1482 fabd 8c52 23be 5077 303e
00000290: bf16 2c3e 0341 f53b 7846 c43d 5736 bebd
000002a0: d518 8dbd d4f6 363e dec6 b93e 77b7 e8bd
000002b0: 4393 9a3e f256 ce3d 3773 bd3c e4d2 04bf
000002c0: 1bb6 82be 8d0d cb3c b45f 3a3d 5760 513e
000002d0: ba9c e53d 5fd8 153e cd3a cf3d 7552 d2be
000002e0: dfef ac3e 77af aebb e7e2 b4be ca09 8e3e
000002f0: 057b f13b fcf8 8c3e 3674 9b3e 752c fcbc
00000300: 507e 0c3f 356e 743e 02c6 a23c 8db0 9ebd
00000310: a168 283e 2fa2 513e 8e86 fc3e 18ee c03e
00000320: 1e13 b23d 91e3 fdbd 7ff5 eebd 38b7 e8bd
00000330: 0d75 5c3e 50b3 febd 53ef 663d 0b84 c43d
00000340: 8df6 10be e80e 91bd 4bff 533e de0d 28be
00000350: 1659 6d3d 0595 e63c 3b3d 393e c384 9a3d
00000360: 5fa2 0abe 8db3 263e 959b 30bd 1c42 00ba
00000370: e979 c7bd 9b8d 053c 4c67 2f3e c672 11be
00000380: c79a 7e3e 6dfb 7dbc 22e1 793c 55eb 763e
00000390: 20fe 5cbd d051 943d c39b 423d 7b1a 89bd
000003a0: 74fb ce3d 6cbf 8b3d 9cb7 2b3d b062 88be
000003b0: 8682 96be 53c0 833d 2093 543d df82 513e
000003c0: 0767 f63c 3cbf 843e bf69 243d 9a54 2b3e
000003d0: b653 3c3e b4ad 6c3e 754d de3e 6d36 01be
000003e0: 20de f33d d4c2 523e af2d 583e 4579 a63e
000003f0: d32e bb3d a97f b33e dfb8 953e ea80 51be
0.011577588 0.031297974 0.09014421 -0.060066193 -0.12745667 0.071470164 -0.027858008 0.045352723
-0.0058435607 0.11783056 -0.12394079 0.022235757 -0.12258801 -0.13193466 0.0053106663 0.016232144
0.017172845 0.05901551 0.0076814867 0.07102713 -0.06534702 0.15587744 -0.118281655 -0.10844262
0.049413033 -0.12809652 0.012054091 0.09629485 0.102473415 0.080214135 0.023860464 0.059797652
0.03132127 0.13429789 0.07695218 -0.058360822 0.16012569 -0.025702512 0.072743416 -0.14781083
0.14670786 -0.0027682192 0.031591613 0.10306961 0.0010967086 0.11906298 0.081158206 -0.044041146
-0.023494976 0.048622817 -0.05821238 -0.028043186 0.017068041 0.0205605 0.16058125 0.06986708
-0.099536106 0.15888505 0.103050396 -0.11329724 0.1317141 -0.017726809 -0.035271894 0.09115415
-0.052009106 -0.003102253 0.011483116 0.079385154 -0.0829084 -0.057146206 -0.046097063 0.022573506
0.13235183 0.13252309 0.16314322 0.09049241 -0.057149965 0.104153305 0.074621126 0.050867718
0.11896661 -0.0299443 0.08730852 0.10955563 0.10227025 0.025519274 0.109231815 0.02171393
-0.009403474 -0.056713056 -0.013151722 0.12611163 0.05110497 0.15040325 0.018131828 -0.13298646
-0.07351359 0.012525124 -0.12182165 0.06749962 0.0044305255 0.073744774 -0.07749541 -0.12350256
-0.13608748 -0.096174926 -0.01879496 0.053579327 0.040776014 0.07475382 -0.02319241 0.06057817
0.1343086 0.081950046 0.10882855 0.020393118 -0.016321098 -0.012359773 -0.08316175 -0.08556838
0.15423395 -0.07473045 0.03388601 0.112956196 -0.07005664 -0.01976233 -0.1112508 0.03744122
0.08590559 -0.09153402 -0.08491695 -0.074363805 0.13827953 0.14903978 0.110678166 0.058995
0.0034919716 0.05724721 -0.11119628 -0.12499718 -0.2196664 -0.21810058 -0.17464414 -0.04937423
0.09818619 0.10314232 0.11586135 -0.24960129 -0.17319211 0.24280213 0.53523797 -0.19778213
0.5324941 0.61033374 0.039664797 -0.078440435 0.2173124 -0.010392106 -0.1579502 0.0934125
-0.06838351 -0.12231842 -0.15949458 0.17233014 0.16805552 0.0074845566 0.09583753 -0.09287708
-0.06889502 0.17867595 0.36284536 -0.11363118 0.30190477 0.10075177 0.023126228 -0.51884294
-0.2552956 0.024786735 0.045501426 0.20446907 0.11211534 0.1463332 0.10118637 -0.41078535
0.33776757 -0.0053309756 -0.35329363 0.27741843 0.0073694014 0.2753371 0.303621 -0.030782918
0.5488024 0.23870166 0.019869808 -0.07748518 0.16446163 0.20472024 0.49321407 0.3768165
0.086950526 -0.123969205 -0.116679184 -0.11363071 0.21529026 -0.12436545 0.05638058 0.09595498
-0.14156552 -0.07082921 0.20702855 -0.1641154 0.057946287 0.02814723 0.18089764 0.075448535
-0.13538502 0.1627943 -0.043117125 -0.00048926636 -0.097400494 0.008151437 0.17129248 -0.14203939
0.2486373 -0.015501839 0.01525143 0.2411321 -0.05395329 0.07242167 0.047511827 -0.06694504
0.101065546 0.0682362 0.04192315 -0.26637793 -0.29396456 0.06433167 0.05189812 0.2046008
0.030078424 0.2592715 0.04013991 0.16731492 0.18391308 0.23113137 0.4341847 -0.12618418
0.11907601 0.20582134 0.21111177 0.32514396 0.091397904 0.35058334 0.29242608 -0.20459333

model/conv1d_14/Conv1D f4 [16, 1, 9, 20]
00000000: 828c 26be 8594 dfbd f453 6a3e c6ce 5ebc
00000010: 664f 903e 8505 8cbe da50 ecbd 486c 3b3d
00000020: 4def 1cbd 7030 943e 3976 e5bc a954 f0bd
00000030: 073d eb3d 4e5c 803e 7a88 c33d 5c85 85be
00000040: 852f 82be 584b 563d feb2 163e e857 933e
00000050: 581a a9bc 024b 96bd 4859 153d 2574 0dbe
00000060: 2aeb c03d c405 fc3c 386a 09be f191 24bc
00000070: 35b5 50bd 8bb2 483e a412 9a3e 9d2d c5bd
00000080: f209 d73e d298 08be a301 723d c798 d3bc
00000090: bfe8 9f3e e22f 07be 686f 3dbe 6943 9d3e
000000a0: 8b14 903e 97ed 3fbe a1fe c4bd 6508 223e
000000b0: 64dd 833d 1f69 52be 67a1 2dbe 0701 903e
000000c0: c3d4 e1bd 5af4 923d 112a 7a3d 9e52 c7be
000000d0: f1a2 c93b 60f8 56bb c372 eb3d f9e3 843e
000000e0: 5c5b 963e d953 b93d dc4a f23c d3c7 0d3e
000000f0: d8e0 c7be 7550 223d 232e 983e ec19 cd3e
00000100: 23a7 573d 1b2c 4bbd 0561 973e 8ec6 6f3e
00000110: 63d9 643e 216b f9bc 0ae0 f5bd 1491 8abd
00000120: 27bc f1bd 684f 9e3d 7412 953d 5340 d7be
00000130: 9629 7dbe 72b8 2a3e 8e24 bc3d 5f78 e1bd
00000140: c213 c03d cf96 df3d c56a 3d3d 7e84 0f3e
00000150: 0a47 b8bc b561 0ebe a957 ef3d a7bf d93e
00000160: 746f 3f3d 9af6 843d ee75 8e3d 8ed2 40be
00000170: 05fb f4bc deb4 35bd c662 f83e 20b8 a33d
00000180: b67c ffbb dc81 3a3e 873b a23d 5cee ae3d
00000190: 0d6a 953e fc2c bdba 4013 91be 5bb6 afbd
000001a0: 69ca 663d 0dac dd3d 36ce 893c 3ad3 2d3c
000001b0: 499b 553d f535 493e 9e7b 0d3e b2f5 793c
000001c0: c0eb 8c3e 4bca 2a3e c55c 88bd c317 03be
000001d0: 1166 8abd ff6f 353e 0cdf fd3d 306b 423e
000001e0: d9ff 023e 56ea e93d 082b 4c3d 1418 463d
000001f0: 16c0 a43e a8b5 ddbc 13aa b3bc 59df c83d
00000200: 3b5b 2b3d 66a9 e63e edd0 cd3b 8e8f 393c
00000210: 364d 2cbb 6224 2b3c ece0 763e 119d 683d
00000220: 69f5 7f3d ab99 7ebc 037d 8e3d a6dc d03e
00000230: 4043 ccbd 2bbc 9bbc 918a 98bd 155f da39
00000240: 47e1 42bd 9ae5 39be 0099 20be 959a b23d
00000250: fb15 0b3e cf5f 83bd 5de0 66bd 1625 ff3c
00000260: a511 9b3c a982 ad3d f825 9bbd fcf4 ecbd
00000270: ca24 22be e810 7e3d 2bb8 1fbe 6d67 0bbd
00000280: 5cf3 583e 8982 a03d 7efe ee3d df5e 2d3e
00000290: 172b 563e a000 7dbd e6fd d43d 30ea 043e
000002a0: 3c84 a33c 866b 0d3e e294 123e e196 ae3d
000002b0: 14c7 153e 3a7a 3b3d 0f97 b33d 0c5f 4d3e
000002c0: 9eea 783e 55c2 51bc e5f1 f63d bb28 db3d
000002d0: 2628 10be 66b8 073e 38bb 653e 0f5b 203e
000002e0: 185d dd3d 3d46 2c3e c9b0 6f3d 5a14 453d
000002f0: 21a9 803e 80fc 333e d526 eb3d 8a2f 303e
00000300: 347c 6e3e 5d76 ff3d c1e4 4e3e 2900 69be
00000310: c9fb 303d d5cb b13d 2b22 fa3d c63c 09bc
00000320: b346 453e 329b e5bc 3c49 283d 461e 0e3d
00000330: f1dc 803d 7cc8 30be eae7 07bb f1c7 6d3e
00000340: 3f93 f83b 4cc8 523d 12be b13d 3307 e1bd
00000350: a2be 6abe 4d6e 08bd b020 923b c3af 9abc
00000360: a18a 17be 0a29 c53c 0ea8 0f3e fada a7bd
00000370: aa93 ce3c 6c2d 4e3e 7fc8 ae3e 64cf 5d3e
00000380: 7467 4c3e d5a7 963e 9d3f 0d3e bdf2 863d
00000390: 3ca7 c93e 6465 523c bcb0 9a3d 1e60 943d
000003a0: 2cec a2bd 5e61 9a3d 811c 963e 1eab 673c
000003b0: 928c 48bd d021 333e ab14 0a3e 6c6f c43d
000003c0: 53e6 3fbc b6f8 02be bb02 21be 0991 debd
000003d0: f6e5 213e 4547 7abd 101d 14be 4cbd 1ebd
000003e0: 88fb a9bb 6585 aa39 f061 4b3d f7c1 fbbd
000003f0: 8bc7 bebd 3ccd 143d c3b7 e0bd 1f87 ccbd
-0.16264537 -0.10917 0.22883588 -0.013599103 0.28185576 -0.2734796 -0.11538859 0.045757562
-0.038314153 0.28943205 -0.028010475 -0.11734898 0.114862494 0.25070423 0.09547515 -0.26078308
-0.2542688 0.052317947 0.14716718 0.28778005 -0.020642444 -0.07338525 0.0364621 -0.13813837
0.09419854 0.030764468 -0.13419425 -0.010044561 -0.050954062 0.19599359 0.30092347 -0.09627841
0.41999775 -0.13339546 0.059083592 -0.025829686 0.3123226 -0.1320186 -0.1849953 0.30715492
0.28140673 -0.18742977 -0.09618879 0.15823515 0.06438711 -0.20547913 -0.16956101 0.28125784
-0.11026909 0.071755126 0.061075274 -0.3893022 0.0061534573 -0.0032801852 0.114964984 0.2595518
0.29366577 0.09049196 0.029576711 0.13845758 -0.3903873 0.03962751 0.297227 0.4005884
0.05264963 -0.04960261 0.29566208 0.23415586 0.22348551 -0.03044659 -0.12005623 -0.06765953
-0.11803465 0.07729989 0.0727891 -0.42041263 -0.24722895 0.16671923 0.0918666 -0.11009287
0.093787685 0.10917436 0.0462444 0.14015386 -0.022494812 -0.1390446 0.11686642 0.42529032
0.04673715 0.06492348 0.06956087 -0.1883032 -0.029904852 -0.04436194 0.48512858 0.079941034
-0.007796849 0.182136 0.0792151 0.08541557 0.29182473 -0.0014432962 -0.28335 -0.085797034
0.056345377 0.10823832 0.016821962 0.010609442 0.052150045 0.19649489 0.13816687 0.015256332
0.27523613 0.16678731 -0.066583194 -0.12802033 -0.06757749 0.17718504 0.123960584 0.18986201
0.1279291 0.11421649 0.049845725 0.048362806 0.321778 -0.02706416 -0.021931684 0.09808225
0.04183505 0.45051116 0.0062810094 0.01132573 -0.0026291138 0.010445686 0.24109238 0.056790415
0.0624899 -0.015539567 0.06957438 0.4079334 -0.099737644 -0.019010624 -0.074483044 0.00041651042
-0.047578122 -0.18153992 -0.15683365 0.087208904 0.13582604 -0.064147584 -0.056366313 0.031145614
0.018929312 0.08472187 -0.07575601 -0.115701646 -0.15834346 0.06202784 -0.15597598 -0.03403418
0.21186584 0.078373976 0.11669634 0.16930722 0.20914875 -0.061768174 0.1039999 0.1297996
0.019960515 0.13810548 0.14314607 0.085248716 0.14626724 0.04577086 0.087690465 0.20055789
0.2430825 -0.01280268 0.120578565 0.10701128 -0.14077815 0.13253936 0.224347 0.15659736
0.10808772 0.16823669 0.058518205 0.048115112 0.25129035 0.1757679 0.11482016 0.17205635
0.23289567 0.12473748 0.2020445 -0.22753967 0.04320887 0.08681456 0.12213548 -0.008376306
0.19265251 -0.028028104 0.041085467 0.03469684 0.06292141 -0.17263979 -0.0020737597 0.23220803
0.0075859125 0.05146055 0.08678831 -0.10987701 -0.22924283 -0.033308316 0.004459463 -0.018882638
-0.14798976 0.02406742 0.14028952 -0.08196063 0.025216896 0.20134515 0.3413734 0.21661144
0.19961339 0.2942492 0.13793798 0.065892674 0.39385402 0.012841556 0.07553241 0.072448954
-0.079552025 0.075381026 0.29318622 0.014139919 -0.048962183 0.17493367 0.13484447 0.095915645
-0.011712628 -0.12790188 -0.15723698 -0.10867507 0.1581038 -0.061103124 -0.14464211 -0.038754746
-0.0051874556 0.00032524313 0.049653947 -0.12292855 -0.093154036 0.03632854 -0.1097255 -0.0998671
