results/fold_4/checkpoint/model_1204_fold_4.tflite (tflite, 406736 bytes, 73 tensors)

model/conv1d_10/BiasAdd/ReadVariableOp f4 [16]
00000000: 7d3f 2bbe 234d 6dbe 2d38 d4bd 8e91 babd
00000010: 7248 5dbd 97e2 dabc 3ad7 3fbe 6999 cdbd
00000020: 0557 d1bd f8aa 92bd 36ab 42bd 39f4 0cbe
00000030: 16b3 3abe 9731 27be 24fa 28bd 4280 d5bd
-0.16723438 -0.23173957 -0.10362277 -0.091097936 -0.054024167 -0.026719375 -0.18734446 -0.10039026
-0.10221676 -0.07161516 -0.04752656 -0.13765039 -0.18232378 -0.16327511 -0.041254178 -0.10424854

model/conv1d_11/BiasAdd/ReadVariableOp f4 [16]
00000000: 1542 05be 8e95 9fbd 7be7 0fbe 8c00 fabd
00000010: 429a 24be 1516 f7bd 842b 19be aa0e 1cbe
00000020: 3639 c9bd 8c03 9abd bf50 02be 3d5f e4bd
00000030: f51a dabd 11f4 60bd b786 3bbd 0612 03be
-0.1301349 -0.07792197 -0.14053147 -0.122071356 -0.1607447 -0.12064759 -0.14958006 -0.15239969
-0.09825365 -0.07520208 -0.12726115 -0.11150978 -0.10649673 -0.05492026 -0.04578277 -0.12799844

model/conv1d_12/BiasAdd/ReadVariableOp f4 [16]
00000000: 09e5 d4bd 4445 e9bd 841c 01be c424 81bd
00000010: e11b 58be 3ca5 d1bd d475 0dbe 81cb 8fbd
00000020: 36d7 f4bd 5ab7 e0bd e0c3 30be b19c a9bd
00000030: 9fcc 1ebe 66e8 1dbe e580 11be 95b9 82bd
-0.103952475 -0.113901645 -0.12608534 -0.063058406 -0.21104385 -0.10236594 -0.13814479 -0.07021237
-0.11955111 -0.109724715 -0.1726222 -0.0828184 -0.15507744 -0.15420684 -0.14209326 -0.06383053

model/conv1d_13/BiasAdd/ReadVariableOp f4 [16]
00000000: f2a3 cfbd 65ce 05be 9f1b 09be 5b80 dcbd
00000010: d9d8 85bd f536 eabd 3f5b 73bd 0603 d3bd
00000020: 546c 86bd 0301 78bd 9e3f d6bd c7f6 0fbd
00000030: 6879 0fbe 2851 33be 3c87 dabd 84e0 ddbd
-0.10138692 -0.13067015 -0.13389443 -0.10766669 -0.06535501 -0.114362635 -0.05941319 -0.10303311
-0.06563631 -0.06054784 -0.10461353 -0.035147455 -0.14011157 -0.17511427 -0.10670325 -0.108338386

model/conv1d_14/BiasAdd/ReadVariableOp f4 [16]
00000000: 0128 05be 851f a7bd ccb6 05be c5dc 03be
00000010: 611f 97bd 1188 cfbd a837 0cbe a09c d0bd
00000020: 6ac3 41bd e652 07be b846 1abe b503 88bd
00000030: abf3 02be 1cfb 39bd 719a e9bd 9182 a8bd
-0.13003542 -0.08160309 -0.13058013 -0.12877186 -0.07379032 -0.101333745 -0.13693106 -0.10186124
-0.047305502 -0.13215217 -0.1506604 -0.06641332 -0.12788264 -0.045405492 -0.114064105 -0.082280286

model/conv1d_15/BiasAdd/ReadVariableOp f4 [16]
00000000: 6ab7 7cbe 488b a7bd b2b5 46be 1597 87be
00000010: e21a ebbd 8ef1 51be a482 b5bd 35c9 1dbe
00000020: 53a8 adbd 685a 59be 1b6c 5dbc 9976 48be
00000030: a239 11be da37 8abc 4352 8ebd ea3b e9bc
-0.24679342 -0.08180863 -0.19405249 -0.26482454 -0.11479737 -0.20502302 -0.08862808 -0.15408786
-0.08479371 -0.21225893 -0.013514544 -0.19576491 -0.14182141 -0.016872335 -0.06949284 -0.028470952

model/conv1d_16/BiasAdd/ReadVariableOp f4 [16]
00000000: b40f 17be 9498 50be d404 0fbe ed31 37be
00000010: 5cce 0fbe 13e5 5cbe 02fe f2bd b1aa f1bd
00000020: cae1 6dbe ac2c 32bd bfaf a3bd 1269 20be
00000030: c1ce 19be c419 f4bd 85e2 3cbe 5953 f9bd
-0.14752084 -0.20370704 -0.13966686 -0.17890139 -0.14043564 -0.2157176 -0.118648544 -0.11800135
-0.23230663 -0.043499634 -0.07992505 -0.15665081 -0.15020277 -0.11918977 -0.18445785 -0.121741004

model/conv1d_17/BiasAdd/ReadVariableOp f4 [16]
00000000: ae19 1bbe 92a5 00be 5b26 ecbd dacf 1fbe
00000010: 661a 48bd f11e e3bd 3f48 ccbd cfa7 c7bd
00000020: 3e70 03be 1cc8 42be fb79 28be 03c1 e5bd
00000030: 3553 2abe 1122 e0bd 7cff e9bd cb4d 69be
-0.15146515 -0.1256316 -0.11530753 -0.15606633 -0.0488533 -0.11089886 -0.09974717 -0.09748804
-0.12835786 -0.19021648 -0.16452782 -0.11218455 -0.16633303 -0.10943998 -0.11425683 -0.22783582

model/conv1d_18/BiasAdd/ReadVariableOp f4 [16]
00000000: 3716 42be d29e 0fbe 35b9 c5bd f610 8bbd
00000010: 718c c5bd 347b 1cbe f3f8 00be cb0c 33be
00000020: aa23 f6bd 552e ebbd c03f cbbd 59da 0fbe
00000030: b9cd a7bd a930 debd 7824 23be f366 f9bc
-0.18953787 -0.14025429 -0.09654466 -0.067903444 -0.09645928 -0.15281373 -0.12594967 -0.17485349
-0.12018521 -0.114834465 -0.09924269 -0.14048137 -0.08193535 -0.10849125 -0.1593188 -0.030444598

model/conv1d_19/BiasAdd/ReadVariableOp f4 [16]
00000000: ccc6 f7bd 8325 8bbd 0584 51bd 8d83 00be
00000010: 6b49 15be c6c6 10bd 30c7 b2bd b7a4 31be
00000020: 220f a8bd ef0b b3bd 1f65 d6bd 25b3 96bd
00000030: cb0a e7bd ed42 5ebd c056 2dbe 7253 e0bd
-0.12098464 -0.06794264 -0.051151294 -0.12550183 -0.14578788 -0.035345815 -0.08729398 -0.1734799
-0.08206011 -0.087425105 -0.10468506 -0.07358388 -0.112813555 -0.054263044 -0.16927624 -0.10953416

model/conv1d_20/BiasAdd/ReadVariableOp f4 [16]
00000000: 313c 0ebe 0daa 95bd dad1 77bd d31e cabd
00000010: d820 9ebd fba7 9fbd b940 86bd af44 07be
00000020: f8d6 cabd af24 20bd edb0 e9bd f19e f1bd
00000030: ba07 3cbd d9fe ffbd 9f80 58bd 217e 9cbd
-0.13890149 -0.07307825 -0.060502864 -0.098691605 -0.07721108 -0.077957116 -0.065553136 -0.13209794
-0.09904283 -0.039097484 -0.11410699 -0.11797894 -0.045905806 -0.1249978 -0.052857038 -0.07641245

model/conv1d_21/BiasAdd/ReadVariableOp f4 [16]
00000000: 81fb f8bd 4e14 adbd 475a f1bd 59c8 04bd
00000010: e7a7 36bd de38 20be c80c f5bd 5ee5 14be
00000020: 67c3 94bd d995 6fbd c9a0 aebd 03fd b6bc
00000030: b444 45bd 7844 41be e771 d5bd 6940 7bbd
-0.121573456 -0.084511384 -0.11784797 -0.03241763 -0.044593718 -0.15646693 -0.119653285 -0.14540622
-0.072638325 -0.058492515 -0.08526761 -0.022337442 -0.048161224 -0.18873775 -0.10422116 -0.061340723

model/conv1d_22/BiasAdd/ReadVariableOp f4 [16]
00000000: fedc f8bd 7ce9 0bbe 617f 0fbe fd7b 0bbd
00000010: 6a48 afbd f6f3 91bd 75b2 f5bd 0da5 00be
00000020: 111b 94bd 732a b9bd 27cd 36bd 13ec 76bd
00000030: 7c64 d9bd 9615 91bc 759e 06be 7e58 71bd
-0.12151526 -0.13663286 -0.14013435 -0.03405379 -0.08558734 -0.0712661 -0.119969286 -0.12562962
-0.07231725 -0.090413 -0.044629242 -0.06028373 -0.10614869 -0.017710488 -0.13146384 -0.058922283

model/conv1d_23/BiasAdd/ReadVariableOp f4 [16]
00000000: d5c1 2ebd dd8b edbd d1cd 41bd 6dff b3bd
00000010: fe12 7cbd 9fd3 14bd 3101 59bd 50b7 0ebe
00000020: 4038 63bd f7d4 ecbd 7909 ccbd 48fa 83bd
00000030: 9ec4 a5bd 8bab d7bd f226 a6bd fa60 efbc
-0.04266532 -0.115989424 -0.047315422 -0.08788953 -0.06154155 -0.03633463 -0.05297965 -0.13937116
-0.055473566 -0.11564057 -0.09962744 -0.06444222 -0.080941424 -0.10530766 -0.08112897 -0.029221047

model/conv1d_24/BiasAdd/ReadVariableOp f4 [16]
00000000: 16b3 49bd 6787 9abd 39a0 7fbd ef86 8fbd
00000010: 40c6 50bd aa23 dcbd 8491 74bd 1ab7 dbbd
00000020: b10f 98bd f086 c4bd 6877 9fbd 34ca 83bd
00000030: 8ef2 f1bd 5baa 0dbd a48c 9abd aca9 b8bd
-0.049243055 -0.07545357 -0.06240866 -0.070081584 -0.050970316 -0.1074899 -0.059709087 -0.10728283
-0.07424868 -0.0959605 -0.07786447 -0.064350516 -0.11813842 -0.03458629 -0.07546356 -0.09016737

model/conv1d_25/BiasAdd/ReadVariableOp f4 [16]
00000000: d7f4 24be 454d acbd b81f 0fbe 5f2b 99bd
00000010: e9b1 9ebd 0cd8 c3bd 9223 cabd 4a2c d2bd
00000020: 3d12 0ebe e46b 67bd 6cc3 28be 3c2e 02be
00000030: ba7c 2bbe 1eb0 97bd a0eb c0bd 9a94 2cbe
-0.16109024 -0.084131755 -0.13976943 -0.074789755 -0.077487774 -0.09562692 -0.09870066 -0.10262354
-0.13874145 -0.056499377 -0.16480798 -0.1271295 -0.16746798 -0.074066386 -0.09419942 -0.16853562

model/conv1d_26/BiasAdd/ReadVariableOp f4 [16]
00000000: b722 74bd 001e 27be 580f 05be d4dc 08be
00000010: 8e2a 01be e618 a0bd b1c2 16be 6b7a 09be
00000020: 5078 dcbd 383a 08be a622 13be 4bb4 39be
00000030: 4d54 04be f8bb b4bd 16c7 1cbe 6969 71bd
-0.05960342 -0.16320038 -0.12994134 -0.13365489 -0.1261389 -0.07817249 -0.14722706 -0.13425605
-0.10765135 -0.13303459 -0.14368686 -0.18135183 -0.12922783 -0.08824915 -0.1531032 -0.058938418

model/conv1d_27/BiasAdd/ReadVariableOp f4 [16]
00000000: e9ec 93bd ec22 bfbd a1d0 26be be54 4bbe
00000010: 19a7 f2bd eb48 50be 46db 08be 24d9 56bd
00000020: 6a99 33be df14 06be 76d6 a5bd e378 cbbc
00000030: cbd8 febc 03a4 42bd ea89 96bd d60e d1bd
-0.072229214 -0.09332833 -0.16290523 -0.19856545 -0.118482776 -0.20340316 -0.13364896 -0.052453175
-0.17538992 -0.13093899 -0.08097546 -0.024837917 -0.031109234 -0.047519695 -0.07350524 -0.10207908

model/conv1d_28/BiasAdd/ReadVariableOp f4 [16]
00000000: 8dad c2bd 1302 b7bd 3375 eebd 2a71 16be
00000010: 2670 e0bd 814e 0fbe 67e3 bfbd 39b5 38be
00000020: 34e3 cabd 6484 8ebd 4a2f 81bd f0fa f7bd
00000030: 1f24 9abd fef0 ebbd e744 05be 2d2d 1cbe
-0.095057584 -0.089359425 -0.11643448 -0.14691606 -0.109588906 -0.1399479 -0.093695454 -0.18037881
-0.09906617 -0.06958845 -0.06307848 -0.121084094 -0.07526421 -0.11520575 -0.13014565 -0.15251608

model/conv1d_29/BiasAdd/ReadVariableOp f4 [16]
00000000: ac0e f2bd d472 9cbd 7049 03be cee6 e0bd
00000010: 130a a9bd 6e55 a5bd 70d5 f4bd d359 fdbd
00000020: 14ee 3bbd 1114 b0bd bb6e fabd 4891 07be
00000030: 9ef2 c2bd 3c61 c7bd 7a8e 80bd b752 86bd
-0.11819205 -0.07639089 -0.12820983 -0.109815225 -0.08253875 -0.08072935 -0.119547725 -0.12370648
-0.045881346 -0.08597577 -0.122281514 -0.13239014 -0.09518932 -0.09735343 -0.06277175 -0.06558745

model/conv1d_30/BiasAdd/ReadVariableOp f4 [16]
00000000: fe7a 73be 650c 25be 6323 57be 74dd 21be
00000010: 9b24 52be 13c8 a4bd 3e2e 61bd 92f0 01be
00000020: 677e e6bd c074 bcbd 113b 30be 8772 64be
00000030: 3cb5 28be 61e6 87bd 0000 0000 40d5 f2bd
-0.23777387 -0.1611801 -0.21009593 -0.15807134 -0.20521776 -0.08045974 -0.05497574 -0.12689427
-0.11254578 -0.09201956 -0.17210032 -0.22309314 -0.16475385 -0.06635738 0.0 -0.118570805

model/conv1d_31/BiasAdd/ReadVariableOp f4 [16]
00000000: 82d0 13be d3e2 4ebe 750d e6bd 4ee7 36be
00000010: 02a1 e5bc e422 26be 39ed 5ebe 5ef0 2abe
00000020: cfa8 4fbe a211 cfbd 11dc 2dbe a605 01be
00000030: 9ff0 13be 5de9 0ebe fa6a 61be 2df8 07bd
-0.14435008 -0.20203714 -0.112330355 -0.17861673 -0.028030876 -0.16224247 -0.21770181 -0.16693255
-0.20279239 -0.10110785 -0.1697848 -0.12599811 -0.14447258 -0.13956209 -0.22013465 -0.033195663

model/conv1d_32/BiasAdd/ReadVariableOp f4 [16]
00000000: dfec 03be 587c 04be 7fbd 1fbe 058e 0dbe
00000010: 12c7 d1bd 43c9 2cbe d615 2cbe f188 0cbe
00000020: 60e3 2ebe 7827 13bd 0125 11be e80c f2bd
00000030: 1412 0bbe 3e01 09be 923d 1fbe 1e76 0bbe
-0.12883328 -0.12938058 -0.15599631 -0.13823707 -0.10243048 -0.1687365 -0.16805205 -0.13724114
-0.17078924 -0.035926312 -0.14174272 -0.11818868 -0.13581115 -0.1337938 -0.15550831 -0.13619277

model/conv1d_33/BiasAdd/ReadVariableOp f4 [16]
00000000: e3a1 febd 0ffc 2cbe 540e 90bd 58ab 2abe
00000010: bb2c c8bd f101 dfbd 0dc5 cdbd eb15 ebbd
00000020: 82af d4bd 7da6 02be 7862 fdbd 2b6b 7fbd
00000030: 4148 fdbd 0efa 38be 8c6b 0bbe c7b4 09be
-0.12433221 -0.16893028 -0.07033983 -0.16666925 -0.09774157 -0.10889042 -0.1004735 -0.1147879
-0.10385038 -0.12758823 -0.12372297 -0.062358063 -0.12367297 -0.18064138 -0.13615245 -0.13447867

model/conv1d_34/BiasAdd/ReadVariableOp f4 [16]
00000000: eddc c4bd 67dd f1bd 030d 8fbd 86e9 04be
00000010: 2d1d 7abd 0792 ffbd a88a 26be 7eca 24be
00000020: 3b41 e3bd fd93 c9bd b4ea 99bd 21a4 d8bd
00000030: ee25 debd 087f cdbd e09c 63be 0236 32be
-0.09612451 -0.11809807 -0.06984904 -0.12979707 -0.06106298 -0.124790244 -0.1626383 -0.1609287
-0.11096426 -0.0984268 -0.07515469 -0.1057818 -0.10847078 -0.10033995 -0.22227812 -0.17403415

model/conv1d_5/BiasAdd/ReadVariableOp f4 [16]
00000000: 1545 98bd e424 37bd 635b 21be 9d9a e3bd
00000010: a015 05be 850e b8bd cead 16be 8b37 2cbe
00000020: ca79 17be 7a9f 38be 3609 89bd 4e8b f6bc
00000030: c845 9cbd a6ab 77be aa76 f5bd 3232 c7bd
-0.07435051 -0.044712916 -0.15757518 -0.111134745 -0.1299653 -0.089871444 -0.14714739 -0.16818063
-0.14792553 -0.18029585 -0.0669121 -0.030095723 -0.07630497 -0.24186572 -0.11985524 -0.09726371

model/conv1d_6/BiasAdd/ReadVariableOp f4 [16]
00000000: a7a4 c9bd 4c4e 18be a050 b8bd 24e7 32be
00000010: c4f9 e5bd 81cc 91bd 256c aebc e268 e0bd
00000020: 7051 03be fd12 aabd cfc7 d2bd a44e a3bd
00000030: 99bd 1fbe 6946 91bd 9789 08be fd54 e9bd
-0.09845858 -0.14873618 -0.08999753 -0.17470986 -0.1122928 -0.07119084 -0.021291802 -0.10957505
-0.12824035 -0.08304403 -0.10292017 -0.07973984 -0.1559967 -0.07093508 -0.13333736 -0.11393163

model/conv1d_7/BiasAdd/ReadVariableOp f4 [16]
00000000: ea80 34be ee16 96bd 5e5e 89bd 5a64 4bbd
00000010: baea f1bd 2dc5 c4bd fff3 9ebd a632 f1bd
00000020: 597a c6bd cb92 b6bd 8e78 b7bd 9a9e ebbc
00000030: cfaf c9bd 78bb babd 4bee f3bd c784 d7bd
-0.17627302 -0.07328592 -0.06707452 -0.04965625 -0.11812349 -0.09607921 -0.07761382 -0.117772385
-0.09691305 -0.08914717 -0.08958541 -0.02876215 -0.09847986 -0.09117788 -0.11910685 -0.10523372

model/conv1d_8/BiasAdd/ReadVariableOp f4 [16]
00000000: 069f 96bd 7303 f8bd 1eef eabd 328f 30bd
00000010: e85d b2bd 9bb8 24bd 8ae9 68bd 3c86 a0bd
00000020: 34ed bdbd a019 76bd c1bc cebd d0e5 99bd
00000030: 345c 0ebe c83d c6bd 3cde 02be 82e7 ddbd
-0.0735455 -0.12110033 -0.11471389 -0.04310531 -0.087093174 -0.040215116 -0.056863345 -0.07838103
-0.092737585 -0.06008303 -0.10094596 -0.075145364 -0.1390236 -0.096797526 -0.12780088 -0.10835172

model/conv1d_9/BiasAdd/ReadVariableOp f4 [16]
00000000: 64d8 cfbd 8fbd 07be 4a6a 81bd 6b1a 05be
00000010: 47a3 c7bd 478e 17be 4445 8dbd 123b b9bd
00000020: 07df a7bd 6a47 acbd cdf2 d5bd b719 0ebe
00000030: 6f09 05be 65ce 58bd 7e4f f0bd 8bd1 36bd
-0.10148695 -0.13255905 -0.06319101 -0.12998359 -0.097479396 -0.14800368 -0.06897977 -0.0904447
-0.08196836 -0.08412059 -0.10446701 -0.13876997 -0.1299188 -0.05293121 -0.11733912 -0.04463343

model/conv1d/BiasAdd/ReadVariableOp f4 [16]
00000000: 8b58 09be 2f73 96bd d5cf acbd 2450 edbd
00000010: a4c2 3bbd 8d4d ebbc 724e e6bd 9945 4fbe
00000020: 3983 1abe f501 81bd 01fc fdbd e4db 17be
00000030: ef2c 0bbe e2c3 c4bd a6e4 31be f4ec a8bd
-0.13412683 -0.07346188 -0.08438078 -0.11587551 -0.04583992 -0.028723503 -0.11245431 -0.20241393
-0.1508912 -0.062992014 -0.124015816 -0.14829975 -0.1359136 -0.09607674 -0.17372379 -0.0824832

model/conv1d_1/BiasAdd/ReadVariableOp f4 [16]
00000000: 01d8 8ebd 7883 59bd 98d2 48be f706 2cbd
00000010: d947 c7bd 0ca9 fdbd fbbd 33be a60a 0cbe
00000020: 235d 34be 6f8f c9bd 89f4 31be 3374 0cbe
00000030: 36e5 73be 15f8 f33b 4513 e5bd 4a0f b3bd
-0.06974793 -0.053103894 -0.19611585 -0.04199883 -0.09730501 -0.12385759 -0.1755294 -0.13675937
-0.17613654 -0.09841811 -0.17378439 -0.13716201 -0.23817906 0.007445345 -0.11185316 -0.087431505

model/conv1d_2/BiasAdd/ReadVariableOp f4 [16]
00000000: bdb1 3dbe c4eb 91be f621 23be 8049 d9bd
00000010: 0cfd 10bd f887 17be b5fb 3dbd e543 cabd
00000020: eafc 45be df6f ebbd b421 16be 4ce2 16be
00000030: c9a5 5cbe 98a5 86be 16cf a9bd 499e 81be
-0.18524833 -0.28500187 -0.15930924 -0.10609722 -0.035397574 -0.14797962 -0.046382625 -0.09876231
-0.1933476 -0.11495947 -0.14661294 -0.14734763 -0.21547617 -0.26298213 -0.08291452 -0.25316074

model/conv1d_3/BiasAdd/ReadVariableOp f4 [16]
00000000: 0558 f8bd 1325 4fbe 38fe 25bd 0b2a 2dbe
00000010: cc34 f5bd 5c17 3cbe f245 b43b 55e9 1bbe
00000020: d69f aebd a9dc a3bd da04 50be cb5b 0cbe
00000030: 4651 3cbe 87b9 dfbd f55d e4bd dd8c 813c
-0.121261634 -0.20228986 -0.040525645 -0.1691057 -0.11972961 -0.18368286 0.005501502 -0.15225728
-0.0852658 -0.08001072 -0.2031435 -0.13706891 -0.18390378 -0.109240584 -0.111507334 0.01581424

model/conv1d_4/BiasAdd/ReadVariableOp f4 [16]
00000000: 2d1d 14be 744e 15be 9372 87bc d245 96bd
00000010: b9cb e1bd 8f3f 31be f86f 05be 0694 8fbd
00000020: 72f2 21be 3940 cfbd e062 bebd 468b 03be
00000030: 4632 22be 385d 6bbd 9658 2fbe acdf bfbc
-0.14464255 -0.14580709 -0.016534125 -0.07337536 -0.11025185 -0.17309402 -0.13030994 -0.07010655
-0.15815142 -0.101196714 -0.09296203 -0.12846097 -0.1583949 -0.057461947 -0.17123637 -0.023422085

model/conv1d_10/Conv1D f4 [16, 1, 1, 20]
00000000: 1d02 723e 6c0f 3dba caae c73d 62bf d03e
00000010: 7c71 773d 67aa 233e b89a 2ebe 2acb 77be
00000020: bcc1 29be b239 a0bd 1af4 793e 38bd 98be
00000030: 90db f6bd b6f0 803c 99eb 013f 931f 35be
00000040: 85fa 983d 17fc 70be b8fc 66be 89d0 84be
00000050: 6fa9 60bd 7ed7 c0bc 1078 e8bb a89d 51be
00000060: 8264 32bd 29d5 c6bc a902 513d d3c3 be3d
00000070: 4ba1 e43e f35e dd3d 6b86 5f3e 63a6 6e3e
00000080: 4485 0bbe 5424 223e cb0f b2bd c61c ec3e
00000090: eb6c 82be ef40 5fbe 5374 243d f12f 8ebc
000000a0: b4d5 54be f580 b13e 4b33 6f3e a19f 9fbe
000000b0: 6945 663e 5580 33be 2559 223e 61b7 5e3e
000000c0: 3020 c7bd 831b 96be 12f0 373e d343 91be
000000d0: 7f4d 21be 6b34 7b3e 2c75 603e bdcc 1bbe
000000e0: fcaf 8f3e 11bc 933e 984c b4be 23f3 c13d
000000f0: 4a99 0dbe bfac 9abe 42e7 473e dc1c a73e
00000100: 468f 913e d918 9ebe 28e6 48be 2236 753e
00000110: d8b5 533c 8065 df3e b052 ab3e 2237 f4bc
00000120: 6540 a03d e578 023d 688f b23e 553d 2c3e
00000130: ad88 ca3e 1c77 e2bd b742 c83e 9f5d a0be
00000140: b652 91be 995d c83e a7fe bdbd 67a4 1ebe
00000150: f868 5fbd 162f 8ebd 1ea7 b4be 5fe5 783d
00000160: c399 94bc 8331 593e bda6 41be 827a 8a3e
00000170: ea05 243f a0d5 87be e35a da3d 7cb7 0b3d
00000180: d30b 923e 3d2d 003f 73e5 8fbc 3a24 adbd
00000190: 700b 86be 9706 353e c005 d23d 6879 723e
000001a0: 35c4 9c3e 225e 94be 5b8c 84be bfc2 9bbc
000001b0: a23e f5bc c54e 95be f4fb d3be 92b1 813d
000001c0: ed11 613e b58f cf3d 468c 363f 4796 643d
000001d0: 2c0a 6ebe 8812 6b3d a54d 123e f3b0 2a3e
000001e0: 5272 f8bd 1fe2 2dbd 9d53 d4bd dddc 1c3d
000001f0: e5d4 e13c 0f6e 62be cc8a 963e 81e3 8f3e
00000200: 7595 15be dbd0 bf3d 6651 533d 59ab 8cbd
00000210: 8af4 0abd 4dc7 f43d 7e46 7a3e 9ff2 52be
00000220: 8704 0e3e 08ec d53d bff3 b93d 029d 963d
00000230: 004d 823d 8600 1cbe ea0a 573e 6c9e 4dbe
00000240: 6e81 af3b 18e4 47be 9ff5 b23d 4109 883d
00000250: bca4 02be f4df eabe 4c2e 2e3e 01c6 b3bd
00000260: 2cf5 443d da95 86bd 3eec 8f3e d9e9 393d
00000270: c453 823e a5f1 033f 8eca e43e 3b25 b73c
00000280: 6344 9bbd f2ed 4f3e a1ba 1bbe 0040 0a3e
00000290: 4299 b53d 20d1 9dbb cc7a 063f 1663 4c3e
000002a0: 19b5 e03e da05 aabc 9c24 c2ba 4a02 523e
000002b0: cf57 83be c859 02be 91c6 1f3e 0d40 8ebe
000002c0: 7b62 7ebe 1063 aa3c 7143 853e e416 233e
000002d0: 3130 a43d c06c b3bd ea08 f43d a3d2 9dbe
000002e0: f46b 2e3e 3371 133f 27b2 fd3d 0e2b 0b3e
000002f0: 5674 343e 5e92 1cbe b426 38bd f319 11be
00000300: a608 8f3c 621b 4bbe 5608 ea3d 57f1 d53d
00000310: 60ba 6cbe c5d6 803e a806 c43e 250d b43d
00000320: 6530 9cbe 7fcb 1f3e 5854 0e3d 19df 10be
00000330: ddc0 b93d c1db 533e 77dc ae3e a424 bc3e
00000340: a4fa 18be 078e 383e f728 71be 4b85 803b
00000350: 4bde 8c3b aac0 b839 9907 203e 7eba 91be
00000360: 3894 493e 56a5 3e3e 065a 49be b4e2 943e
00000370: edea dd3d 37c6 7e3e 9aa0 91be 5600 d63e
00000380: f223 64be 90d0 3ebe 4fbe b53d 96a7 f83d
00000390: ba16 a4be 8e32 5ebe 8e02 f9bd 238d 03be
000003a0: f156 9dbe 5058 e53e ef41 df3e cf4e e03d
000003b0: c6e0 c6bd b4b7 67be cc50 95bd 8218 df3e
000003c0: ffcf e03e 8c84 513e e8a1 583e 21f5 d23c
000003d0: eac0 853e f40c 83bb 6de3 d63e 4d88 3fbe
000003e0: 9984 76be e41a c2bd a76d 773e 0b56 aebe
000003f0: 7bf5 593e 6807 1e3d aef7 25be 7a63 973d
0.23633619 -0.0007212076 0.09750135 0.40771013 0.06041096 0.15982972 -0.17051208 -0.24198595
-0.1657781 -0.078235045 0.24409524 -0.29831862 -0.12053597 0.01573978 0.5075012 -0.17687826
0.07469658 -0.23533665 -0.22557342 -0.2594035 -0.054849084 -0.023540255 -0.0070943907 -0.20470297
-0.043552883 -0.024271565 0.051027928 0.09314694 0.44654307 0.10809126 0.2182862 0.23305659
-0.13625056 0.1583417 -0.086944185 0.46115702 -0.25473723 -0.21802114 0.040149998 -0.017356845
-0.20784646 0.346687 0.2335941 -0.31176475 0.22487415 -0.17529424 0.15854318 0.21749641
-0.09722936 -0.29317865 0.17962673 -0.28372058 -0.15752219 0.24531715 0.21919698 -0.1521482
0.28063953 0.2885442 -0.35214686 0.09470203 -0.13828006 -0.3020992 0.19521812 0.32639205
0.2842962 -0.30878332 -0.19619048 0.23946431 0.012921773 0.43632126 0.33461523 -0.029811446
0.07824782 0.031853575 0.34875035 0.16820271 0.395574 -0.110578746 0.391134 -0.31321427
-0.28383416 0.3913391 -0.09277087 -0.15492402 -0.054543465 -0.06942575 -0.3528375 0.06076562
-0.018139726 0.21210293 -0.18911262 0.2704659 0.64071524 -0.2653017 0.106618665 0.03411053
0.28524646 0.5006903 -0.017565465 -0.08454175 -0.261806 0.17678295 0.10255003 0.23679125
0.30618444 -0.28978068 -0.25888333 -0.01901376 -0.029937092 -0.2916166 -0.41403162 0.06332697
0.21979494 0.10134832 0.7130779 0.05580738 -0.23246068 0.05739072 0.14287432 0.16669063
-0.1213118 -0.042451974 -0.103675105 0.03829657 0.027567336 -0.22112297 0.2940277 0.2810326
-0.14607795 0.09366008 0.0515913 -0.068686195 -0.033924617 0.11952076 0.24440953 -0.20600365
0.13868915 0.1044541 0.09079694 0.073541656 0.06362343 -0.15234575 0.21000257 -0.20079964
0.0053560054 -0.19520605 0.08738255 0.0664239 -0.12758154 -0.45873988 0.17009848 -0.087780006
0.048085377 -0.06571551 0.28109926 0.04538903 0.25454533 0.51540595 0.44685787 0.02235662
-0.07581403 0.20305613 -0.15207912 0.13500977 0.08867122 -0.0048161894 0.52531123 0.19959673
0.43888167 -0.020754743 -0.0014811936 0.20508686 -0.2565293 -0.12729561 0.15603091 -0.27783242
-0.24842255 0.02079919 0.26028016 0.15926701 0.08017004 -0.08760977 0.11915763 -0.30824766
0.17033368 0.57594603 0.123874955 0.13590643 0.17622504 -0.1529021 -0.044958785 -0.14170055
0.017460179 -0.19834664 0.11427371 0.104464225 -0.23117971 0.25163856 0.38286328 0.087915696
-0.30505672 0.15604971 0.034748405 -0.14147605 0.09069989 0.20689298 0.34152576 0.36746705
-0.14939362 0.18022929 -0.23550783 0.0039221398 0.0042989603 0.0003523876 0.15627898 -0.28462595
0.19685447 0.18617758 -0.19663247 0.2907921 0.10835824 0.248803 -0.28442842 0.4179713
-0.22279337 -0.18634248 0.08874189 0.121413395 -0.3204859 -0.21698973 -0.121586904 -0.12846808
-0.30730394 0.4479394 0.4360499 0.109525315 -0.09710841 -0.22628671 -0.072908014 0.43573385
0.43908688 0.20460719 0.21155512 0.025751652 0.26123744 -0.003999347 0.41970387 -0.18704338
-0.2407402 -0.09477785 0.24162923 -0.3405002 0.2128505 0.038581282 -0.16207764 0.073920205

model/conv1d_11/Conv1D f4 [16, 1, 3, 20]
00000000: 13f2 a23e e66d 1fbe 0b99 f23d fd38 bcbb
00000010: 22a1 0a3e b56d 2a3e 7cf4 68bd 1eb5 c33d
00000020: f176 41bd ecb9 743e b99a 21be 0a53 343e
00000030: 412c d13d dd46 653d b39a 083d 397f 9e3c
00000040: 6a5c b73e 4b6e 1ebe 1dd6 7b3e 217a 633e
00000050: ea93 16be ee27 bb3e 4088 923d 8dbf 9c3d
00000060: 3123 a3bd b686 523d eb74 17bd 2344 cb3d
00000070: 3022 3b3c fc43 b5bd d864 02be f7ab 69bd
00000080: f3d0 8a3e 8901 343e f868 323c 8d79 263d
00000090: 7a39 0b3d e9bc 593e 6e71 853e b6b9 7d3d
000000a0: 3e6b 62bd dbb1 0dbe b3ae 033e 5da4 c6bc
000000b0: a7d9 00bd 9773 c03d 9c21 27bd e54c d33d
000000c0: 1809 383d 891c 803e dba9 6b3d 28bb 1fbe
000000d0: 0727 243e 70b4 dc3d 49c6 743e 7910 463e
000000e0: 6d6f 473e 88c3 1d3d 20c3 ac3d 637f 783e
000000f0: b3e5 a33c df65 4e3e c0ba b83d 290b 90be
00000100: 5c6f 613e 3cca 2cbd 2e2b 77bd 144e 68bd
00000110: 4b43 8c3e 44ad b93e ad54 973e e286 063d
00000120: af5d 60bd 6e81 223e 0fba 453e 3229 8d3d
00000130: 4cdc 293d 142e be3e ca7a 03bc 7c56 243e
00000140: ce81 f53d 2449 ef3d b91e 593e 7540 cdbd
00000150: 9a1d 733e 898f afbd 51c7 2f3c bd33 183e
00000160: dfcf 8e3e ae1c 553e a081 c9bc 61e8 b6bd
00000170: 8d05 833e 4f04 5fbe 4884 393c 39d8 cbbc
00000180: 04c0 b53b 1b84 41be d026 273d 465b 46be
00000190: c0eb 6f3c 4cee 14be 657c cdbe 71d4 ee3d
000001a0: ee5a 9c3d 757e 053e 7c89 7d3e eabe a0bd
000001b0: 6ec0 803c bb92 753e 9b4d 153f 9ba5 59be
000001c0: c610 d63e f9ee 3ebc 5eb8 bdbd aa5a 18be
000001d0: 4f2d d13d 1ecf bb3d 782f e1bd 91c5 ccbd
000001e0: e8df 473e 26e1 acbd 2364 8cbd a5db 2cbe
000001f0: e232 19be 4542 293e bd63 163c 91f5 c53d
00000200: b02d 1c3e dc14 6d3e a299 6abe b06e 83bd
00000210: 1512 95be 458e 19be 02b1 3fbd 9c8f 023e
00000220: db26 643e 66f1 c0bc 10f3 a3bd 52f0 983d
00000230: 0c09 7c3e eee6 583c 2a12 713e 6c4c 57bc
00000240: f5f1 a7bc dc2e b03e 6012 9fbd f332 b73d
00000250: 296c f9bd d865 333e bd8c e23c 2ccf bd3e
00000260: 3427 09bd 76ea 583e cba5 ae3e b07f 7b3d
00000270: f521 c93e bbf1 303e 8ec3 0e3e 865e 263e
00000280: 1e28 293e a6c7 a23e 8a66 833e 8985 0fbe
00000290: dbd6 12bd 4624 8f3e 7662 88bd b6c7 173d
000002a0: 62f0 34bd 5636 7a3d 46e1 34bd 9b75 1d3e
000002b0: 9505 83be f94f 483e c0d9 22bd 0805 49be
000002c0: 832f 65be 54be 9f3d b9fb fc3b a52c 4c3e
000002d0: cb19 8cbd b508 353c 4b83 8f3b 4d8b e73e
000002e0: 5df6 3c3e 6afd f3bd 2a8c 9abd 2f7d ba3c
000002f0: 39a5 d4bc 538a bdbd 4b4a 9fbd 21f6 5dbd
00000300: 8fea 64be 32c2 133d 5315 223e c884 12be
00000310: fbeb 82be f6a4 ea3c dcfe 69be 951b 23be
00000320: 96fe 0cbe 69af ec3d 502e c03d 1570 9a3e
00000330: 96ef 933e 9ad2 5abe dc84 05be 4f01 643e
00000340: ff7c 8cbc 5d53 0b3e 775c 00be 6240 883d
00000350: 69ef af3d 9f33 b3bd c25c d73e 0b5a 9e3d
00000360: f070 963e 28ae e53d 2f51 5d3d d7c4 843c
00000370: f149 c6bd b1f7 483e c6a4 b73d 74a8 f33d
00000380: 903a a23e 1179 48be 623f 5fbe 0ba9 3bbe
00000390: aba8 70be 0c3a 643d bb0e ef3c 47ad e23d
000003a0: f4d9 c5bc 8a9c 943e e410 503e a867 a43d
000003b0: de15 b13e a53e e9bd 8ccd dabc 260b a43e
000003c0: 1935 323c 3525 ea3e c3ca 033e 466d 223e
000003d0: 4598 cebd 9c15 74bd 5eff 3bbe f257 253d
000003e0: d6bd 5fbd 98b5 cebd 3a4a a2bd 8970 5e3e
000003f0: 11b9 b7bd 0569 b03d 503a 8e3d 0b3e 3cbe
0.31825313 -0.15569267 0.11845597 -0.005744098 0.1353803 0.16643412 -0.056873783 0.0955603
-0.047232572 0.23899049 -0.15781678 0.17609802 0.10213519 0.055975784 0.033350658 0.019347774
0.35812694 -0.15471761 0.24593396 0.22214557 -0.14704862 0.365539 0.07154894 0.07653723
-0.079656966 0.051398 -0.036976736 0.099251054 0.011421725 -0.088508576 -0.12733781 -0.057048764
0.2711254 0.1757871 0.010889284 0.040643264 0.03399036 0.2126347 0.26063102 0.061944686
-0.055278055 -0.13837378 0.12859611 -0.024248296 -0.03145757 0.09397047 -0.040803537 0.10317401
0.044930547 0.2502177 0.057535034 -0.15598738 0.16030513 0.10776603 0.23903765 0.19342221
0.194761 0.03851655 0.08435655 0.24267344 0.02000699 0.20156048 0.09019995 -0.28133515
0.22015136 -0.042185053 -0.060343914 -0.056715086 0.2739509 0.36265004 0.2955679 0.032843478
-0.054776844 0.15869686 0.19309257 0.06892623 0.041469857 0.3714453 -0.008024881 0.16048616
0.11987649 0.11683872 0.21203126 -0.1002206 0.23741761 -0.08572299 0.010728673 0.14863487
0.27892968 0.20811722 -0.024597943 -0.089310415 0.25590172 -0.21778987 0.011323042 -0.024883376
0.0055465717 -0.1889805 0.0408085 -0.19370756 0.0146436095 -0.14544028 -0.40133968 0.11661614
0.07634531 0.13036521 0.24759477 -0.07848914 0.015716758 0.23981754 0.5832154 -0.2125458
0.41809672 -0.011653655 -0.09263681 -0.14878336 0.1021372 0.09170364 -0.10995382 -0.0999862
0.19519007 -0.08441381 -0.06855037 -0.16880663 -0.14960817 0.16529186 0.009179053 0.09665979
0.15251803 0.23152488 -0.22910169 -0.06417596 -0.29115358 -0.14995678 -0.046799667 0.12750095
0.22280447 -0.023552608 -0.08005345 0.074677125 0.24612826 0.013238652 0.23542085 -0.013140779
-0.020501116 0.3441075 -0.07767177 0.08945265 -0.12178833 0.17519319 0.027655 0.37072122
-0.033484653 0.2118319 0.34110865 0.06140107 0.3928372 0.17279713 0.13941786 0.16246995
0.1651921 0.31792945 0.2566417 -0.14015783 -0.035849433 0.27957362 -0.06659405 0.037055694
-0.04417456 0.061086975 -0.04416015 0.15376894 -0.25590196 0.19561757 -0.039758444 -0.19630826
-0.22381406 0.07799974 0.0077204374 0.19938906 -0.06840857 0.011049439 0.004379665 0.45223466
0.18453355 -0.11913569 -0.075462654 0.02276477 -0.02595769 -0.09254899 -0.07777842 -0.054189805
-0.22355102 0.03607387 0.15828447 -0.14308465 -0.25570664 0.028643113 -0.22851127 -0.1592849
-0.13768992 0.11556894 0.093838334 0.30163637 0.28893727 -0.213694 -0.13038963 0.22266124
-0.017149447 0.1360602 -0.12535273 0.06652905 0.08590586 -0.0875008 0.42062956 0.07732018
0.2938304 0.11214858 0.0540325 0.016207142 -0.09682072 0.19625737 0.08966975 0.11897364
0.31685305 -0.19577433 -0.21801522 -0.18326204 -0.23501842 0.05571942 0.029181829 0.11068206
-0.02415178 0.2902568 0.20318943 0.08027583 0.34586996 -0.113889016 -0.02670934 0.32039756
0.010876917 0.45731512 0.12870316 0.15861997 -0.10087637 -0.05959092 -0.18359134 0.040367074
-0.0546244 -0.1009323 -0.07924314 0.21722616 -0.089708455 0.08613781 0.06944716 -0.18383043

model/conv1d_12/Conv1D f4 [16, 1, 5, 20]
00000000: 993c 0f3f 6354 ed3d 4d42 e8bd 753e b93d
00000010: b8f5 a03d 639e e63d c0ff 9cbc 7b9b f03c
00000020: 67cf 14be 52bd 143e 4095 5d3e 9164 bd3d
00000030: 66f3 1b3e fd1d 803d d50b be3d 0887 f0bd
00000040: 135b 82bb 107c 3f3e ec7c 31bd f616 473e
00000050: 246e f63d bb99 843e cf3c dc3d 1ffa c43d
00000060: 5d7c 433e 25cd 863e 6c91 f4bb 3cf4 923e
00000070: 4b36 443c c240 54bd c88b aabd ea6d 283e
00000080: e022 09be 4cb5 99bd bf29 e23d 7127 5e3d
00000090: 9c7b a8bd 5615 cfbc c6bf 563d 65e9 81bd
000000a0: e616 71bc e966 623e 02c6 11bd 53b6 b0bd
000000b0: 799d 513e 9436 3b3e ef98 3e3e 3033 2abe
000000c0: d330 d23e 1ea1 08be 22e9 213c 7edd 973d
000000d0: 240e 123e fa55 903e 69f8 153e ef80 1abe
000000e0: cc18 f4bd 9368 1a3e 9b12 9f3e ffd1 583d
000000f0: c19a 10bd 73c3 873e 4aeb 5ebe 0f82 d53d
00000100: 852c 7b3d c339 bc3a 95d1 853e c043 423d
00000110: ebf4 f73d d8c7 bebd b5d6 abbd bc3c 9f3e
00000120: 0b64 203e 72ec fdbc b814 6b3e ad92 b4bd
00000130: caba 44bd 76b7 41bd e28c 5dbc 412c 4e3d
00000140: ce4b 7c3b bfc0 b43d 2fdd 31be 5b5b 25be
00000150: 544a 893d 9f46 403e 65a6 33be 6628 203e
00000160: 740b 1bbe 2395 68bd b9b2 093e 6391 02be
00000170: 639f 51bd f42a ccbd 0d4e dbbd 1479 b8bd
00000180: 9aa0 203d 0699 2d3c eb8c 01bd c6e0 3f3e
00000190: 8f23 bf3e 9f1c 703c a04f 4fbe 36b3 f3bd
000001a0: feed e73c 9b03 153e 0786 fcbd 98a4 8fbe
000001b0: f623 31be 807d f33d c4d4 483e 710d 59be
000001c0: 889b c33e e1fa 7a3d 0d6f a63c a3c9 1c3e
000001d0: cd82 c03d 0c35 9c3d ecc4 4f3e 6ec8 af3e
000001e0: 4d35 28bd 4ab6 d5bd e745 84bc d219 653e
000001f0: d17a 3b3e 3c47 56bc c8c2 24be 4e13 193e
00000200: 259e d0bd 10fc 1fbd f32b a33e 2342 16be
00000210: 6570 2d3e 376e 0b3e 813e a9bd 20fc 83be
00000220: bdf3 2b3d 29f4 aebd cbf2 dcbd b641 ecbd
00000230: 7499 ce3d 4b33 8e3e 96dd 87bd 624f 31bd
00000240: 1de1 b43d e8b8 513d f64d 413e 2c2a 03bd
00000250: bbc5 9eb9 d880 033e bbe7 4e3e 520c 073e
00000260: f0bd 243e f41e 0dbe 9b28 443d 3da9 53be
00000270: cffa 35be c5cf 213e b9c9 f8bc db66 a43d
00000280: 4bd5 69bd 87d3 983d 31e7 f13a 32b7 2cbe
00000290: 4c91 e23d b275 bc3c 382d e83c 0b17 573d
000002a0: 036b 22bc 56be 273e 216b 063e 01a0 2cbe
000002b0: 108b 31bd f26f 2bbd a737 42be 98d4 afbe
000002c0: 5469 02bd 7b72 8f3e 624d 94bd fe2d bdbc
000002d0: 0d93 e03d 6552 4c3c ba44 4ebe bbd4 ac3d
000002e0: c417 3ebd 8ff2 03be 9e39 6cbe fbc8 963d
000002f0: b3ec d8bd 502d ab3e e15e 1b3e 90d7 80be
00000300: 6e17 5b3e 4bbe 973e 5b8f a03d edc0 32bd
00000310: dbc3 33bd 22f1 833e 50f7 053e 3335 cf3d
00000320: 0960 883c fb95 c0bb 0c0f eb3d c8a5 23be
00000330: 7dfc 9ebc 9f96 22be 8d43 213e e3bb 36bd
00000340: 0a7d 853d 08b3 993d 47c3 b23d 6599 b4bd
00000350: cc4d 323e 3b86 d7bc 39e1 1fbd 5a30 db3d
00000360: 0b4a 943c d675 723e fd31 dfbc 82d9 8d3e
00000370: 178a b83d 9984 0d3f 9627 c53d 18bd f5bc
00000380: e6e8 043a 0dca 843c 96e2 f73c ba35 22bd
00000390: dd6b 0b3e d744 11be cd5a 02be 320d 4c3e
000003a0: 4950 1bbe c282 06bd 9982 4d3e 55de 68bd
000003b0: e5db 1cbd ef35 933d 46c6 85be 88e0 c4bc
000003c0: d37e 123e 7e41 3cbc 2d58 abbc 9294 013e
000003d0: 5857 843e b7e8 033d c842 01bd 7510 ef3d
000003e0: c722 f53d 2c77 783c 8f66 90bd a18a 6e3e
000003f0: db3e 2d3e 8e1a 823e 6287 963d 49f3 673e
0.5595184 0.11588361 -0.11340771 0.09045116 0.07859367 0.112606786 -0.01916492 0.029371014
-0.14532243 0.14525345 0.21638966 0.09247697 0.15229568 0.0625572 0.092796005 -0.11744505
-0.003978142 0.1869967 -0.043332025 0.19442353 0.120327264 0.25898537 0.10753786 0.09618019
0.1909041 0.26328388 -0.0074636247 0.2870196 0.011975835 -0.05181957 -0.083274424 0.16448179
-0.1339221 -0.07505283 0.11043119 0.054236833 -0.082267016 -0.025278728 0.052428983 -0.063433446
-0.014714932 0.2210957 -0.035589226 -0.086285256 0.20470227 0.18282539 0.18613027 -0.16621089
0.41052875 -0.13342711 0.009882243 0.07415293 0.14263207 0.28190595 0.14645542 -0.15088247
-0.11918792 0.15078954 0.31068882 0.052934643 -0.035303835 0.26516303 -0.21769443 0.10425197
0.061321754 0.0014360476 0.2613646 0.047427893 0.12107261 -0.09315461 -0.083905615 0.31101024
0.15663163 -0.030996535 0.22957122 -0.08817039 -0.0480297 -0.047294103 -0.013522359 0.050335173
0.0038497332 0.08825826 -0.17369531 -0.1614813 0.0670363 0.1877694 -0.17543943 0.15640411
-0.15141088 -0.056782853 0.13447084 -0.12750773 -0.051177394 -0.0996913 -0.107082464 -0.09007469
0.03921566 0.010595566 -0.03162853 0.18738088 0.37331817 0.014655261 -0.20245218 -0.11899416
0.028311726 0.14552157 -0.12330251 -0.28055263 -0.17298874 0.118891716 0.19612414 -0.21196534
0.38204598 0.061274413 0.020316625 0.15311293 0.09399948 0.076273054 0.20289963 0.34332603
-0.041066457 -0.104351595 -0.016146613 0.22373131 0.1830857 -0.013078507 -0.16089928 0.1494877
-0.10186414 -0.039058745 0.31869468 -0.14673667 0.16937406 0.13616262 -0.08263875 -0.25778294
0.041980494 -0.085426636 -0.107884966 -0.11535971 0.100878626 0.27773508 -0.06634061 -0.043288596
0.088319995 0.05120173 0.18877396 -0.03202264 -0.0003028343 0.12842119 0.20205586 0.13188294
0.1608808 -0.13781339 0.047890287 -0.20670028 -0.17771457 0.15801914 -0.030369626 0.080274306
-0.057088178 0.07462221 0.0018455741 -0.16866758 0.110628694 0.02300534 0.028341874 0.05251221
-0.009913209 0.16381201 0.13126804 -0.16857912 -0.04334551 -0.041854806 -0.18966542 -0.34341884
-0.03183873 0.2801703 -0.07241322 -0.02309322 0.10965548 0.012470816 -0.20143405 0.084390126
-0.046409383 -0.12885498 -0.23068854 0.07362553 -0.10592022 0.33433008 0.15172912 -0.2516446
0.21395656 0.2963737 0.07839843 -0.04364102 -0.043887954 0.25769907 0.13082623 0.10117569
0.016647356 -0.005877254 0.11477479 -0.1598121 -0.019407505 -0.1587777 0.15748425 -0.044612776
0.0651799 0.075048506 0.087286524 -0.0881832 0.1741249 -0.026309123 -0.03903315 0.10702582
0.018101713 0.23677763 -0.027245516 0.27705008 0.090107135 0.5528045 0.09626691 -0.029997393
0.0005070105 0.016209627 0.030259412 -0.03960202 0.13615365 -0.14186417 -0.1272995 0.19926909
-0.15167345 -0.032839544 0.2006935 -0.056852657 -0.038295645 0.071880214 -0.26127833 -0.024032846
0.14306192 -0.011490224 -0.020916069 0.12654331 0.25847888 0.032204356 -0.03155783 0.11673061
0.11969524 0.015165132 -0.070508115 0.2329507 0.16918509 0.25410885 0.07350041 0.226514

model/conv1d_13/Conv1D f4 [16, 1, 7, 20]
00000000: 0650 b03c 1fdc 72bc a11a 213e 7df2 24bc
00000010: 5723 46be 6a03 243d 33be a5bd f348 923e
00000020: e894 dd3c a35a 073c 4130 50be dc3d 70bc
00000030: 9197 5ebe 3eac 2fbe 4f27 923c 524f b7bc
00000040: 202c 46be ea46 af3d d0ce b7bc 79c7 b8bd
00000050: 041a 08bd ecd4 983e 40a5 afbd e43e 99bd
00000060: 0606 533c 20d5 b9b7 90bc 733d 8ff1 013e
00000070: f371 9a3e afde 9f3d 785d 14be f00a 093e
00000080: 0f7c 203d 9beb 313e 0c19 093e 414a 2bbd
00000090: 62c3 be3d c369 913e e700 a83e 2ec3 9abd
000000a0: 0429 9b3d 64fe 013e 901f f13c b525 d73d
000000b0: 62b7 2a3d 662d 2f3e 8870 c73d d388 2cbd
000000c0: e02f 183e 88b7 a13d c08e 15bd 5b0c 043e
000000d0: 6e36 7c3c 9c75 8b3d 8cb2 803e 7124 e7bc
000000e0: 0107 35be a556 783e 9abb 4c3e d537 e7bd
000000f0: 6bb8 8b3e 1cb2 bcbb 2e0c bdbd 8012 b5bd
00000100: 109e c03d a1f5 ba3d 2821 a6bd 513a 0a3e
00000110: d822 cdbd e36d 8c3d 2544 af3d 3b1a bfbb
00000120: dc1c 983e f890 453e d550 8e3e f002 d83d
00000130: 8e09 493e 83e1 843e e404 363e e7b5 4a3e
00000140: 6301 2e3e f2b0 413e 91a8 c2bc 1183 c93c
00000150: 76e8 203e 1739 d53d c287 303e ec47 01bd
00000160: 94a4 bb3d eaa1 033c e46d 963d 81d5 b53e
00000170: b8e5 d33d 7a16 5d3e d3a9 273e e66a f9bd
00000180: 12de d2bd 6c2a e93d 99b6 8dbc 0c5d f63d
00000190: 8d39 d9bc 2a33 873d 9eae 49bd c42c 9dbd
000001a0: 506c 00be bd85 dcbd 5f7d eabb c3ee 8e3d
000001b0: 34e6 6e3d ce1b ae3d 348e 74bc 265b e33c
000001c0: 273e ee3d 905a d63d b6bd 843e 3e39 56bd
000001d0: b8dc a5bd b3ed 0f3d 92ea 7dbd 6cf9 adbd
000001e0: 2ce5 0d3e f38f 5dbd 3267 d3bb 9069 433e
000001f0: 69a2 90bd 7ed9 203b e8e7 69bd c66f f6bc
00000200: fcf0 b23d 92b0 abbd 44b1 a1bd e486 7fbd
00000210: e823 013e 43fe 1c3e b101 383e 512c 233d
00000220: 6756 883c 4266 8a3d e577 c6bd 433d eebd
00000230: 85b6 9f3c 41bd 44bd 8941 033e 97fd 623e
00000240: fadf 3a3e 4cd6 793e 9946 903e 1c7a be3d
00000250: 0ae0 503c b360 573d f250 ca3d 8450 c8ba
00000260: ec6a 343e 93ac 1b3e 2b8a 163e 80ad 8a3d
00000270: 122b b73d a2bd 133d 0d8b 083b 2035 5a3b
00000280: 3748 9b3d 6c08 c4bd 9bd3 103e 4cb3 433e
00000290: dd19 903e 3e3a 923d b4a6 f03d 8e21 143a
000002a0: aafa ceba 9ee2 053e c607 243e 10f3 1fbd
000002b0: 0154 663e 5a04 183d e22f 283e 05a4 8bbd
000002c0: 0179 803d 0fd8 db3b 71e4 4b3d bbff 703e
000002d0: b35f 1ebe bbaf d13e d58b 283e 0801 e3bd
000002e0: 4509 4e3d 37dd 7cbc a47b 4fbd 2bcf 913e
000002f0: db21 9ebc 4f2f 34be c095 11be 6d06 743e
00000300: 382a afbd 91d8 29be 63ef 05bd 701e 09be
00000310: b99b 2e3d 11f9 13be c235 ff3c 9862 53bc
00000320: 4cbd fa3d 2f5e bb3c ec86 3a3e 88e4 37bc
00000330: 7c82 9e3e 6fc3 733d 8f94 533d 15b7 0fbe
00000340: c18d 593c 2ee1 2bbd f2b4 193e a6a6 4c3d
00000350: 0eb6 3f3d afb8 67bd 15e8 eb3d 8afa 963e
00000360: 0501 cb3d e1a0 413d 40ca f1bc 001c 903d
00000370: 0485 06bd 39ab a53e d80e 693e cc13 25be
00000380: b712 863e c9ba 6f3e 392c 833d 3ed6 223d
00000390: e2ed a43d 3956 1b3d 8712 d13c b2a2 d03e
000003a0: 3202 003e f270 283d 9a64 c43c 286b 6ebd
000003b0: 7dec 8bbd a654 1bbd 006f b83d c7af 3c3e
000003c0: 1bd0 40bc b7d5 f3bd 799d 0c3e 0c82 e9bc
000003d0: 57be 053e bd03 c6bd fb82 42bd f817 383d
000003e0: 9533 f1bc 8a9b 893e da2f 0c3e 144e 8ebd
000003f0: 7adb d63d 2ac2 a93e 9eb4 8c3e d2f2 ad3d
0.021522533 -0.014822989 0.15732814 -0.010067579 -0.19349419 0.04004232 -0.08092918 0.2857128
0.027048543 0.008261356 -0.20330907 -0.014663186 -0.21737505 -0.17155549 0.01784101 -0.02237669
-0.1935277 0.08558448 -0.022437483 -0.090224214 -0.033227935 0.29849946 -0.08576441 -0.074826986
0.012879854 -2.2152963e-05 0.059506 0.12689804 0.3016506 0.078061454 -0.1448878 0.13383079
0.03918081 0.17375033 0.13388461 -0.04181886 0.0931461 0.28401002 0.32813188 -0.07556759
0.075761825 0.12694699 0.029433995 0.10505239 0.041678794 0.17107162 0.097382605 -0.042122673
0.14862013 0.07896334 -0.03651309 0.12895338 0.015393836 0.068095416 0.2513622 -0.028215619
-0.17678453 0.24251802 0.1999344 -0.11289946 0.27289137 -0.005758537 -0.09230839 -0.08841419
0.09405148 0.09128881 -0.08111793 0.13498808 -0.100164115 0.06856897 0.085579194 -0.0058319843
0.29709518 0.19293582 0.27796045 0.10547435 0.19632551 0.25953302 0.17775303 0.19795953
0.16992716 0.18915156 -0.02376202 0.02459863 0.15713677 0.1041128 0.17239287 -0.03156273
0.0916225 0.008034209 0.07345179 0.35514453 0.1034655 0.21590605 0.16373377 -0.121785924
-0.10296263 0.113850445 -0.017298983 0.12029466 -0.0265167 0.06601556 -0.049238794 -0.07674554
-0.12541318 -0.10767696 -0.0071560587 0.06979134 0.058325008 0.08501397 -0.014926482 0.027753424
0.11632948 0.10466492 0.25925988 -0.052300684 -0.080987394 0.035138797 -0.06199128 -0.08494839
0.13856953 -0.05409236 -0.006451511 0.19083238 -0.07062227 0.0024543698 -0.05710593 -0.030082595
0.0873737 -0.083832875 -0.07895139 -0.0623845 0.12611353 0.15331368 0.17969395 0.039837185
0.016642762 0.067577854 -0.09690837 -0.116327785 0.019496212 -0.04803205 0.12817968 0.2216705
0.18249503 0.24398154 0.28178862 0.09300634 0.012748728 0.052582454 0.0987872 -0.0015282785
0.17618912 0.1520255 0.14701144 0.06771374 0.08943762 0.03606952 0.0020834834 0.0033295825
0.07582133 -0.09571919 0.14143221 0.19111365 0.28144732 0.07140015 0.11750546 0.0005650752
-0.0015791256 0.13074729 0.1601859 -0.03905016 0.22492982 0.037113525 0.16424516 -0.068183936
0.0627308 0.006709106 0.049778406 0.23535053 -0.15466194 0.40954384 0.16459592 -0.11084181
0.05030181 -0.015433601 -0.050655022 0.2847837 -0.019303253 -0.17596172 -0.14217281 0.23830576
-0.085529745 -0.1658652 -0.032699 -0.13390517 0.042628977 -0.1445048 0.031153563 -0.012901925
0.12243137 0.022872059 0.18215531 -0.01122392 0.30958927 0.059512552 0.05165535 -0.14034684
0.013278426 -0.041962795 0.15010431 0.049963616 0.04680448 -0.056572612 0.115188755 0.2948802
0.09912304 0.047272567 -0.029515386 0.070365906 -0.032841697 0.32357195 0.22759569 -0.16120833
0.26186153 0.23411097 0.06404919 0.0397551 0.08053185 0.037924025 0.02552153 0.40749127
0.12500837 0.041123338 0.023973752 -0.05820766 -0.06832216 -0.037922524 0.090055466 0.18426429
-0.011768366 -0.11905997 0.13731946 -0.028504394 0.1306089 -0.09668682 -0.047488194 0.044944733
-0.029443542 0.2687648 0.13690129 -0.06948486 0.104910806 0.33155948 0.2748155 0.0849358

model/conv1d_14/Conv1D f4 [16, 1, 9, 20]
00000000: e2c0 32be 0177 1bbe a57c b43d 9079 8a3d
00000010: bcd0 e33d 8258 1dbe 22a8 f3bd e706 593d
00000020: 892b d0bd a2a8 863e 7df1 293d 2c38 87bd
00000030: 6d8d 353e 2a56 1a3e 58a7 2c3e 30d2 4dbe
00000040: 1e2d 6abe 03ec 703c 8aab 833d 99e1 4e3e
00000050: b2f3 53bc 6173 dfbd 5af4 51be dc88 24be
00000060: e546 953d 2a5b 7e3a cf98 28be 495f 3cbd
00000070: dfc8 8cbd 888e 433e 074b 8c3e 85da d7bd
00000080: a16e 6a3e 7470 98bc 7609 923d 8962 fdbd
00000090: 1187 683e 8c3b 66bd fd57 ebbc 5b07 983e
000000a0: 869e 29bd 925d a03c 2eb8 e3bd c990 e13d
000000b0: a3de b1bd 85b3 4e3d 4924 e4bd 2d65 203d
000000c0: 60b4 20bd c782 01bd 49fc 97bd de1c 5a3c
000000d0: 6657 c5bd a8da a1bd 52f1 08bd b80d 023d
000000e0: d8cb 5abe 6a54 b03c ac61 87bb 914f 7abb
000000f0: 9cce 90be f93b d03c 2bd6 283d 4f1b ae3e
00000100: 379f 033e 564b dfbd 0cf3 5a3e f6ad f9bc
00000110: 6a31 9b3d eba2 94bd 49fd 12be 6bea 07be
00000120: 2845 0fbe 8278 c93d ee01 363d e7ca 103d
00000130: ad8a 9c3d 874e df3d 7484 aa3d dc3f b0bd
00000140: 3c6d aa3d b073 cb3d 667f cd3d 9cdc 963d
00000150: 9a93 d23c 51ab 17be 8077 08be c700 723e
00000160: 505f e13c 7dfb 323e f754 263e bbd1 d7bd
00000170: f8d1 a43d 8138 80bd 5990 703e 01fe 283e
00000180: ec59 733d 641c be3d 6cf3 3f3d 0c3f 203e
00000190: 9422 a73c ca30 14bd 6b12 3ebe b30f 403d
000001a0: 05cb d6bc 14c1 fc3d 8abe 90bd 0448 633c
000001b0: 3399 913d a97c 063e a56c 023e a216 10ba
000001c0: 3b4f 5d3e 29d9 0c3e 682a 82bd e378 9cbd
000001d0: 9d9e 343d 2be2 f13d 5cf2 873d 89ad 243d
000001e0: d5d9 9cbd aeed c03d 9e67 66bd 0aa3 b2bd
000001f0: 6e5d 273e 6d55 80bd 86e7 f2bd 6b29 95bc
00000200: c80e fdba 3df4 933e e62f 27bb 3f8f d23c
00000210: 04ab d0bc 406b 4cb9 87f7 e23d b424 1bbd
00000220: bb29 45bc 0e0c bcbd 327c c8bc fb45 6c3e
00000230: f043 7c3d 00d9 983d ac03 1e3d 05da ce3d
00000240: f15c 983d af95 6dbd f46d 63bd 61c1 583e
00000250: 8c96 613e 1ac3 e73d 2cba bd3d 33f7 083e
00000260: 6bb7 393e d921 423e 1cdd c03c d1ba ce3c
00000270: b8f1 f1bc cd65 1d3e 0d31 e3bc 80d5 1a3e
00000280: 7177 a23d dde5 98bd b913 7d3d 4a13 4b3e
00000290: 4447 933d 3b52 33bd 8078 ff3d 9f43 8a3d
000002a0: f6b8 5a3d a65b 193e ee89 263e 6f08 e13c
000002b0: f8d9 0c3e 7221 3a3d 0881 1a3d 67e0 4f3e
000002c0: 20c2 0a3e 5fef f2bc 0dfe 883d 98a8 e43d
000002d0: 083e 93b9 3efb 3bbd 735e 7d3d 55b1 003d
000002e0: ed95 533c 7b7e 203e 05f3 92bd 4fa5 da3d
000002f0: 0478 b63e 6325 663d 9307 d23a 1add 66bb
00000300: af59 2b3e b49c 493e bba2 103e 76bd bfbd
00000310: 4e5e 8a3c 82a6 873e 5204 a43e 7bae b4bd
00000320: 3863 943e d16d 71bd 0ddd 843e f320 493d
00000330: 04e4 923d a07d a23b f67d 523b 4635 553e
00000340: f275 81bc 78d9 69b9 2046 d33c 2da8 88bd
00000350: 70fb 2cbe ffae 39be 6b20 adbc 3aa4 8e3e
00000360: 8b32 3b3e 3058 07be 78ce 2f3d 90a0 a9bd
00000370: 7060 913e a75f a63e 3cb0 1dbd 1b1d 12be
00000380: d587 3b3e 6b75 ae3e d133 52bc 8e19 c7bd
00000390: bf9d 7b3e d68a e3bd c751 05bd 40ec d23d
000003a0: 8378 0abe e491 f93d 3abe 973e 9771 2e3d
000003b0: 6ffb 443d 2bf6 993e 1636 703e 2daf 843d
000003c0: 1496 1d3e 202b 763d bfa8 d83c f4af 7ebd
000003d0: feb4 0c3e de61 563e e03f 873d bdc1 a13d
000003e0: d70a 273e 1367 d8bd 4977 283c 06e1 183e
000003f0: 523f c6bd ab00 adbc f007 1d3c 3d1e 5b3d
-0.17456391 -0.15182115 0.088128366 0.067614675 0.11123797 -0.15365794 -0.11897303 0.0529851
-0.10164554 0.26300532 0.041490067 -0.06602511 0.17729731 0.15071931 0.16860712 -0.20099711
-0.22868773 0.014704707 0.06429203 0.20203246 -0.012936519 -0.10910679 -0.20503369 -0.16067833
0.07288913 0.00097029156 -0.16464542 -0.04598931 -0.068742506 0.1909734 0.2740099 -0.10539726
0.22893764 -0.01860831 0.07130711 -0.1237231 0.22707774 -0.056209132 -0.02872848 0.29693112
-0.041410945 0.019575868 -0.11119114 0.11013944 -0.08685043 0.050464172 -0.11139733 0.03915899
-0.03923452 -0.03161886 -0.074211664 0.013312547 -0.096358106 -0.079030335 -0.033433266 0.031751364
-0.21366823 0.021524627 -0.0041315164 -0.0038194398 -0.2828263 0.025419222 0.04121987 0.3400521
0.12853704 -0.10903041 0.21381778 -0.030478459 0.07577784 -0.07257637 -0.14354433 -0.13273017
-0.13991225 0.09837438 0.044435434 0.035349753 0.07643638 0.1090365 0.08326045 -0.0860593
0.08321616 0.09934175 0.10034065 0.07366297 0.025705148 -0.14811446 -0.13326836 0.23633109
0.027511269 0.17478748 0.16243349 -0.1053805 0.08047861 -0.06260777 0.23492564 0.16503145
0.059411928 0.09282759 0.046863005 0.1564905 0.02040223 -0.03617934 -0.18561713 0.046889972
-0.026219854 0.12341514 -0.070675924 0.01387215 0.071092986 0.13133492 0.12736757 -0.00054965366
0.21612255 0.13754715 -0.063557446 -0.07640245 0.044096578 0.11810716 0.06638023 0.04020456
-0.07658736 0.09420334 -0.05625116 -0.087225035 0.16344234 -0.06266294 -0.11860566 -0.018208226
-0.0019306773 0.28897277 -0.0025510727 0.02570307 -0.025472172 -0.0001949491 0.11082368 -0.0378768
-0.012033875 -0.09181987 -0.024473283 0.2307357 0.061588228 0.074632645 0.03857772 0.10100178
0.07439602 -0.058004078 -0.05552478 0.21167518 0.22030085 0.113165095 0.09264025 0.13375549
0.18136375 0.18958224 0.023542933 0.025235565 -0.029534206 0.15370865 -0.02773335 0.15120506
0.07932938 -0.07465718 0.061786387 0.19831577 0.07191327 -0.043779593 0.124741554 0.06751179
0.05339905 0.14976367 0.16263554 0.027469842 0.13755023 0.045442052 0.03772071 0.20300446
0.13550615 -0.029655157 0.06689081 0.11164969 -0.00028084242 -0.0458939 0.061857652 0.031419117
0.012914163 0.15673248 -0.071752585 0.10676061 0.3563844 0.056188 0.0016023986 -0.0035227002
0.1673343 0.19688684 0.14124577 -0.09362309 0.016890671 0.26494223 0.32034546 -0.08822342
0.28981948 -0.05894262 0.25949898 0.04910369 0.07172397 0.0049588233 0.0032118536 0.20821103
-0.015803311 -0.00022301625 0.025790274 -0.06672702 -0.16892791 -0.18133162 -0.021133622 0.2785967
0.18281 -0.13217235 0.042921513 -0.08282578 0.28393888 0.32494852 -0.03849815 -0.14268915
0.18313535 0.34073958 -0.012829737 -0.09721671 0.24571894 -0.11110465 -0.032548692 0.10298967
-0.13522534 0.121860296 0.2963732 0.042588796 0.04809135 0.30070624 0.23458132 0.06478725
0.15389282 0.06009972 0.026447652 -0.06217952 0.13740918 0.20935771 0.0660398 0.07898281
0.16312729 -0.10566535 0.010282346 0.1492959 -0.09680046 -0.021118483 0.009584412 0.053495634
