results/fold_4/checkpoint/my_netTCR_model_fold_4.tflite (tflite, 406736 bytes, 73 tensors)

model/conv1d_10/BiasAdd/ReadVariableOp f4 [16]
0	0xbe7422ce	-0.23841402
1	0xbebfb903	-0.3744584
2	0xbda0cc29	-0.078514405
3	0xbd9ef71c	-0.07761976
4	0xbc46bc37	-0.012129835
5	0xbe3cc2e8	-0.18433726
6	0xbd93453a	-0.07190938
7	0xbdb59c13	-0.088676594
8	0xbdb11727	-0.08646994
9	0xbe1eeb62	-0.15519479
10	0xbd7ee965	-0.0622343
11	0xbe40903a	-0.18805018
12	0xbe00b81e	-0.12570235
13	0xbe3c353a	-0.1837968
14	0xbd73a4c2	-0.059483297
15	0xbdac34df	-0.08408522

model/conv1d_11/BiasAdd/ReadVariableOp f4 [16]
0	0xbe685594	-0.22688895
1	0xbe2f5633	-0.17122726
2	0xbe215ff0	-0.15759254
3	0xbe05b3e9	-0.13056912
4	0xbe8392f4	-0.25698054
5	0xbe9bffc1	-0.30468562
6	0xbe477dd3	-0.19481592
7	0xbe549aee	-0.20762226
8	0xbe6c9ada	-0.23105946
9	0xbe51e8f9	-0.20499028
10	0xbe85fcc8	-0.2616942
11	0xbe3d8ea2	-0.18511441
12	0xbe6d6b83	-0.23185544
13	0xbdf73a5f	-0.1207168
14	0xbe082959	-0.13297023
15	0xbe44b6e2	-0.1921039

model/conv1d_12/BiasAdd/ReadVariableOp f4 [16]
0	0xbe9c62ce	-0.30544132
1	0xbda12883	-0.07869055
2	0xbe2e3bfa	-0.17015067
3	0xbe4bdf86	-0.19909486
4	0xbe49d23e	-0.19709107
5	0xbd919a4c	-0.07109508
6	0xbe5bf014	-0.21478301
7	0xbe2b9e63	-0.16759638
8	0xbeab8fe0	-0.33508205
9	0xbe2bcf44	-0.16778284
10	0xbe40de4e	-0.18834803
11	0xbe257d1d	-0.16161008
12	0xbe2dbafc	-0.1696586
13	0xbe713995	-0.23557122
14	0xbe54e4be	-0.20790383
15	0xbe5d1d53	-0.21593218

model/conv1d_13/BiasAdd/ReadVariableOp f4 [16]
0	0xbe1fd920	-0.1561017
1	0xbe164715	-0.14675553
2	0xbe3e55b3	-0.18587379
3	0xbe1d60f9	-0.15369023
4	0xbd70aee6	-0.058760546
5	0xbe29fa85	-0.16599472
6	0xbdf99a01	-0.12187577
7	0xbe826aed	-0.25472203
8	0xbcdd2495	-0.026994983
9	0xbdcec205	-0.100956
10	0xbdd225f9	-0.10261149
11	0xbe27d0fd	-0.16388316
12	0xbe660665	-0.22463377
13	0xbe6ce5c2	-0.2313452
14	0xbe87211b	-0.26392445
15	0xbd00a78d	-0.03140979

model/conv1d_14/BiasAdd/ReadVariableOp f4 [16]
0	0xbd76196a	-0.06008283
1	0xbdf94a30	-0.12172353
2	0xbe559d7d	-0.20860858
3	0xbd9044bb	-0.07044359
4	0xbde23c79	-0.110466905
5	0xbe58d6be	-0.21175668
6	0xbda0ab3d	-0.07845161
7	0xbe897cb5	-0.26852956
8	0xbe52d498	-0.2058891
9	0xbe10ef38	-0.14153755
10	0xbe45bb6d	-0.19309779
11	0xbde503c7	-0.11182361
12	0xbe39cbc3	-0.18144135
13	0xbe432bb1	-0.19059636
14	0xbd58a2ee	-0.052889757
15	0xbe456b0a	-0.19279113

model/conv1d_15/BiasAdd/ReadVariableOp f4 [16]
0	0xbe2d8d36	-0.16948399
1	0xbe0dc29d	-0.1384377
2	0xbe6e3e39	-0.23265924
3	0xbe838aa9	-0.25691727
4	0xbe38e93f	-0.18057726
5	0xbe187067	-0.14886628
6	0xbdf0e6eb	-0.11762794
7	0xbe51fd17	-0.20506702
8	0xbe381aba	-0.17978945
9	0xbe74f72f	-0.23922418
10	0xbc2ff8cf	-0.010740473
11	0xbe590d41	-0.21196462
12	0xbe378300	-0.17921066
13	0xbc8e132c	-0.017343126
14	0xbdbf062f	-0.09327351
15	0xbd04a557	-0.032384243

model/conv1d_16/BiasAdd/ReadVariableOp f4 [16]
0	0xbdc74939	-0.09730763
1	0xbe7522e7	-0.23939095
2	0xbea78b06	-0.32723254
3	0xbe88a750	-0.2669015
4	0xbe755b96	-0.23960719
5	0xbe27f023	-0.16400199
6	0xbea91ab2	-0.3302818
7	0xbeb6b608	-0.35685754
8	0xbe733639	-0.23751153
9	0xbe58464c	-0.21120566
10	0xbe57d094	-0.2107566
11	0xbd94911f	-0.07254242
12	0xbe82124e	-0.2540459
13	0xbdb5657f	-0.088572495
14	0xbe80fafe	-0.25191492
15	0xbe779340	-0.24177265

model/conv1d_17/BiasAdd/ReadVariableOp f4 [16]
0	0xbe56c40f	-0.20973228
1	0xbe745f4f	-0.23864482
2	0xbe6d74e2	-0.23189119
3	0xbe88ee02	-0.26744086
4	0xbe0437c1	-0.12911893
5	0xbdf383a3	-0.11890342
6	0xbe553f75	-0.20824988
7	0xbe447d73	-0.1918848
8	0xbe3b072a	-0.18264452
9	0xbe6e7e4e	-0.23290369
10	0xbe3b2186	-0.18274507
11	0xbe41a642	-0.18911079
12	0xbe8e69fd	-0.27815238
13	0xbd3ca3c7	-0.046054628
14	0xbe15acc7	-0.1461669
15	0xbe4f4873	-0.20242481

model/conv1d_18/BiasAdd/ReadVariableOp f4 [16]
0	0xbe804eeb	-0.2506021
1	0xbe54e59b	-0.20790713
2	0xbe9034f8	-0.28165412
3	0xbe99fc71	-0.3007541
4	0xbd5321fa	-0.051546074
5	0xbe9cc3af	-0.30618045
6	0xbe968eca	-0.29405814
7	0xbe942ec4	-0.2894193
8	0xbe9432ce	-0.2894501
9	0xbe89db4c	-0.26925123
10	0xbd760ca0	-0.060070634
11	0xbe358925	-0.17728098
12	0xbdf900b2	-0.12158336
13	0xbd80001d	-0.062500216
14	0xbe73c1db	-0.23804419
15	0xbe278dfb	-0.16362755

model/conv1d_19/BiasAdd/ReadVariableOp f4 [16]
0	0xbe2c40c7	-0.16821586
1	0xbe94290c	-0.28937566
2	0xbe1b4ba5	-0.15165575
3	0xbd839933	-0.06425705
4	0xbe626dfe	-0.22112271
5	0xbe666532	-0.2249954
6	0xbe906a6a	-0.28206187
7	0xbe82fca3	-0.25583372
8	0xbe8ebd54	-0.2787882
9	0xbe1811ae	-0.14850494
10	0xbe7fd002	-0.24981692
11	0xbe129eaa	-0.14318338
12	0xbe5863a9	-0.21131767
13	0xbd893bb7	-0.06700843
14	0xbe3d69cf	-0.18497394
15	0xbe21421d	-0.15747876

model/conv1d_20/BiasAdd/ReadVariableOp f4 [16]
0	0xbe155a44	-0.14585215
1	0xbdef4c10	-0.1168443
2	0x3b3c18e5	0.0028701362
3	0xbe557eab	-0.20849101
4	0xbe131dfe	-0.1436691
5	0xbdf89613	-0.121379994
6	0xbca613bd	-0.020273084
7	0xbe19732e	-0.14985344
8	0xbe2eb081	-0.17059518
9	0xbb9acf2c	-0.004724404
10	0xbdfaac56	-0.12239902
11	0xbd5182f9	-0.051150296
12	0xbdb38924	-0.08766392
13	0xbe81f9f2	-0.25386006
14	0xbd4be042	-0.049774416
15	0xbd9ca960	-0.07649493

model/conv1d_21/BiasAdd/ReadVariableOp f4 [16]
0	0xbe2a03c2	-0.16602996
1	0xbe653af4	-0.2238577
2	0xbe354358	-0.17701471
3	0xbe065664	-0.13118893
4	0xbe15fa2e	-0.14646217
5	0xbe63f42c	-0.22261113
6	0xbddba2e0	-0.10724425
7	0xbe205d52	-0.15660599
8	0xbe11b140	-0.14227772
9	0xbdd8736b	-0.10568889
10	0xbe36564a	-0.17806354
11	0xbd71995e	-0.058984153
12	0xbe4bda50	-0.19907498
13	0xbe522a7e	-0.20524022
14	0xbe1564e5	-0.1458927
15	0xbe4208b7	-0.18948637

model/conv1d_22/BiasAdd/ReadVariableOp f4 [16]
0	0xbe1e2a0b	-0.15445726
1	0xbe1bb824	-0.15206963
2	0xbe4ea503	-0.20180134
3	0xbd9dd4f2	-0.07706632
4	0xbe558d3e	-0.20854661
5	0xbe070a80	-0.13187599
6	0xbdc12f45	-0.09432844
7	0xbe2e2746	-0.17007169
8	0xbe3267ee	-0.17422459
9	0xbde33212	-0.110935345
10	0xbdd8995d	-0.10576127
11	0xbe00bb42	-0.12571433
12	0xbe0eeff8	-0.13958728
13	0xbc1b8095	-0.009491106
14	0xbe072fdb	-0.13201849
15	0xbe273a7b	-0.16330902

model/conv1d_23/BiasAdd/ReadVariableOp f4 [16]
0	0xbe1d324c	-0.15351218
1	0xbe22994b	-0.15878789
2	0xbe0ad85e	-0.135591
3	0xbe280b96	-0.1641067
4	0xbe0b8c27	-0.13627683
5	0xbdc03b73	-0.09386339
6	0xbe337194	-0.17523795
7	0xbd850f21	-0.06497026
8	0xbe591047	-0.21197616
9	0xbe412a45	-0.18863781
10	0xbe77e7bb	-0.24209492
11	0xbd938f7a	-0.072051
12	0xbe44e924	-0.19229561
13	0xbe0aefd6	-0.13568053
14	0xbdebb00b	-0.11508187
15	0xbd0f8597	-0.03503951

model/conv1d_24/BiasAdd/ReadVariableOp f4 [16]
0	0xbd9f7ce3	-0.07787492
1	0xbe33faa9	-0.17576088
2	0xbe3e7a20	-0.18601274
3	0xbe0a4437	-0.13502584
4	0xbd746fc0	-0.059676886
5	0xbdc74918	-0.097307384
6	0xbe1a63ae	-0.15077087
7	0xbde6c389	-0.11267764
8	0xbde30151	-0.110842355
9	0xbd9d0ec9	-0.07668836
10	0xbd09e83c	-0.03366874
11	0xbe1b0e13	-0.15142088
12	0xbe336596	-0.1751922
13	0xbe54ed22	-0.20793584
14	0xbe2360c6	-0.15954885
15	0xbe32017e	-0.17383382

model/conv1d_25/BiasAdd/ReadVariableOp f4 [16]
0	0xbde7d357	-0.11319607
1	0xbe1eda6c	-0.15513009
2	0xbe262eb8	-0.1622876
3	0xbe8004f5	-0.25003782
4	0xbdaee975	-0.08540622
5	0xbdcb3c0e	-0.09923564
6	0xbe479725	-0.19491251
7	0xbe1219e7	-0.14267693
8	0xbe7a4575	-0.24440558
9	0xbcc24b43	-0.023717528
10	0xbdf5c599	-0.120005794
11	0xbe59fa50	-0.21286893
12	0xbe7fbd02	-0.24974445
13	0xbdfb0db5	-0.12258474
14	0xbe16fef0	-0.14745688
15	0xbdf3460e	-0.11878596

model/conv1d_26/BiasAdd/ReadVariableOp f4 [16]
0	0xbdb5842a	-0.08863099
1	0xbe2cf155	-0.16888936
2	0xbe1fd73a	-0.15609446
3	0xbe1e2eda	-0.1544756
4	0xbe544957	-0.20731102
5	0xbdcc4272	-0.09973611
6	0xbe84030d	-0.25783578
7	0xbe770840	-0.24124241
8	0xbd54c95d	-0.051949847
9	0xbe042079	-0.12903012
10	0xbe411d5d	-0.18858857
11	0xbe8748e8	-0.2642281
12	0xbe4a968e	-0.19783995
13	0xbda70e8b	-0.08157071
14	0xbe7b8670	-0.24563003
15	0xbe2f6210	-0.17127252

model/conv1d_27/BiasAdd/ReadVariableOp f4 [16]
0	0xbe58bbac	-0.21165341
1	0xbdec9cc5	-0.11553339
2	0xbe9aade0	-0.3021078
3	0xbe1280b3	-0.14306907
4	0xbe4c18c3	-0.19931321
5	0xbdbcfe2a	-0.092281654
6	0xbe3eea26	-0.18644008
7	0xbd583770	-0.052787244
8	0xbe972a1a	-0.29524308
9	0xbe916a03	-0.28401193
10	0xbe4832cb	-0.19550626
11	0xbdc82446	-0.097725436
12	0xbe19308f	-0.1495993
13	0xbe8f2489	-0.27957562
14	0xbe429971	-0.19003846
15	0xbe87f510	-0.26554155

model/conv1d_28/BiasAdd/ReadVariableOp f4 [16]
0	0xbe02e330	-0.12781978
1	0xbe4e05a4	-0.20119339
2	0xbe305131	-0.17218472
3	0xbd872306	-0.06598477
4	0xbe6cfabd	-0.23142524
5	0xbe6c49d7	-0.23075043
6	0xbdec5d30	-0.115412116
7	0xbe55ab1d	-0.20866056
8	0xbe43f57d	-0.19136615
9	0xbe6ab782	-0.22921565
10	0xbd6792d8	-0.056536525
11	0xbdd85531	-0.10563124
12	0xbe0f1ccf	-0.13975833
13	0xbe3cb78d	-0.18429394
14	0xbe1eff49	-0.15527071
15	0xbd2635fa	-0.04057882

model/conv1d_29/BiasAdd/ReadVariableOp f4 [16]
0	0xbe642aa7	-0.22281896
1	0xbe140756	-0.14455923
2	0xbe50613f	-0.20349596
3	0xbe532d04	-0.20622641
4	0xbe460fde	-0.1934199
5	0xbe29d1b3	-0.165839
6	0xbe24e160	-0.16101599
7	0xbded6c0a	-0.115928724
8	0xbe5255ba	-0.20540515
9	0xbe5da304	-0.21644217
10	0xbe69199d	-0.22763677
11	0xbe410617	-0.1884998
12	0xbe417d26	-0.18895397
13	0xbd94fd0d	-0.07274828
14	0xbd427541	-0.047475103
15	0xbe1f193b	-0.15536968

model/conv1d_30/BiasAdd/ReadVariableOp f4 [16]
0	0xbe378e47	-0.17925368
1	0xbe0684a4	-0.13136536
2	0xbe42a24a	-0.19007221
3	0xbe6d6870	-0.23184371
4	0xbe541242	-0.2071009
5	0xbd5b80a6	-0.053589486
6	0xbd416739	-0.04721758
7	0xbe1a0f1b	-0.15044825
8	0xbe022c02	-0.127121
9	0xbd95366f	-0.07285773
10	0xbe21cf64	-0.1580177
11	0xbe33bf9c	-0.17553562
12	0xbdfec7e4	-0.1244047
13	0xbd7bab53	-0.061442684
14	0x00000000	0.0
15	0xbdc72692	-0.097241536

model/conv1d_31/BiasAdd/ReadVariableOp f4 [16]
0	0xbe94dc46	-0.29074305
1	0xbdecebf9	-0.11568446
2	0xbe4063ef	-0.18788122
3	0xbe881104	-0.26575482
4	0xbe2d4030	-0.16919017
5	0xbdc75de6	-0.097347066
6	0xbe8d65a7	-0.27616617
7	0xbe9738b2	-0.29535443
8	0xbe1a7804	-0.15084845
9	0xbe44c947	-0.19217406
10	0xbe707120	-0.23480654
11	0xbdce3c81	-0.10070134
12	0xbdde2ca7	-0.108483605
13	0xbe60c634	-0.21950608
14	0xbe608396	-0.21925196
15	0xbe76c761	-0.24099495

model/conv1d_32/BiasAdd/ReadVariableOp f4 [16]
0	0xbe393652	-0.18087128
1	0xbdf0940a	-0.11746986
2	0xbe4a79b8	-0.19772995
3	0xbe2cd656	-0.16878638
4	0xbe3d8e7e	-0.18511388
5	0xbe4dafdd	-0.20086618
6	0xbe91515f	-0.28382394
7	0xbe571296	-0.21003184
8	0xbe446656	-0.19179663
9	0xbe791417	-0.2432407
10	0xbe73cc42	-0.23808387
11	0xbe52cbf8	-0.2058562
12	0xbe1dc2dc	-0.15406364
13	0xbe74a839	-0.23892297
14	0xbd9fc3e9	-0.07801039
15	0xbea6d44f	-0.32583854

model/conv1d_33/BiasAdd/ReadVariableOp f4 [16]
0	0xbe4d19fc	-0.20029444
1	0xbe7f87d8	-0.24954164
2	0xbe1419fa	-0.14463034
3	0xbe4d9544	-0.20076472
4	0xbeb51d0b	-0.3537372
5	0xbe846184	-0.2585565
6	0xbea03bae	-0.31295532
7	0xbe3a42e9	-0.18189587
8	0xbe203382	-0.15644649
9	0xbdeb8a16	-0.11500947
10	0xbe52d968	-0.20590746
11	0xbdb9583c	-0.090500325
12	0xbe13770a	-0.14400879
13	0xbe9f50da	-0.31116372
14	0xbe92b6eb	-0.2865518
15	0xbe8aeccf	-0.27133796

model/conv1d_34/BiasAdd/ReadVariableOp f4 [16]
0	0xbe43ae59	-0.19109477
1	0xbe4db971	-0.20090272
2	0xbe83787d	-0.25677863
3	0xbe4a21ca	-0.19739452
4	0xbe4f5787	-0.20248233
5	0xbdca1ae8	-0.09868413
6	0xbe4d289c	-0.20035022
7	0xbe5f1018	-0.21783483
8	0xbe536aa5	-0.2064615
9	0xbe81cb70	-0.25350523
10	0xbe301b89	-0.17198004
11	0xbe04fc46	-0.1298686
12	0xbe529da1	-0.20567943
13	0xbe501395	-0.2031997
14	0xbeb659fa	-0.35615522
15	0xbe5fe89f	-0.21866082

model/conv1d_5/BiasAdd/ReadVariableOp f4 [16]
0	0xbd1d0a28	-0.038339764
1	0xbd8eba9f	-0.06969189
2	0xbdace311	-0.08441747
3	0xbd2ba954	-0.04190953
4	0xbdcf14f0	-0.101114154
5	0x3c0f7bda	0.008757556
6	0x3d28b3e8	0.041187197
7	0xbe2cb744	-0.16866785
8	0xbdd3cdea	-0.10342009
9	0xbe15d91b	-0.146336
10	0x3cbdb11d	0.023155743
11	0xbe1f4b77	-0.15556131
12	0xbd4da1e9	-0.050203238
13	0xbea8f7de	-0.33001608
14	0xbe343c8f	-0.17601226
15	0xbdbb5055	-0.091461815

model/conv1d_6/BiasAdd/ReadVariableOp f4 [16]
0	0xbe739ad0	-0.23789525
1	0xbea96dec	-0.33091676
2	0xbe5c54f2	-0.21516779
3	0xbe22e9d3	-0.1590951
4	0xbe7b62b8	-0.24549377
5	0xbe17ee4b	-0.14836995
6	0xbdcdd95a	-0.10051222
7	0xbdd99f9d	-0.10626147
8	0xbe80d15c	-0.2515973
9	0xbdd48971	-0.10377777
10	0xbcce2233	-0.025162792
11	0xbe01148f	-0.12605499
12	0xbd68cf91	-0.056838576
13	0xbdef1442	-0.11673786
14	0xbe9710dc	-0.2950505
15	0xbead9d98	-0.33909297

model/conv1d_7/BiasAdd/ReadVariableOp f4 [16]
0	0xbe560ded	-0.2090375
1	0xbda9e37b	-0.082953416
2	0xbe783f25	-0.24242838
3	0xbe297d18	-0.16551626
4	0xbdc93632	-0.0982479
5	0xbe0cc6da	-0.13747731
6	0xbe8dba6e	-0.27681297
7	0xbe2b21bf	-0.16712092
8	0xbe325bdc	-0.17417854
9	0xbe1a6937	-0.15079199
10	0xbe1728fd	-0.1476173
11	0xbdd43428	-0.103615105
12	0xbe34f7b5	-0.17672618
13	0xbe278d72	-0.16362551
14	0xbe801853	-0.25018558
15	0xbe195f03	-0.1497765

model/conv1d_8/BiasAdd/ReadVariableOp f4 [16]
0	0xbe1bc2e0	-0.15211058
1	0xbe1b3b94	-0.15159446
2	0xbe20eb90	-0.1571486
3	0xbd54aded	-0.05192368
4	0xbe3b2244	-0.1827479
5	0xbdff3cab	-0.12462743
6	0xbe47a963	-0.1949821
7	0xbd7c0c65	-0.061535258
8	0xbdc0a743	-0.09406903
9	0xbe512cc5	-0.20427234
10	0xbe350e5b	-0.17681257
11	0xbd0bec38	-0.034160823
12	0xbe7293f1	-0.23689248
13	0xbdd82823	-0.105545305
14	0xbe51b02d	-0.20477362
15	0xbe4ea7c6	-0.20181188

model/conv1d_9/BiasAdd/ReadVariableOp f4 [16]
0	0xbd8540c2	-0.06506492
1	0xbe8de72b	-0.2771543
2	0xbc37f25b	-0.011227216
3	0xbd648e80	-0.05579996
4	0xbd2ee662	-0.04270018
5	0xbdf7f613	-0.12107482
6	0xbe515405	-0.20442207
7	0xbe34b8b9	-0.17648591
8	0xbe3ef355	-0.18647511
9	0xbe14c7f0	-0.14529395
10	0xbe3c406c	-0.1838395
11	0xbe2d0bce	-0.16899034
12	0xbe5f98ee	-0.21835682
13	0xbe5446bd	-0.2073011
14	0xbd629d5d	-0.055325855
15	0xbe7ff1d6	-0.24994597

model/conv1d/BiasAdd/ReadVariableOp f4 [16]
0	0xbe275a41	-0.16343023
1	0xbdbfbad4	-0.093618065
2	0xbe823c4f	-0.25436637
3	0xbe5e6cf9	-0.21721257
4	0xbd7e87e7	-0.062141325
5	0xbe254795	-0.16140588
6	0xbdf59db7	-0.11992972
7	0xbecb9960	-0.39765453
8	0xbeb5e9a4	-0.35529816
9	0xbe0501d8	-0.12988985
10	0xbe593f3a	-0.21215525
11	0xbe7aede7	-0.24504815
12	0xbe2cff8e	-0.16894361
13	0xbd6a78ac	-0.057243988
14	0xbea99cd7	-0.33127472
15	0xbdf36fc7	-0.11886554

model/conv1d_1/BiasAdd/ReadVariableOp f4 [16]
0	0xbeacb5a4	-0.3373233
1	0xbd8a960e	-0.06766902
2	0xbea123b1	-0.31472543
3	0xbe7a75db	-0.24459021
4	0xbe89cff3	-0.26916465
5	0xbe60427c	-0.21900362
6	0xbea250c9	-0.3170226
7	0xbe3baa5d	-0.18326707
8	0xbe8f646a	-0.28006297
9	0xbe1f9f21	-0.15588047
10	0xbe8a72a2	-0.27040583
11	0xbe153847	-0.1457225
12	0xbe6757d1	-0.22592093
13	0xbdc11d21	-0.09429384
14	0xbdda73e3	-0.10666635
15	0xbe2bacde	-0.16765162

model/conv1d_2/BiasAdd/ReadVariableOp f4 [16]
0	0xbe71b15b	-0.23602812
1	0xbe503d5a	-0.20335904
2	0xbf132ee5	-0.5749343
3	0xbdb9562c	-0.09049639
4	0xbd07c848	-0.033149987
5	0xbe93ca95	-0.28865495
6	0xbe7b39ee	-0.24533817
7	0xbda56307	-0.080755286
8	0xbe0c08c9	-0.13675226
9	0xbe021602	-0.12703708
10	0xbe82e566	-0.25565642
11	0xbe799b68	-0.24375689
12	0xbde96593	-0.11396327
13	0xbec40e11	-0.38291982
14	0xbdf6cd58	-0.12050885
15	0xbe4df5f2	-0.20113352

model/conv1d_3/BiasAdd/ReadVariableOp f4 [16]
0	0xbe29172f	-0.1651275
1	0xbe93da43	-0.28877458
2	0xbe7a88a6	-0.2446619
3	0xbd3a89dc	-0.04554163
4	0xbe9edbf2	-0.3102718
5	0xbe2c3dfa	-0.16820517
6	0xbcdea041	-0.027176024
7	0xbde4ecc0	-0.11177969
8	0xbea2ac93	-0.3177229
9	0xbe8bd108	-0.27307916
10	0xbe711de8	-0.23546565
11	0xbe765681	-0.24056436
12	0xbe18b853	-0.14914064
13	0xbd82a3d6	-0.063789055
14	0xbeaeab34	-0.34114993
15	0xbe5ee529	-0.21767105

model/conv1d_4/BiasAdd/ReadVariableOp f4 [16]
0	0xbe4feed7	-0.20305954
1	0xbe206e27	-0.1566702
2	0xbddf41ee	-0.10901247
3	0xbe801fad	-0.25024167
4	0xbe70f5c9	-0.2353126
5	0xbeb5f910	-0.35541582
6	0xbe2c6c6a	-0.16838232
7	0xbcfc33c5	-0.030786404
8	0xbeb5fef5	-0.3554608
9	0xbeb4b2c4	-0.35292637
10	0xbdd7b970	-0.10533416
11	0xbe8869e5	-0.2664329
12	0xbe8ed417	-0.27896187
13	0xbe064a7e	-0.13114354
14	0xbe4359a2	-0.19077161
15	0xbe05446c	-0.13014382

model/conv1d_10/Conv1D f4 [16, 1, 1, 20]
0	0x3e628326	0.22120342
1	0x3c63bf45	0.013900583
2	0x3e367138	0.17816627
3	0x3ef62d30	0.4808135
4	0x3d9ebb0d	0.07750521
5	0x3e2f10a7	0.17096196
6	0xbdb0e93b	-0.08638235
7	0xbdfb28ec	-0.122636646
8	0xbe1cb80a	-0.1530458
9	0xbd13bbde	-0.036067836
10	0x3e918aea	0.28426296
11	0xbec4c3db	-0.38430676
12	0xbde33e7f	-0.110959046
13	0x3d2089fd	0.039194096
14	0x3ea01a46	0.31270045
15	0xbe48b3e8	-0.19599879
16	0xbd46696a	-0.048440374
17	0xbe4ebb37	-0.20188604
18	0xbe42f95b	-0.19040434
19	0xbe7964e0	-0.24354887
20	0xbd394099	-0.04522762
21	0x3d9877a3	0.07444694
22	0x3dde478e	0.10853492
23	0xbe29bcbd	-0.16575904
24	0x3c8de916	0.017323058
25	0x3e54b5de	0.20772502
26	0x3e49ef81	0.1972027
27	0x3dd222a9	0.10260517
28	0x3f7b2275	0.9809945
29	0x3daf74bc	0.08567187
30	0x3e84dac7	0.25948164
31	0x3e5721ae	0.21008942
32	0xbcfee617	-0.031115575
33	0x3d9082c1	0.07056189
34	0x3cde0e42	0.027106408
35	0x3ea92a14	0.33039916
36	0xbeb4da7c	-0.3532294
37	0xbea32e84	-0.31871426
38	0x3e1c2d4b	0.15251653
39	0xbd1f4c49	-0.03889111
40	0xbe36f29c	-0.17865986
41	0x3eabdad7	0.335654
42	0x3e8495d0	0.25895548
43	0xbe8ff1b8	-0.28114104
44	0x3e57a7ed	0.21060152
45	0xbe22ddcc	-0.15904921
46	0x3e180ff2	0.14849833
47	0x3e87d7f7	0.26531956
48	0xbdbe6b40	-0.092978
49	0xbe98be24	-0.29832566
50	0x3e475647	0.19466506
51	0xbe8a6040	-0.27026558
52	0xbe140b8b	-0.14457528
53	0x3e690ba0	0.22758341
54	0x3e7334bb	0.23750584
55	0xbe0bbb2c	-0.13645619
56	0x3e8a19bf	0.26972768
57	0x3e9ac65c	0.3022946
58	0xbeb057c7	-0.3444197
59	0x3d952ae5	0.07283572
60	0xbe325937	-0.17416845
61	0xbe938375	-0.2881123
62	0x3e806ff3	0.2508541
63	0x3e975378	0.2955587
64	0x3e804621	0.25053504
65	0xbe9bc05a	-0.3042019
66	0xbe523a62	-0.20530084
67	0x3e647c35	0.22313006
68	0x3d3ca09f	0.046051618
69	0x3ed77761	0.42083266
70	0x3ea35d18	0.31906962
71	0xbc25600d	-0.010093701
72	0x3da4a7b1	0.08039797
73	0x3d43fbb2	0.047847457
74	0x3ea7017f	0.3261833
75	0x3e260c45	0.16215618
76	0x3eb8850e	0.36039013
77	0xbe040a67	-0.12894593
78	0x3ec4a57b	0.38407502
79	0xbeb67434	-0.3563553
80	0xbeb2bd9a	-0.3491028
81	0x3e8605cd	0.261763
82	0xbe8d03dd	-0.2754201
83	0xbe25638b	-0.16151254
84	0xbe164363	-0.14674143
85	0x3e651fa7	0.22375356
86	0xbe10f604	-0.14156348
87	0xbc1b6db6	-0.009486606
88	0x3cca8fe8	0.024726823
89	0x3e7311c9	0.23737253
90	0xbebf8842	-0.37408644
91	0x3f0d97bf	0.5530967
92	0x3ec08934	0.37604678
93	0xbed64b04	-0.41854107
94	0x3f236dd0	0.63839436
95	0xbd09c227	-0.033632424
96	0x3dec180d	0.11528025
97	0x3ef7f394	0.48428023
98	0xbe08af25	-0.13348062
99	0xbdfb16ca	-0.12260206
100	0xbe5c1194	-0.2149108
101	0x3ebef8c0	0.37299156
102	0x3e5d0eb1	0.21587636
103	0x3e47210b	0.19446199
104	0x3f02f590	0.5115595
105	0x3e395b12	0.18101147
106	0xbe22a27e	-0.15882298
107	0x3e3aa445	0.18226726
108	0x3f1d13f0	0.6135855
109	0xbe8f6cd3	-0.28012714
110	0xbe9b0c29	-0.30282715
111	0x3e2bb784	0.16769224
112	0x3e9b00d2	0.30274063
113	0x3e2a43f3	0.16627483
114	0x3ecbca8e	0.39802974
115	0x3dd5dbe7	0.10442334
116	0xbe8dd331	-0.2770019
117	0xbd9cf797	-0.076644115
118	0x3e979ce7	0.29611894
119	0x3e281dde	0.16417643
120	0xbd95ccf2	-0.07314481
121	0xbdb703a8	-0.08936244
122	0xbea16d54	-0.31528723
123	0xbd6607d4	-0.05615981
124	0xbe17c3fb	-0.14820854
125	0xbde6fcd3	-0.11278691
126	0x3e97315c	0.29529846
127	0x3d2360ac	0.039887115
128	0xbe1095ca	-0.1411964
129	0x3d26836c	0.040652677
130	0xbd975479	-0.07389159
131	0x3dcda6cf	0.10041582
132	0xbd827060	-0.0636909
133	0x3c883dc0	0.016631007
134	0x3f4274bd	0.7595938
135	0xbe883bbe	-0.2660808
136	0x3e2128e9	0.15738262
137	0x3cae1ab0	0.02125296
138	0x3dc4d990	0.09611809
139	0x3ca32d32	0.019919012
140	0x3d5fc4f8	0.054631203
141	0xbe8a8f96	-0.27062672
142	0xbd31e13b	-0.043427687
143	0xbe53c801	-0.20681764
144	0xbd5a66d1	-0.05332071
145	0xbdba2b7e	-0.09090327
146	0x3e1a954a	0.15096012
147	0xbdae699a	-0.08516236
148	0xbe9c5e63	-0.3054076
149	0xbed8dba7	-0.4235508
150	0x3e08dd87	0.13365756
151	0x3d3c5055	0.045975048
152	0x3b07dd70	0.0020731352
153	0xbe88435d	-0.26613894
154	0x3f54f61c	0.83188033
155	0xbd8fe4ac	-0.070260376
156	0x3de983d4	0.11402097
157	0x3e8db893	0.2767988
158	0x3eb1334d	0.34609452
159	0x3c93e7bc	0.018054835
160	0xbc8d5405	-0.017251978
161	0x3e72b7a9	0.23702873
162	0xbdeb71d9	-0.11496324
163	0x3cb88c23	0.02252776
164	0x3ddbe808	0.10737616
165	0x3cd68a3f	0.026188968
166	0x3eed3bed	0.46334782
167	0x3e7ea55e	0.2486777
168	0x3ed0438a	0.40676528
169	0x3d647de2	0.055784114
170	0x3b46d18a	0.0030337297
171	0x3eec822d	0.46193066
172	0xbe854576	-0.26029557
173	0xbe22de0b	-0.15905015
174	0x3e7b39c7	0.24533759
175	0xbdb2920e	-0.08719264
176	0xbe92dd68	-0.28684545
177	0x3d271f4b	0.040801328
178	0x3e8a4fec	0.270141
179	0x3e37cdaf	0.17949556
180	0x3e81f381	0.2538109
181	0xbd5957e6	-0.053062342
182	0x3e0d0b18	0.13773763
183	0xbebc6560	-0.36796093
184	0x3e67103d	0.22564788
185	0x3f5e426a	0.8682009
186	0x3e83f235	0.25770727
187	0x3e306464	0.17225796
188	0x3f3c6a75	0.7359994
189	0xbe0de35c	-0.13856262
190	0x3d7c320b	0.061571162
191	0xbdc847af	-0.097792976
192	0x3ec19c44	0.37814534
193	0xbebaf6a2	-0.3651629
194	0x3eb553eb	0.35415587
195	0x3dfc2c94	0.1231319
196	0xbe99db2c	-0.30050027
197	0x3e291929	0.16513504
198	0x3e8ccf3d	0.2750186
199	0x3da676c5	0.08128122
200	0xbe98edc1	-0.29868892
201	0x3e10ce02	0.14141086
202	0x3ce4c3e6	0.027925443
203	0xbe633646	-0.22188672
204	0x3dd8a994	0.105792195
205	0x3e38f1a6	0.18060932
206	0x3e92dcd1	0.28684095
207	0x3ec3f9e8	0.382766
208	0xbe309383	-0.17243771
209	0x3e50b6d4	0.20382243
210	0xbe6fa5c1	-0.23403074
211	0x3dab9106	0.083772704
212	0xbb078a20	-0.0020681694
213	0xbbb0b430	-0.005392574
214	0x3e6352a3	0.22199492
215	0xbe46c04b	-0.19409291
216	0x3e3c04da	0.18361226
217	0x3e3f0c17	0.18656956
218	0xbe592225	-0.21204431
219	0x3e96d876	0.29462022
220	0x3e7678be	0.24069497
221	0x3ea5de03	0.32395944
222	0xbea87042	-0.32898146
223	0x3ea3b291	0.31972173
224	0xbe1abe6f	-0.15111707
225	0xbe0ce511	-0.13759257
226	0x3d8e41d0	0.069461465
227	0x3e6d6b6b	0.23185508
228	0xbe91f753	-0.28509006
229	0xbe3a543b	-0.18196194
230	0xbd82affa	-0.06381221
231	0xbd83c49d	-0.064339854
232	0xbe700122	-0.23437932
233	0x3f03b0f2	0.5144187
234	0x3e5f7d68	0.21825182
235	0x3dd20b34	0.10256043
236	0xbddfd482	-0.109292045
237	0xbe1176ce	-0.14205477
238	0xbcf2c4d3	-0.029634869
239	0x3ef93792	0.4867521
240	0x3f67be9a	0.9052521
241	0x3e480e6f	0.19536756
242	0x3c555b20	0.013022214
243	0xbdd18382	-0.10230161
244	0x3e51f875	0.20504935
245	0xbdbdb1ea	-0.0926245
246	0x3f0fbbbc	0.56145835
247	0xbcd3e4d1	-0.025865944
248	0xbe733e5a	-0.23754254
249	0xbe9ae761	-0.30254653
250	0x3e238917	0.15970264
251	0xbed762c2	-0.42067534
252	0x3e16b1ff	0.14716338
253	0xbdb67d39	-0.08910603
254	0x3c0690b7	0.008213214
255	0x3d2e39a0	0.042535424

model/conv1d_11/Conv1D f4 [16, 1, 3, 20]
0	0x3ea50871	0.32233003
1	0x3b810221	0.0039370214
2	0x3d865b1f	0.06560349
3	0x3b6ccd1e	0.0036133002
4	0x3ea26c98	0.31723475
5	0x3e927b11	0.28609517
6	0xbcf1004a	-0.029419083
7	0x3e7b2d81	0.24529077
8	0x3e032ebd	0.12810798
9	0x3e41f8ee	0.18942615
10	0x3d94e1f6	0.07269661
11	0x3e56dca6	0.20982608
12	0x3e46a367	0.1939827
13	0x3e23ce1a	0.1599659
14	0x3dae5bfc	0.085136384
15	0x3c0760dd	0.00826284
16	0x3e805b75	0.25069776
17	0xbc687c4b	-0.01418979
18	0x3ea1c035	0.31591955
19	0x3e37b593	0.17940359
20	0xbe950442	-0.2910481
21	0x3e2e09ce	0.16995928
22	0x3e2b4f44	0.16729456
23	0x3e2a2580	0.16615868
24	0xbb81e96e	-0.0039645946
25	0x3d925e7c	0.07146928
26	0x3b3e8272	0.002906945
27	0xbcfa8cd0	-0.030584723
28	0xbe3153ec	-0.1731717
29	0x3e6303f4	0.22169477
30	0x3d74d286	0.059771083
31	0xbe20c89a	-0.15701523
32	0x3ee3fc49	0.44528416
33	0x3e8a2fa6	0.26989478
34	0x3dcd37a4	0.10020378
35	0xbd357f89	-0.04431108
36	0x3ce7fd7a	0.02831911
37	0x3e024416	0.12721285
38	0x3e523da4	0.20531327
39	0x3e8c8d74	0.2745167
40	0xbea7ba4c	-0.3275932
41	0xbe01f41c	-0.12690777
42	0x3cf1eee4	0.029532857
43	0xbdacca9f	-0.084370844
44	0x3babd950	0.0052444115
45	0xbddb0cfd	-0.10695837
46	0xbc5af72d	-0.013364595
47	0x3e474e14	0.19463378
48	0x3e2f8aaf	0.17142747
49	0xbd0f4efb	-0.03498743
50	0x3de697b3	0.11259403
51	0xbe433f87	-0.19067203
52	0xbdacc6ab	-0.084363304
53	0x3ef71066	0.482547
54	0xbd89f9ff	-0.06737136
55	0x3d845411	0.06461347
56	0xbdeb6ce3	-0.11495378
57	0x3ec84bb5	0.3912026
58	0x3e467bbd	0.1938314
59	0xbe578239	-0.2104577
60	0xbdf1df6a	-0.11810191
61	0x3e551635	0.20809253
62	0x3e7253d2	0.23664787
63	0xbe1cbdfc	-0.15306848
64	0x3e584e2b	0.21123569
65	0xbd253030	-0.04032916
66	0xbeb65195	-0.35609117
67	0x3ea6637f	0.32497784
68	0x3e5e565d	0.21712632
69	0x3e3f8336	0.18702397
70	0x3e282788	0.1642133
71	0x3e20afb4	0.15692025
72	0xbe6f4c2e	-0.23368904
73	0x3dbe7358	0.09299344
74	0x3d850be0	0.064964056
75	0x3ee30ef5	0.4434735
76	0x3e95669d	0.2917985
77	0x3e890c2a	0.26767093
78	0xbd9b567b	-0.07584854
79	0xbd53d049	-0.051712308
80	0x3ebe07f1	0.37115434
81	0x3dd4b514	0.103861004
82	0x3e98dc76	0.29855698
83	0xbd855fc6	-0.06512408
84	0x3ea8d28c	0.32973135
85	0xbe097702	-0.13424304
86	0xbe7adc61	-0.2449813
87	0x3f255179	0.6457744
88	0x3e01c999	0.1267456
89	0x3e07c1d3	0.13257532
90	0xbe200e34	-0.15630418
91	0xbcfef37d	-0.031121964
92	0x3df682a4	0.120366365
93	0xbe472c3d	-0.1945047
94	0x3e3f87d8	0.18704164
95	0x3e8158ba	0.25263005
96	0xbd4e8a76	-0.050425015
97	0xbd6ff9e9	-0.058587942
98	0x3de2aa16	0.110675976
99	0xbe954b45	-0.2915899
100	0x3df2979c	0.118453234
101	0xbdee0d25	-0.11623601
102	0xbebb6b16	-0.36605138
103	0x3dabee45	0.08395056
104	0x3e7ee986	0.2489377
105	0xbd2658fa	-0.0406122
106	0x3e044888	0.12918293
107	0xbe0bc3b5	-0.13648875
108	0xbd3df858	-0.046379417
109	0x3f12d167	0.5735077
110	0x3ef9502f	0.48693988
111	0xbe6200c2	-0.22070602
112	0x3ed13110	0.40857744
113	0xbcd938e7	-0.026516391
114	0x3c8518f7	0.016247256
115	0xbdb52048	-0.08844048
116	0x3f1014b9	0.5628162
117	0x3d71b915	0.0590144
118	0xbd5a70cd	-0.05333023
119	0x3e9f6463	0.31131276
120	0x3c46b256	0.01212748
121	0xbdd56c80	-0.10421085
122	0xbd811859	-0.06303472
123	0xbe15b0ba	-0.14618197
124	0xbdcfc2df	-0.101445906
125	0x3d984065	0.07434157
126	0xbd966f52	-0.073454514
127	0x3d466dde	0.04844462
128	0x3e3d143c	0.1846475
129	0x3e7c9551	0.24666335
130	0xbd4f6217	-0.050630655
131	0xbe17835a	-0.147962
132	0xbe5fc50c	-0.21852511
133	0x3d141751	0.03615505
134	0xbd025b58	-0.031825393
135	0x3de5fb1c	0.11229536
136	0x3e9f1841	0.31073192
137	0x3d86aa46	0.06575446
138	0xbc4d88d5	-0.01254483
139	0x3cd27efc	0.025695316
140	0x3e1502e4	0.14551884
141	0xbded6fb7	-0.115935735
142	0x3e97c75c	0.29644287
143	0x3c985b06	0.01859809
144	0xbd95fbe3	-0.07323434
145	0x3de72c3c	0.11287734
146	0xbd8bcd37	-0.06826251
147	0x3de1f8af	0.11033761
148	0xbe0e0b8b	-0.13871591
149	0x3e457221	0.19281818
150	0x3766bebe	1.3753479e-05
151	0x3e99b262	0.30018908
152	0xbdf5756b	-0.11985286
153	0x3e81324f	0.25233695
154	0x3e9cfe57	0.30662796
155	0xbe08ae3d	-0.13347717
156	0x3dfcd6a0	0.12345624
157	0x3de7c1dd	0.11316273
158	0x3de42cb6	0.111413404
159	0x3e16a2be	0.14710519
160	0x3e1def80	0.15423393
161	0x3e4fec79	0.20305051
162	0x3e6fbc5f	0.23411702
163	0xbe16c390	-0.14723039
164	0xbca6fa07	-0.020382894
165	0x3e5db040	0.21649265
166	0xbe16b166	-0.1471611
167	0xbcf2dcfb	-0.029646387
168	0xbdd6ba0e	-0.10484706
169	0x3d3384c2	0.04382778
170	0xbc729606	-0.014806276
171	0xbd328d5c	-0.043591842
172	0xbe6db8a5	-0.23214968
173	0x3e23dddd	0.16002603
174	0xbdd7f0c8	-0.10543972
175	0xbe3a8664	-0.18215328
176	0xbe56bf7e	-0.20971486
177	0x3d2bbd14	0.041928366
178	0xbd39d7c3	-0.045371782
179	0x3e4b6853	0.19864015
180	0x3dadbd76	0.084834024
181	0x3e6757a3	0.22592025
182	0xbd829336	-0.063757345
183	0x3e81e447	0.25369474
184	0x3e974012	0.2954107
185	0xbe28dc20	-0.16490221
186	0xbe764df3	-0.24053173
187	0x3e3a4605	0.18190773
188	0x3c030f94	0.00799932
189	0xbd54f83a	-0.05199454
190	0x3a53293c	0.00080551556
191	0x3cdb2360	0.026750267
192	0xbde9bc05	-0.11412815
193	0x3df1ecf0	0.1181277
194	0xbe232f6c	-0.15936059
195	0xbd8f7243	-0.070042156
196	0xbe1dcbb6	-0.15409741
197	0x3e088b8b	0.13334481
198	0xbe3d9684	-0.18514448
199	0xbdc0f357	-0.094214134
200	0xbe0cab4c	-0.1373722
201	0x3e5a94ef	0.21345876
202	0x3dad6e7a	0.08468337
203	0x3e9521f7	0.29127476
204	0x3e962034	0.29321444
205	0xbdeab320	-0.11459947
206	0xbc2b6e01	-0.010463239
207	0x3dec6906	0.11543469
208	0x3e7e0c4e	0.24809381
209	0x3e3a24a7	0.18178044
210	0xbd59939e	-0.053119294
211	0x3dc47f31	0.09594572
212	0x3e46ac37	0.19401632
213	0xbd51ebb6	-0.051250182
214	0x3eb4a683	0.35283288
215	0xbdd77daa	-0.105220154
216	0x3e8859ef	0.26631114
217	0x3dffc7d7	0.12489288
218	0x3dcafbbd	0.099112965
219	0x3d6a5516	0.05721005
220	0xbb817bdf	-0.003951534
221	0x3e3fc67e	0.18728063
222	0x3e2c9b10	0.16856027
223	0x3e547b0d	0.20750065
224	0x3ea0e9bf	0.31428334
225	0xbdd10f2c	-0.10207972
226	0xbe06e314	-0.13172561
227	0xbe09a65f	-0.13442372
228	0xbe428f80	-0.19000053
229	0x3dc8426f	0.09778296
230	0x3d17b912	0.03704173
231	0x3e335e67	0.1751648
232	0x3d7cf65a	0.061758377
233	0x3e800313	0.25002345
234	0x3e38f575	0.18062384
235	0x3e24eca0	0.1610589
236	0x3e2030ba	0.15643588
237	0xbe38b38a	-0.18037239
238	0x3b9b53a1	0.004740194
239	0x3eafdac5	0.34346595
240	0xbe041321	-0.12897922
241	0x3e427b32	0.18992308
242	0x3eebfae1	0.46089843
243	0x3ef2b48d	0.47403374
244	0x3d6c77b3	0.05773134
245	0xbda9645e	-0.08271097
246	0x3d65ee26	0.05613532
247	0x3e418a7d	0.18900485
248	0x3e127190	0.14301133
249	0x3c385307	0.011250264
250	0x3c71b6b4	0.0147530325
251	0x3e1e79ed	0.15476198
252	0x3be3a636	0.006947304
253	0x3e317c9d	0.17332692
254	0x3deef185	0.1166716
255	0xbe618ce0	-0.22026396

model/conv1d_12/Conv1D f4 [16, 1, 5, 20]
0	0x3cfd70c9	0.03093757
1	0x3e864794	0.26226485
2	0xbd4ae984	-0.049539104
3	0x3e1e235b	0.15443175
4	0xbdfc4e17	-0.12319582
5	0x3e05d5b3	0.13069801
6	0xbc97c008	-0.018524185
7	0xbce98e18	-0.028510138
8	0x3e963676	0.29338425
9	0xbc23985a	-0.009985054
10	0x3e25692c	0.16153401
11	0x3d39ffc6	0.04540994
12	0x3ea6669f	0.3250017
13	0x3eadee35	0.339708
14	0xbd881ff4	-0.066467196
15	0xbe6c638b	-0.23084848
16	0xbe22daf6	-0.1590384
17	0x3f2ebe92	0.6825954
18	0x3eb6427d	0.35597602
19	0xbcc50b32	-0.02405319
20	0xbce429cf	-0.027851967
21	0x3ef2fff5	0.47460905
22	0xbb3a7569	-0.002845133
23	0x3e63f6f9	0.22262181
24	0x3e372f27	0.17889081
25	0x3ed2e458	0.41189837
26	0x3ebd9b89	0.37032726
27	0x3d340f7b	0.043960076
28	0x3d5c4070	0.05377239
29	0x3d22a963	0.03971232
30	0x3c489783	0.012243154
31	0x3eca2802	0.3948365
32	0xbdeddd68	-0.116144955
33	0xbd859e18	-0.065242946
34	0x3e5cdbce	0.21568224
35	0xbe196b87	-0.14982425
36	0xbe978526	-0.29593772
37	0xbb3fc2a1	-0.0029260295
38	0x3d80a216	0.062809154
39	0xbbe738cf	-0.0070563327
40	0x3ddc75ef	0.107646815
41	0x3e37f374	0.17963964
42	0xbda1766b	-0.078839146
43	0xbe433ee8	-0.19066966
44	0x3f1e4bbc	0.6183431
45	0x3a003b05	0.0004891607
46	0x3d3b25e7	0.045690443
47	0x3d242efe	0.040083878
48	0x3d398fb5	0.045303065
49	0x3dcb3703	0.09922602
50	0x3eae383a	0.34027272
51	0xbd31ab2e	-0.04337614
52	0x3ebc2e35	0.36754003
53	0x3ebd3362	0.36953264
54	0x3ee58836	0.44830483
55	0xbcca9a44	-0.024731763
56	0x3f2461cb	0.6421172
57	0x3e643dfc	0.2228927
58	0x3e34bfcd	0.17651291
59	0x3ead3b54	0.33834326
60	0xbc98ddce	-0.018660452
61	0x3ebab6c6	0.3646757
62	0xbde757cf	-0.11296045
63	0x3da26b82	0.07930662
64	0x3e5b17d1	0.21395804
65	0x3d9156a9	0.07096607
66	0x3e7e975a	0.24862424
67	0xbd929c13	-0.07158675
68	0x3e3adca7	0.18248235
69	0x3e0ae264	0.13562924
70	0x3dac15f4	0.08402625
71	0x3f19f524	0.6013968
72	0x3e8e8e6f	0.27843043
73	0x3ddd5d36	0.10808794
74	0x3f01646f	0.50543875
75	0xbda98e40	-0.08279085
76	0xbd9b3395	-0.07578198
77	0x3dccc785	0.09998993
78	0x3dd50634	0.10401574
79	0x3e66b9d8	0.22531831
80	0xbe10943c	-0.14119047
81	0x3d520c7f	0.05128145
82	0xbe9934cd	-0.29923096
83	0xbe988c06	-0.2979433
84	0x3df058c7	0.11735683
85	0xbd8a51a4	-0.06753853
86	0xbe875844	-0.2643453
87	0x3e1a4de6	0.15068778
88	0xbe06ad47	-0.13152038
89	0xbd3f0b8f	-0.046641883
90	0x3d96a222	0.07355143
91	0xbe65b6b4	-0.22432977
92	0xbe558a26	-0.2085348
93	0x3e650379	0.22364606
94	0xbe153b48	-0.14573395
95	0xbeb31a25	-0.34980884
96	0xbe8c82b4	-0.2744347
97	0x3e839bb4	0.2570473
98	0x3e59957d	0.21248432
99	0x3e1b0260	0.15137625
100	0x3e00666d	0.12539072
101	0x3d835bf7	0.06414025
102	0xbbdcb83c	-0.0067358296
103	0x3d324b94	0.04352911
104	0xbd76282d	-0.06009691
105	0x3e0d4406	0.1379548
106	0xbdc139dc	-0.09434864
107	0xbdff38ea	-0.12462027
108	0xbda98652	-0.08277573
109	0xbc49a222	-0.012306722
110	0x3c805ae2	0.015668336
111	0xbdbbd58e	-0.09171592
112	0x3dc2e506	0.09516339
113	0xbd046acc	-0.032328412
114	0x3e12d6ce	0.14339754
115	0x3e1ddc6b	0.15416114
116	0x3e0e6173	0.13904361
117	0x39ddee82	0.00042330107
118	0x3d805130	0.06265485
119	0x3e27a5ab	0.16371791
120	0x3d73d939	0.05953333
121	0xbcfcfd72	-0.03088257
122	0x3da9d532	0.08292617
123	0x3e1fc0d4	0.15600902
124	0x3e5ac839	0.21365441
125	0x3dd0abc9	0.101890154
126	0xbe118013	-0.14209013
127	0x3e2d4b31	0.16923214
128	0xbd499d94	-0.049222544
129	0xbd144864	-0.03620185
130	0x3d9856eb	0.07438453
131	0xbd41ca94	-0.047312334
132	0x3d2c714d	0.04210024
133	0x3d50e59e	0.05100023
134	0xbc86ca00	-0.016453743
135	0xbd95ca8d	-0.07314024
136	0x3e10c418	0.14137304
137	0xbdb1f642	-0.08689548
138	0xbd7785f0	-0.060430467
139	0xbcbecbbc	-0.023290507
140	0x3dd79bca	0.10527761
141	0x3e25bf8c	0.1618635
142	0xbcec2472	-0.028825972
143	0x3c9b6194	0.018967427
144	0x3d86e051	0.06585754
145	0xb91027be	-0.00013747715
146	0x3e22c1b5	0.15894206
147	0xbd32c2f6	-0.04364296
148	0xbc85f0dc	-0.016350202
149	0x3d445cd8	0.047940105
150	0x3de26ce9	0.11055929
151	0xbc768529	-0.015046396
152	0x3d92ae49	0.071621485
153	0xbe15b8b9	-0.14621247
154	0x3db7cacb	0.089742266
155	0xbd9f1b5d	-0.07768891
156	0xbddfb8f4	-0.10923949
157	0x3de6653c	0.11249778
158	0xbb5498bb	-0.0032439667
159	0x3cefd944	0.029278405
160	0x3d54bcdb	0.05193792
161	0x3e58af8b	0.21160714
162	0x3e75dac9	0.24009241
163	0xbda135f7	-0.07871621
164	0x3e40c6a5	0.18825777
165	0x3e0bce2a	0.13652864
166	0x3dbb4950	0.091448426
167	0xbd5665e2	-0.052343257
168	0x3df73218	0.120701015
169	0x3e6c61cf	0.23084186
170	0x3da1d14f	0.079012506
171	0xbcf19653	-0.029490625
172	0xbbce9835	-0.0063047656
173	0xbd5b4ff3	-0.053543042
174	0xbe150c25	-0.14555414
175	0xbdc3282e	-0.09529148
176	0x3dd0bc30	0.10192144
177	0x3e598cda	0.21245137
178	0x3bf59b5b	0.0074953265
179	0x3d9ae49d	0.07563136
180	0x3e378b62	0.17924264
181	0x3db6e0a9	0.08929569
182	0xbdd66616	-0.1046869
183	0x3e107786	0.14108095
184	0xbde7771e	-0.11302017
185	0xbac18d14	-0.0014766776
186	0xbe09970c	-0.13436526
187	0x3e0b5a77	0.13608728
188	0xbd6829be	-0.056680433
189	0x3e553bdb	0.20823614
190	0x3d4a1fbc	0.04934667
191	0xbdda12d9	-0.10648126
192	0x3e314dbd	0.17314811
193	0x3e1470aa	0.14496103
194	0x3db45bb0	0.088065505
195	0x3d87fa11	0.06639493
196	0x3cbf08f1	0.023319693
197	0x3e3f7f34	0.18700868
198	0x3dad962a	0.08475907
199	0xbba95a4e	-0.005168236
200	0x3da8a08e	0.082337484
201	0x3f0f04eb	0.5586688
202	0x3df5ea65	0.12007598
203	0xbdeb8363	-0.114996694
204	0xbcd1778a	-0.025569696
205	0xbe1406ca	-0.14455715
206	0x3e7562a6	0.23963413
207	0xbd997242	-0.07492496
208	0x3ead4b08	0.33846307
209	0xbe038946	-0.12845334
210	0xbd0e119c	-0.034684762
211	0x3e2c9ad4	0.16855937
212	0x3c13ee24	0.009028945
213	0xbdf2fc7d	-0.118645646
214	0xbc111479	-0.008854979
215	0x3f010450	0.50397205
216	0x3ea31226	0.31849784
217	0x3e589ecc	0.21154326
218	0x3d257369	0.040393267
219	0x3e55d03f	0.20880221
220	0x3e688138	0.22705543
221	0x3e79b961	0.24387123
222	0x3f275485	0.6536334
223	0x3e5f3adf	0.21799801
224	0x3eadb962	0.33930498
225	0xbe242dad	-0.16033049
226	0x3d5dc919	0.05414686
227	0x3cc86564	0.02446241
228	0x3f216889	0.63050133
229	0x3db6553d	0.08902977
230	0xbd1660d3	-0.036713433
231	0x3d36708a	0.04454092
232	0xbccd808c	-0.02508571
233	0x3e6af907	0.22946559
234	0x3da39758	0.07987851
235	0x3e59fd4c	0.21288031
236	0x3e167095	0.14691384
237	0x3e648ea5	0.2232004
238	0x3d2c5f3e	0.042083018
239	0x3e10f2be	0.14155099
240	0x3f235701	0.6380463
241	0xbde88bc2	-0.11354782
242	0x3e1b03c3	0.15138154
243	0x3e465c5c	0.1937117
244	0x3ed1f8ce	0.41010135
245	0x3d449993	0.047998022
246	0xbd9b1906	-0.07573132
247	0x3ef9aa3b	0.48762688
248	0x3d858d4c	0.06521091
249	0xbd42659e	-0.04746019
250	0xbe042993	-0.12906484
251	0x3e16f2f6	0.1474112
252	0x3e13bd15	0.14427598
253	0x3de029c5	0.10945467
254	0x3c1266fd	0.008935687
255	0x3edaf84e	0.42767566

model/conv1d_13/Conv1D f4 [16, 1, 7, 20]
0	0x3e840baa	0.2579015
1	0x3dbcd598	0.09220427
2	0x3eb1ea42	0.34749037
3	0x3e0c9876	0.13730034
4	0x3e0c4ad5	0.13700421
5	0x3d78e824	0.06076826
6	0x3d343e17	0.044004526
7	0x3e80601b	0.25073323
8	0xbc7838c9	-0.015150257
9	0xbd74d9b5	-0.059777934
10	0xbe3672ed	-0.17817278
11	0x3e16c7f5	0.14724715
12	0xbf07d65d	-0.5306147
13	0x3d15e042	0.036590822
14	0x3e932425	0.28738514
15	0x3f0efa1b	0.5585038
16	0x3eee0cf6	0.46494263
17	0x3d8b0035	0.06787149
18	0x3d7c7862	0.061638243
19	0xbd924a0c	-0.071430296
20	0x3e130836	0.14358601
21	0x3c2472ea	0.010037163
22	0xbceffa44	-0.02929414
23	0x3b7d4389	0.003864499
24	0x3e893f2f	0.26806018
25	0xbe9f0eb8	-0.31065917
26	0xbd9679e7	-0.0734747
27	0x3e834f8d	0.2564663
28	0x3cc46873	0.023975587
29	0x3e1ff2e3	0.15619998
30	0x3e1e6294	0.15467292
31	0xbde8c4f1	-0.113656886
32	0x3d1b6d3e	0.03794598
33	0x3e56acb6	0.20964321
34	0x3e8c9acc	0.2746185
35	0x3e3d8f1b	0.18511622
36	0x3f05c446	0.52252614
37	0xbdc8f179	-0.09811682
38	0xbd335838	-0.043785304
39	0xbd6987f5	-0.057014424
40	0x3f27d0eb	0.6555316
41	0xbe9db3bf	-0.30801198
42	0xbdc48d8d	-0.09597311
43	0x3e2be318	0.16785848
44	0x3dcff30e	0.10153781
45	0x3ee4d4b4	0.4469353
46	0x3e4b1f86	0.19836244
47	0xbd3cdaab	-0.046106976
48	0xbe7ed279	-0.24884976
49	0x3cb40d6b	0.021979054
50	0xbd81bd6c	-0.063349575
51	0x3e0ef22c	0.13959569
52	0x3d250f5c	0.04029785
53	0xbddebc69	-0.1087578
54	0x3ede4fef	0.4342036
55	0x3ee761c4	0.45191777
56	0x3dabbd3e	0.083857045
57	0x3e07656c	0.13222283
58	0xbcbf2889	-0.023334758
59	0xbdd58375	-0.10425464
60	0x3e81805d	0.25293246
61	0xbb3e86ca	-0.002907204
62	0xbd3468a1	-0.044045094
63	0x3df2568a	0.11832912
64	0x3d8cf656	0.06882922
65	0xbdf1a6ac	-0.11799368
66	0xbe0440cf	-0.12915348
67	0x3eea9e3b	0.45823845
68	0xbdf574b2	-0.119851485
69	0xbe06120e	-0.13092825
70	0xbd9496e5	-0.07255343
71	0x3b150bdb	0.0022742662
72	0xbc028587	-0.007966406
73	0x3de30d77	0.110865526
74	0x3e8bc577	0.2729909
75	0x3e88ba01	0.2670441
76	0xbd4feb0b	-0.050761264
77	0x3e41bf5c	0.18920654
78	0x3d1cb7b4	0.03826113
79	0xbd0ed4fa	-0.03487108
80	0x3e4bd66f	0.19906019
81	0x3c9ac57b	0.018892994
82	0xbdd58612	-0.104259625
83	0xbe38a13e	-0.18030259
84	0x3e1f4cf7	0.15556704
85	0xbb99c804	-0.004693033
86	0xbe0b9ee3	-0.13634829
87	0x3e07a3b8	0.13246047
88	0x3dee9c9f	0.11650967
89	0x3e57472c	0.21023244
90	0xbc66cdb0	-0.014087126
91	0x3e0de5e0	0.13857222
92	0x3e597de1	0.21239425
93	0x3eea6343	0.45778856
94	0x3de013cb	0.10941275
95	0xbe2fcbe8	-0.17167628
96	0xbe0cbd62	-0.13744119
97	0x3eb1dfb5	0.34740987
98	0x3e807ffc	0.25097644
99	0x3ea7c89d	0.32770243
100	0xbc5d2ffe	-0.013500212
101	0x3f013eb8	0.50486326
102	0xbdc10fd8	-0.0942685
103	0xbe54d8a8	-0.20785773
104	0xbddd3f5c	-0.108031005
105	0x3e0d5d1d	0.13805051
106	0x3ed89cb8	0.42307067
107	0x3d0daa8c	0.034586474
108	0x3f8375d9	1.0270339
109	0x3db040a7	0.086060815
110	0xbda2f299	-0.07956428
111	0x3eea4e96	0.4576308
112	0x3d927f14	0.071531445
113	0x3eb3140b	0.3497623
114	0x3e7137e4	0.23556477
115	0xbe0d9e97	-0.13830028
116	0xbe9d89fc	-0.30769336
117	0x3eb12eac	0.3460592
118	0x3f0b611d	0.5444506
119	0xbd930b8c	-0.07179937
120	0x3e23a826	0.15982112
121	0xbeafedd9	-0.3436115
122	0x3e142946	0.1446887
123	0x3f07cbcd	0.5304535
124	0x3b588176	0.003303615
125	0xbe94bb1b	-0.29049
126	0xbd7c87e8	-0.061653048
127	0xbe73e627	-0.23818265
128	0xbdd1f4a5	-0.1025174
129	0x3a8aab53	0.0010579623
130	0xbc5b905c	-0.013401117
131	0xbecdf11c	-0.40223014
132	0x3d6ad9bf	0.057336565
133	0x3e2d7153	0.16937761
134	0xbeaf8251	-0.3427911
135	0xbc35744c	-0.011075091
136	0x3e342eed	0.17596026
137	0x3cd6e839	0.02623378
138	0xbe392ae3	-0.18082766
139	0xbd02a0fd	-0.03189181
140	0x3df2d1cf	0.11856424
141	0xbe095ca9	-0.13414253
142	0x3dc8ca2a	0.09804185
143	0x3dda88b6	0.10670607
144	0x3d998455	0.074959435
145	0xbc7cce76	-0.0154300835
146	0x3d27bb28	0.04094997
147	0x3e705983	0.23471646
148	0xbd796f51	-0.060897175
149	0xbd1318b9	-0.03591225
150	0xbcd3e179	-0.02586435
151	0xbd388661	-0.04505003
152	0xbcc96d7f	-0.024588345
153	0x3de02785	0.10945038
154	0x3e1d5203	0.15363316
155	0x3e05f829	0.13082947
156	0x3c06d591	0.008229629
157	0xbc189a59	-0.009314143
158	0xbd7db4dc	-0.06194006
159	0xbd8430fa	-0.06454654
160	0x3dfc25c6	0.12311892
161	0xbdaf5abe	-0.085622296
162	0x3ee50ce3	0.44736394
163	0x3ec1f381	0.3788109
164	0x3e5a69d5	0.21329434
165	0x3e8b8a4e	0.27253956
166	0x3eabc80d	0.33551064
167	0x3e948974	0.29011118
168	0x3e89d1a9	0.2691777
169	0x3d8e90b0	0.06961191
170	0x3d1bc566	0.03803005
171	0x3d2dde9f	0.042448636
172	0x3df38c4f	0.11891996
173	0xbd57bda1	-0.05267108
174	0x3ea5b2f8	0.32363105
175	0x3c8f6070	0.01750204
176	0x3d9824a1	0.074288614
177	0xbd433e4a	-0.047666825
178	0x3b67a903	0.0035348542
179	0x3e25c719	0.16189231
180	0xbe61fbb0	-0.22068667
181	0x3d334c7e	0.04377412
182	0x3d5c881a	0.053840734
183	0xbd74c901	-0.059762005
184	0x3db5b553	0.088724755
185	0xbd46f9d1	-0.048578087
186	0xbd31aec6	-0.043379568
187	0x3e30b4dd	0.17256494
188	0xbd0b17ed	-0.033958364
189	0xbe153f52	-0.14574936
190	0xbdd8ba32	-0.10582389
191	0xbd47dd0d	-0.048794795
192	0xbe16180e	-0.14657614
193	0xbc075a58	-0.008261286
194	0x3db2336f	0.087012164
195	0xbe6b41a8	-0.22974265
196	0xbdd350ac	-0.10318121
197	0xbd4ed8ce	-0.05049973
198	0x3de68c44	0.11257222
199	0xbd0ce509	-0.034398112
200	0x3e0dd7f5	0.13851912
201	0xbd027433	-0.031849097
202	0x3da0ae22	0.07845713
203	0x3cfcf246	0.030877244
204	0x3e6bd5c1	0.2303076
205	0x3d95e542	0.07319118
206	0x3e165ab2	0.14683035
207	0x3d055ce6	0.032559298
208	0xbd4ea926	-0.05045428
209	0xbbe7a5a8	-0.0070693083
210	0x3e4826bf	0.1954603
211	0xbcb07cb5	-0.02154384
212	0x3df6d089	0.12051494
213	0xbcece498	-0.028917596
214	0x3e609230	0.21930766
215	0x3e7408e5	0.23831518
216	0x3cd3c57a	0.025851
217	0x3df893b7	0.12137549
218	0xba9f9c83	-0.0012177381
219	0x3db968ac	0.09053168
220	0x3e2913f0	0.16511512
221	0x3e6978fa	0.22800055
222	0x3eab40f3	0.3344799
223	0x3de3b124	0.11117771
224	0x3eda4675	0.4263188
225	0x3e92764d	0.2860588
226	0x3ea4c82c	0.3218397
227	0x3e1c3b94	0.15257102
228	0x3e0baef8	0.13640964
229	0xbc3e5673	-0.011617291
230	0x3da41379	0.080115266
231	0x3e670d12	0.2256358
232	0x3e1938d0	0.14963078
233	0x3e840c7d	0.25790778
234	0x3e59ebdc	0.2128138
235	0x3db64d55	0.08901469
236	0x3da63f81	0.08117581
237	0x3df414e6	0.119180486
238	0x3e89a5c2	0.26884276
239	0x3e19f1ba	0.15033618
240	0x3e0d1b53	0.13779955
241	0xbd1ee40f	-0.038791712
242	0x3e1a4066	0.15063629
243	0xbc687340	-0.014187634
244	0x3e123da8	0.14281332
245	0x3c2965e9	0.010339239
246	0x3cb06b57	0.021535559
247	0x3da77ccf	0.08178102
248	0xbd836a2b	-0.06416734
249	0x3e95d208	0.29261804
250	0x3e15c9ac	0.14627713
251	0xbc9ab7da	-0.018886495
252	0x3dc84d80	0.09780407
253	0x3e5db759	0.21651973
254	0x3d37287b	0.04471634
255	0x3dd64643	0.1046262

model/conv1d_14/Conv1D f4 [16, 1, 9, 20]
0	0xbd79ad77	-0.060956445
1	0xbd5a95db	-0.05336557
2	0x3e245220	0.16046953
3	0x3daff67c	0.08591935
4	0x3de7266e	0.11286627
5	0xbd7c2ed8	-0.06156811
6	0xbd854545	-0.06507353
7	0x3da696ea	0.08134253
8	0xbcddbbb0	-0.027067035
9	0x3e06ad49	0.1315204
10	0xbd5d3e7b	-0.054014664
11	0x3cc821fc	0.024430268
12	0x3dd79d81	0.10528088
13	0x3cc6dbfe	0.024274822
14	0x3e1f00b5	0.15527613
15	0xbd6118bc	-0.05495523
16	0xbdc5125a	-0.09622641
17	0xbd0a7aff	-0.033808704
18	0x3c510ea8	0.012759842
19	0x3e0333f1	0.12812783
20	0x3d4be546	0.0497792
21	0xbda3d6e9	-0.07999975
22	0xbc91de5a	-0.01780622
23	0xbd59e536	-0.05319711
24	0xbaa0a029	-0.0012254763
25	0x3dc0962e	0.094036445
26	0xbd8d5ec5	-0.069028415
27	0x3c86a112	0.016434226
28	0x3d6c1889	0.057640586
29	0x3d42f15c	0.04759346
30	0x3de36d87	0.11104875
31	0xbcefe2d8	-0.029282972
32	0x3e190cd4	0.149463
33	0xbd1ce35b	-0.03830276
34	0x3d65b0f5	0.056076963
35	0xbd8ddbbd	-0.069266774
36	0x3e1ce534	0.15321809
37	0xbd9ee32b	-0.077581726
38	0xbc984302	-0.01858664
39	0x3e03184f	0.12802242
40	0x3e00655d	0.12538667
41	0xbd40c843	-0.047065984
42	0xbdf846a2	-0.12122847
43	0x3da90575	0.08252994
44	0xbd45c334	-0.048281863
45	0x3d1818cd	0.037133027
46	0xbd9ee0f3	-0.077577494
47	0x3ce0e024	0.027450629
48	0xbd68db9a	-0.056850053
49	0xbc5f2804	-0.01362038
50	0xbd7ed090	-0.06221062
51	0xbd556bf5	-0.05210491
52	0xbd7f9061	-0.06239355
53	0xbd99e9be	-0.07515286
54	0xbc8a10c7	-0.016853703
55	0x3dc17beb	0.094474636
56	0xbd4adafc	-0.049525246
57	0xbb553620	-0.0032533482
58	0xbc404cfe	-0.011737106
59	0x3d40baca	0.047053136
60	0xbd777d82	-0.060422428
61	0x3d2aaa1e	0.041666143
62	0x3ce50a04	0.027958877
63	0x3d38d6bd	0.045126665
64	0x3e38f922	0.18063787
65	0xbd95790c	-0.072984785
66	0x3dc49d28	0.09600288
67	0x3d8d3679	0.068951555
68	0x3e142a57	0.14469276
69	0xbc9ed752	-0.019389782
70	0xbdb97187	-0.09054857
71	0xbdbd60b7	-0.092469625
72	0x3cf7ff3c	0.030273072
73	0x3dfd4aa3	0.123677514
74	0xbd018964	-0.031625167
75	0x3de2b24f	0.11069166
76	0x3e288984	0.16458708
77	0x3e1aa9e4	0.1510387
78	0x3df220bf	0.11822652
79	0xbcb77b78	-0.022397742
80	0x3c939c7f	0.01801896
81	0x3e09f8a2	0.13473752
82	0xbdc9b664	-0.098492414
83	0x3d3e3cc3	0.046444666
84	0xbd7ac3e9	-0.06122199
85	0xbd7fd036	-0.062454425
86	0x3c8608f1	0.016361685
87	0x3e09624e	0.13416407
88	0xbce53c32	-0.027982805
89	0x3d867e88	0.06567103
90	0x3dca74da	0.09885569
91	0xbdae1a2e	-0.08501087
92	0x3d009b5c	0.031398162
93	0xbdd8f34b	-0.105932795
94	0x3df90ad8	0.121602714
95	0x3dd20872	0.10255517
96	0x3c50c37e	0.0127419215
97	0x3d8180da	0.063234046
98	0x3b11bb7f	0.0022237
99	0x3db974f1	0.09055508
100	0x3ca26053	0.019821322
101	0xbc849d49	-0.01618828
102	0xbe087fd2	-0.1333001
103	0x3ddcc797	0.10780256
104	0xbd8de81f	-0.06929039
105	0x3dfc53a5	0.123206414
106	0xbcfcd78a	-0.030864496
107	0xbc4053cc	-0.011738729
108	0x3d81515a	0.06314345
109	0x3d956daf	0.07296311
110	0xbd31c225	-0.04339804
111	0x3c7dc3ad	0.015488547
112	0x3dabddb6	0.083918974
113	0x3ca56677	0.02019046
114	0xbd9f0b65	-0.07765845
115	0xbd84ce31	-0.064846404
116	0x3d1d93eb	0.038471144
117	0x3d4b162f	0.049581703
118	0x3d435151	0.04768497
119	0x3d1986d2	0.03748209
120	0xbdf2704b	-0.118378244
121	0x3df35b00	0.11882591
122	0x3cbe8c41	0.023260238
123	0x3cc032b3	0.023461675
124	0x3e0786aa	0.13234964
125	0x3d05f2a0	0.03270209
126	0xbd1bbaf9	-0.038020108
127	0x3d3c6d5d	0.046002734
128	0x3da7e87f	0.08198642
129	0x3dbe28e5	0.09285144
130	0xbd808852	-0.06276001
131	0x3cab6d5e	0.020926174
132	0xbd336927	-0.043801453
133	0xbc5515b8	-0.013005666
134	0x3e0f990f	0.14023231
135	0x3bc35947	0.0059615704
136	0xbcb700ee	-0.02233931
137	0xbd81f9f6	-0.063465044
138	0xbcca0687	-0.024661316
139	0x3c238766	0.009981012
140	0x3cd43fdf	0.025909362
141	0x3c2e6d1b	0.01064613
142	0xbb7f4554	-0.0038951235
143	0x3d9a3dd5	0.07531325
144	0x3c03da70	0.008047685
145	0xbde28c84	-0.110619575
146	0xbdc33c8c	-0.09533033
147	0x3e1602df	0.14649533
148	0x3e1dc4ad	0.15407057
149	0x3d754156	0.059876762
150	0x3ca7b7da	0.02047341
151	0x3dacc110	0.08435261
152	0x3dec74b8	0.115457
153	0x3de9a99a	0.11409302
154	0xbd291119	-0.04127607
155	0x3cc4dd59	0.024031328
156	0xbd0a594e	-0.033776574
157	0x3d46b32c	0.048510715
158	0xbdd1d84e	-0.10246335
159	0x3ded4493	0.11585345
160	0x3bcd5548	0.00626627
161	0xbd9e15fa	-0.077190354
162	0x3d4ce99f	0.050027486
163	0x3e18422e	0.14868996
164	0x3d109780	0.03530073
165	0xbd640772	-0.055671163
166	0x3df0baad	0.117543556
167	0x3d55dfb7	0.052215304
168	0x3d2d7eb3	0.042357158
169	0x3de9623a	0.11395688
170	0x3e029049	0.12750353
171	0x3d1d4b67	0.038401987
172	0x3dde03f9	0.108406015
173	0x3cc00aba	0.023442615
174	0xbd5c3122	-0.053757794
175	0x3e239584	0.15975004
176	0x3d7dc4ed	0.06195538
177	0xbdb089bf	-0.08620023
178	0x3a7271cc	0.00092485244
179	0x3d96511c	0.07339689
180	0xbee628b0	-0.44952917
181	0x3f00878b	0.5020682
182	0xbea28734	-0.31743777
183	0x3e86c959	0.2632549
184	0xbe4a1c66	-0.19737396
185	0x3f11805b	0.5683648
186	0x3f1c1daa	0.60982764
187	0xbe52cffb	-0.20587151
188	0x3e2eee0a	0.17082992
189	0xbd1edf90	-0.038787425
190	0x3d79a3d5	0.060947258
191	0x3f0037aa	0.50084937
192	0x3c49891d	0.012300757
193	0x3e0e62b2	0.13904837
194	0x3e60c00b	0.21948259
195	0xbed3132e	-0.4122557
196	0xbf062631	-0.52402025
197	0x3e07e497	0.13270794
198	0x3e1548ee	0.14578602
199	0xbe90e9d1	-0.28303388
200	0xbf19dd80	-0.6010361
201	0x3cdb8ff3	0.026802039
202	0x3e5d96ef	0.21639608
203	0x3d9f9521	0.07792116
204	0x3dad97fb	0.084762536
205	0xbe32e901	-0.17471696
206	0xbe005ffa	-0.12536612
207	0xbf182b72	-0.5944129
208	0xbd54b195	-0.051927168
209	0x3f169b3e	0.5883063
210	0x3ee03e03	0.4379731
211	0xbd82da99	-0.063893504
212	0x3e68545d	0.22688432
213	0x3e1567fb	0.14590447
214	0xbe9dd38d	-0.30825463
215	0xbde2e6de	-0.11079191
216	0x3ec17635	0.37785497
217	0xbd656156	-0.05600103
218	0x3e98c027	0.298341
219	0x3ecf097c	0.40436924
220	0x3e6508d5	0.2236665
221	0x3f08092d	0.53139
222	0x3e3f69bf	0.18692683
223	0xbe5fa1a7	-0.21839009
224	0x3ea489d8	0.32136416
225	0x3f162a29	0.5865808
226	0x3e2835be	0.16426751
227	0xbe773b7f	-0.2414379
228	0x3ef39344	0.47573292
229	0x3c2e78d7	0.010648928
230	0x3dd91b5b	0.10600921
231	0x3f295fef	0.6616201
232	0x3bcba18d	0.0062143267
233	0x3d8ae66a	0.06782229
234	0x3efc57be	0.49285692
235	0x3ee4f130	0.4471526
236	0x3eb79031	0.35852197
237	0x3e49dc57	0.19712959
238	0x3d783908	0.060601264
239	0x3e0a1c90	0.13487458
240	0xbd162a52	-0.036661454
241	0xbeb17730	-0.34661245
242	0xbd09c966	-0.033639334
243	0x3d8368ac	0.06416449
244	0x3e227ac7	0.15867148
245	0x3dbc98ce	0.09208833
246	0x3de07f0e	0.10961734
247	0xbde638be	-0.112412915
248	0x3d4d13cc	0.050067708
249	0xbb5158f3	-0.0031943887
250	0x3dc2015c	0.094729155
251	0xbde3fc86	-0.111321494
252	0xbc1966c4	-0.00936288
253	0x3d07cf2f	0.03315657
254	0xbc970bed	-0.018438304
255	0xbded04db	-0.11573192
