results/fold_3/checkpoint/model_1204_fold_3.tflite (tflite, 406736 bytes, 73 tensors)

model/conv1d_10/BiasAdd/ReadVariableOp f4 [16]
000000 49 6a 6b be 1d 68 9b be 41 ee 86 bd 99 84 8e bd
       -0.22989763 -0.3035287 -0.06588412 -0.06958885
000010 16 67 2f bd c5 e1 40 bd 89 82 d9 bd 36 69 00 be
       -0.04282292 -0.04709031 -0.10620601 -0.12540135
000020 08 71 bc bd c7 1f 1b be d3 d6 60 bd 5d 27 3e be
       -0.092012465 -0.15148841 -0.054892372 -0.18569703
000030 45 c1 13 be 1a 44 6e be 5b bf 55 3b 94 49 32 bd
       -0.14429195 -0.23268166 0.0032615277 -0.0435272

model/conv1d_11/BiasAdd/ReadVariableOp f4 [16]
000000 a8 9a 38 be c0 64 0d be 65 8f 1e be a8 13 f2 bd
       -0.18027747 -0.13807964 -0.15484388 -0.118201554
000010 32 38 40 be 41 1a 9d be 24 39 1f be ab 93 1c be
       -0.18771437 -0.30684093 -0.15549141 -0.15290706
000020 74 39 a8 bd 42 39 ff bc 8b 44 99 bd 00 8e 47 be
       -0.08214083 -0.031155232 -0.07483777 -0.19487762
000030 9a 1a 74 be 71 7f 1e be a0 4e fc bd c7 18 11 be
       -0.23838273 -0.15478303 -0.12319684 -0.14169608

model/conv1d_12/BiasAdd/ReadVariableOp f4 [16]
000000 a5 5e fb bd da 23 67 bc a1 07 be bd e1 d5 15 be
       -0.122739114 -0.014107669 -0.09278799 -0.1463237
000010 dd b7 25 be 6a b9 c4 bd 8a 78 04 be d3 07 d5 bd
       -0.1618342 -0.096056774 -0.12936607 -0.10401883
000020 ae 06 15 be ba d5 9e bd 71 8a 14 be 9b dc 06 be
       -0.1455333 -0.07755609 -0.14505936 -0.13170092
000030 41 ea e9 bd e0 b2 1c be f1 bf cc bd 6d 13 5c be
       -0.114216335 -0.1530261 -0.099975474 -0.21491785

model/conv1d_13/BiasAdd/ReadVariableOp f4 [16]
000000 b2 72 08 be 0b f5 c3 bd 91 70 1f be 89 eb d7 bd
       -0.13325003 -0.095682226 -0.15570284 -0.10542972
000010 39 c9 2b be 39 18 e0 bd a1 05 ea bd 3c 29 ba bd
       -0.16775979 -0.1094212 -0.11426855 -0.09089896
000020 4a a9 ce bc 1d fa 4b bd 94 3c e0 bd 72 25 c6 bd
       -0.025227208 -0.049799073 -0.10949054 -0.09675111
000030 0f fe fb bd bf 74 13 be 25 4b 02 be ec c0 05 be
       -0.12304317 -0.14400004 -0.12723978 -0.13061875

model/conv1d_14/BiasAdd/ReadVariableOp f4 [16]
000000 94 1c 54 be a0 cc 0e bd 81 87 2c be 16 13 0f be
       -0.20714027 -0.034863114 -0.16848566 -0.13972124
000010 05 c5 f8 bd 06 d5 af bd bc 53 23 be 9f 81 1e be
       -0.121469535 -0.08585553 -0.15949911 -0.15479134
000020 db ed 87 bd 4c ef 15 be ba be 1c be 50 f4 0a be
       -0.06637164 -0.14642066 -0.15307131 -0.1356976
000030 27 94 14 be 03 0e eb bd 43 0a eb bd 96 f2 9a bd
       -0.1450964 -0.11477282 -0.11476567 -0.07565801

model/conv1d_15/BiasAdd/ReadVariableOp f4 [16]
000000 36 54 63 be 26 24 31 be ff d6 85 be 69 a2 98 be
       -0.22200093 -0.17298946 -0.26140592 -0.2981141
000010 4c 83 b7 bd d1 78 4b be f3 d1 17 be 11 6a 5b be
       -0.0896059 -0.19870307 -0.14826183 -0.2142718
000020 d2 20 15 be 69 97 4e be 8f a0 a7 bd 1e 66 77 be
       -0.14563301 -0.20174946 -0.08184921 -0.24160048
000030 58 31 01 be 1b ed 99 bd 96 99 bc bd 18 e5 6e bd
       -0.1261648 -0.075159274 -0.09208982 -0.05832395

model/conv1d_16/BiasAdd/ReadVariableOp f4 [16]
000000 fd 7a 0d be 55 61 35 be c3 71 10 be 29 41 6b be
       -0.13816448 -0.1771291 -0.14105897 -0.22974075
000010 10 50 0a be ba 67 18 be fc ac d9 bd 7b 96 c0 bd
       -0.13507104 -0.14883319 -0.10628697 -0.09403702
000020 ce eb 04 be 0d dd 5c be 4f 5b d8 bd bb ae ff bd
       -0.12980577 -0.21568699 -0.10564291 -0.12484499
000030 8e 48 56 be 4c 2c 7f bd 81 80 04 be 62 9c f1 bd
       -0.20926115 -0.062298104 -0.12939645 -0.11797406

model/conv1d_17/BiasAdd/ReadVariableOp f4 [16]
000000 45 ad 91 be 1a c6 6c be 51 28 34 be e6 14 14 be
       -0.28452507 -0.23122445 -0.17593504 -0.14461097
000010 08 ac cf bd db 0c 37 be 45 25 03 be d0 0e 2a be
       -0.10140234 -0.17875998 -0.12807186 -0.16607213
000020 f3 70 f8 bd ee 5a 26 be 05 22 33 be a8 93 d8 bd
       -0.12130918 -0.16245624 -0.17493446 -0.10575038
000030 53 87 04 be db 47 4a bd de 59 14 be 64 3e 57 be
       -0.12942247 -0.049384933 -0.14487407 -0.21019894

model/conv1d_18/BiasAdd/ReadVariableOp f4 [16]
000000 97 17 1e be 82 e7 35 be 7f dd 19 be 1e c0 45 be
       -0.15438686 -0.17764094 -0.150259 -0.19311568
000010 1a b4 1c be 08 37 0d be 71 dc 0d be ff 40 3c be
       -0.15303078 -0.13790524 -0.13853623 -0.18384169
000020 cf 8a 02 be 69 62 fb bd 85 5b 19 be 05 c5 36 be
       -0.12748264 -0.122746296 -0.14976318 -0.17848594
000030 47 c3 9c bd f7 d4 d2 bd c4 59 52 be c5 9e 1f be
       -0.07654434 -0.10294526 -0.20542055 -0.1558791

model/conv1d_19/BiasAdd/ReadVariableOp f4 [16]
000000 15 7d 09 be 75 33 80 bd e1 72 92 bd 75 45 fc bd
       -0.13426621 -0.06259815 -0.07150818 -0.123179354
000010 53 19 1e be e4 99 d3 bd 8c 16 f7 bd da 5a 27 be
       -0.15439348 -0.10332087 -0.12064847 -0.16343251
000020 c1 7c ff bd 9e 91 25 be 24 26 47 be 36 a6 dd bd
       -0.12474967 -0.1616883 -0.19448143 -0.10822718
000030 5c 5a b7 bd 8f ee a2 bd a8 e7 ad bd d0 3c 08 be
       -0.089527816 -0.07955658 -0.084914505 -0.13304448

model/conv1d_20/BiasAdd/ReadVariableOp f4 [16]
000000 a0 ce 29 be 72 57 0e be e3 21 ed bd 0b 6d 7d be
       -0.16582727 -0.13900545 -0.11578729 -0.24748628
000010 55 cd e3 bd 10 e4 c6 bd cd 31 85 bd 57 45 49 be
       -0.11123148 -0.09711468 -0.06503639 -0.19655357
000020 c9 81 cc bd 6b c3 32 bd 17 c0 22 be 48 31 25 be
       -0.09985692 -0.043643396 -0.15893589 -0.1613208
000030 fe 5f 7f bd ec 9b 00 be 6a e2 6a bd c8 c1 b4 bd
       -0.062347405 -0.1255948 -0.05734483 -0.08826023

model/conv1d_21/BiasAdd/ReadVariableOp f4 [16]
000000 96 af d1 bd 54 4d 03 be bf b4 ce bd 56 fc 4e bd
       -0.102385685 -0.12822467 -0.10093068 -0.050533615
000010 ab 46 c3 bc 76 ca 4f be 14 98 ed bd d3 53 fd bd
       -0.023837408 -0.20292076 -0.11601272 -0.12369504
000020 94 69 06 be cf 3d b7 bd 2c 1b ed bd 19 3e 9c bd
       -0.13126212 -0.08947336 -0.11577448 -0.07629032
000030 bb 2b d6 bd f5 38 b2 bd d1 de 12 be e9 d3 a1 bd
       -0.1045756 -0.0870227 -0.1434281 -0.07901747

model/conv1d_22/BiasAdd/ReadVariableOp f4 [16]
000000 69 88 0d be b3 a5 03 be ae 33 29 be 85 b3 4d be
       -0.13821568 -0.12856178 -0.1652362 -0.20088013
000010 69 ac e5 bd e7 c2 99 bd e2 62 bb bd 01 6d 0b be
       -0.11214525 -0.07507878 -0.0914972 -0.136158
000020 ae da d1 bd c2 6b df bd 9d 11 03 be a8 7e 43 bd
       -0.10246788 -0.10909225 -0.12799688 -0.04772821
000030 cf 39 05 be c0 d8 2d bd 06 15 00 be 4b 39 a2 bd
       -0.13010333 -0.042443037 -0.1250802 -0.07921084

model/conv1d_23/BiasAdd/ReadVariableOp f4 [16]
000000 a0 32 b9 bd be df 51 bd 62 4d 91 bd 84 5e 06 be
       -0.09042859 -0.051238768 -0.07094838 -0.13121992
000010 a9 51 c1 bd 8e 5b 92 bd cb 62 89 bd b9 b8 06 be
       -0.094394036 -0.07146369 -0.067082964 -0.13156404
000020 7a d6 d6 bd 7c 73 1c be 39 b0 0d be 46 9d f4 bd
       -0.10490127 -0.15278429 -0.13836755 -0.1194406
000030 8f e4 ca bd 83 70 aa bd d7 d4 a0 bc 65 ce 80 bd
       -0.09906875 -0.08322241 -0.01963274 -0.06289367

model/conv1d_24/BiasAdd/ReadVariableOp f4 [16]
000000 05 a3 81 bd 03 76 be bd 07 5f b1 bd 64 c5 06 be
       -0.06329922 -0.09299853 -0.08660703 -0.13161236
000010 74 ca 14 be 34 d7 81 bd dd ed d2 bd f9 d6 15 be
       -0.14530355 -0.06339875 -0.10299275 -0.14632787
000020 b8 59 b0 bd 8e f6 06 be 88 cf bd bd 39 4c d1 bd
       -0.086108625 -0.1317999 -0.09268099 -0.102196164
000030 c9 5c 31 bd 67 42 e2 bd 55 7d 0d be 0e 5b c8 bd
       -0.043301377 -0.110478215 -0.13817342 -0.09782992

model/conv1d_25/BiasAdd/ReadVariableOp f4 [16]
000000 40 28 c8 bd 46 71 08 be 9c 58 2f be c8 c8 1b be
       -0.09773302 -0.1332446 -0.17123646 -0.1521331
000010 32 6a 85 bd 62 8f 90 bd bb a8 2c be 98 49 2d bd
       -0.06514396 -0.07058598 -0.1686124 -0.042306513
000020 2d 43 c2 bd 78 e0 0d bd d4 58 eb bd c2 c3 09 be
       -0.09485469 -0.0346379 -0.11491552 -0.13453582
000030 90 1e 1f be 44 a2 17 be f8 72 b2 bd 34 2e 2e be
       -0.15539002 -0.14807993 -0.08713335 -0.17009813

model/conv1d_26/BiasAdd/ReadVariableOp f4 [16]
000000 3d ec 0e be 23 2c 01 be b9 1f 19 be a2 74 2d be
       -0.13957305 -0.12614493 -0.14953507 -0.16939023
000010 77 58 fc bd f0 bc 35 be 9b ed 33 be a3 16 b7 bd
       -0.12321561 -0.17747855 -0.17571108 -0.089398645
000020 da 10 ba bd 4e f5 42 be bd 86 4a be ac 78 96 be
       -0.090852454 -0.19038889 -0.19777961 -0.2938894
000030 04 d6 1b be 1b 2e 29 be 8e 29 23 be 72 da dc bd
       -0.15218359 -0.16521494 -0.1593382 -0.10783853

model/conv1d_27/BiasAdd/ReadVariableOp f4 [16]
000000 5d 5f 2e bd 99 02 ff bc cc 27 72 be ba ca 27 be
       -0.042571414 -0.031129168 -0.23647994 -0.16385928
000010 f2 5d 14 be 4c a4 bc bd 51 0b 06 be b6 20 c9 bd
       -0.14488962 -0.09211025 -0.13090254 -0.09820692
000020 96 71 17 be 59 e5 15 be 87 e6 1c be 08 aa d3 bd
       -0.14789423 -0.1463827 -0.15322314 -0.10335165
000030 27 90 e0 bd 0a ab 2b be d1 c5 b8 bd 1c 72 a9 bd
       -0.10964995 -0.16764465 -0.090221055 -0.08273718

model/conv1d_28/BiasAdd/ReadVariableOp f4 [16]
000000 58 bb db bd 51 f3 07 be 59 be ae bc 03 4d 17 be
       -0.10729092 -0.13276412 -0.021331 -0.14775471
000010 3d b8 9c bd 02 53 49 be 2a 7d fd bd 4f c0 22 be
       -0.07652328 -0.19660571 -0.12377389 -0.15893672
000020 04 09 be bd 95 27 04 be 30 a4 03 be 51 34 ea bd
       -0.09279063 -0.12905724 -0.12855601 -0.1143576
000030 a4 d5 0b be a4 a0 41 bd a4 af 01 be 95 52 bc bc
       -0.13655716 -0.04727234 -0.12664658 -0.022988597

model/conv1d_29/BiasAdd/ReadVariableOp f4 [16]
000000 80 b8 f6 bd 31 a9 c3 bd e8 d0 35 be de fb 0a be
       -0.12046909 -0.09553755 -0.17755473 -0.13572642
000010 bd 57 5c bd a4 25 fd bd e6 9c e4 bd 26 1d f6 bd
       -0.05379461 -0.12360695 -0.111627385 -0.120172784
000020 8f 2e f9 bd 2b 23 a2 bd f0 2f c0 bd f7 07 b4 bd
       -0.121670835 -0.07916864 -0.09384143 -0.08790582
000030 b5 ce f5 bd 26 1a d4 bd 23 14 f1 bd 68 db 56 bd
       -0.12002317 -0.1035655 -0.11771419 -0.052455336

model/conv1d_30/BiasAdd/ReadVariableOp f4 [16]
000000 76 59 4d be 07 67 40 be 56 1e 79 be 6b 59 cc bd
       -0.20053658 -0.18789302 -0.24327978 -0.099779926
000010 10 7a 4b be 64 eb 6a bd 75 9e 5a bc d2 a7 0b be
       -0.19870782 -0.057353392 -0.013343443 -0.13638237
000020 36 a2 29 be c4 70 8c bd 4a 45 ad bd 54 1b 70 be
       -0.16565785 -0.06857446 -0.084604815 -0.23447925
000030 4b dd 32 be a6 64 1c be 00 00 00 00 bb b4 cf bd
       -0.17467229 -0.1527277 0.0 -0.101418935

model/conv1d_31/BiasAdd/ReadVariableOp f4 [16]
000000 3b e8 29 be 39 3c 12 be c9 e2 37 be 0d e7 75 be
       -0.16592495 -0.14280786 -0.17957605 -0.2401392
000010 f6 48 50 be fa 65 13 be 50 4f 6b be 45 10 4d be
       -0.20340332 -0.1439437 -0.22979474 -0.20025738
000020 88 e0 02 be 19 e8 68 be f9 6c 21 be 27 0f 42 be
       -0.12780964 -0.22744788 -0.15764226 -0.18951093
000030 11 61 3a be 2f 83 2b be 60 8e 5a be f8 d0 9d bd
       -0.1820109 -0.16749261 -0.21343374 -0.07705873

model/conv1d_32/BiasAdd/ReadVariableOp f4 [16]
000000 5c 2d 0e be 44 ea 42 be d5 01 98 bd c0 80 87 be
       -0.1388449 -0.19034678 -0.074222244 -0.26465416
000010 c3 89 c7 bd 8b e8 b5 bd 63 bd 93 bd b7 a2 32 be
       -0.09743073 -0.08882245 -0.07213857 -0.17444883
000020 82 2c 80 be 25 85 f5 bd 17 ee 2a be 64 70 f7 bd
       -0.25033957 -0.11988286 -0.16692387 -0.12081984
000030 f0 94 11 be f6 62 39 be e1 58 34 be 76 7a 22 be
       -0.14216971 -0.18104157 -0.1761203 -0.15867028

model/conv1d_33/BiasAdd/ReadVariableOp f4 [16]
000000 07 49 2b be 7a c8 3c be 62 15 3c be bd 72 d5 bd
       -0.16727076 -0.1843585 -0.18367532 -0.10422275
000010 90 3c 28 be ca ea 59 be 48 cd d1 bd dd 89 13 be
       -0.16429353 -0.21280971 -0.102442324 -0.1440806
000020 4e b8 1e be 92 c4 47 be f8 10 b2 bd f6 f6 ee bd
       -0.15499994 -0.1950858 -0.08694643 -0.11668198
000030 d6 8b 64 be 9a 71 23 be 31 c1 57 be bb 69 5f be
       -0.22318968 -0.15961304 -0.2106979 -0.21817677

model/conv1d_34/BiasAdd/ReadVariableOp f4 [16]
000000 b4 29 c6 bd 6e eb 0f be a0 03 e6 bd bb c7 14 be
       -0.09675923 -0.14054653 -0.1123116 -0.14529316
000010 28 48 d8 bd 09 33 14 be 59 4a ec bd ee 03 49 be
       -0.10560638 -0.14472593 -0.11537618 -0.19630405
000020 ee 04 ee bd 10 c9 05 be 94 74 16 be 37 f5 32 be
       -0.11622034 -0.1306498 -0.14692909 -0.17476355
000030 e1 46 17 be f3 6f 24 be 1e b0 08 be f0 0b 39 be
       -0.14773132 -0.1605833 -0.13348433 -0.1807096

model/conv1d_5/BiasAdd/ReadVariableOp f4 [16]
000000 78 f0 9c bc b8 6d d4 bd 29 ae 98 bd 11 7c a9 bd
       -0.019157633 -0.1037249 -0.074550934 -0.08275617
000010 99 db 09 be 1e e5 16 bd a5 94 7a bd 5f 95 2a be
       -0.13462676 -0.036839597 -0.061176915 -0.16658543
000020 81 2c f7 bd 18 c2 29 be dd af db bd 5a 8c 1f be
       -0.12069035 -0.16577947 -0.10726903 -0.15580884
000030 79 5f 74 bd a0 17 89 be 7e 68 33 be 61 d3 95 bd
       -0.059661362 -0.26775837 -0.1752033 -0.07315708

model/conv1d_6/BiasAdd/ReadVariableOp f4 [16]
000000 3e 67 1a be 2b fe 46 be 81 a3 0e be f8 5f 32 be
       -0.15078446 -0.19432895 -0.1392956 -0.17419422
000010 ff 89 d6 bd 00 49 2e be e0 7c 8d bd ee 50 57 be
       -0.104755394 -0.17020035 -0.06908584 -0.21026966
000020 07 90 0a be de c6 02 be 2d 58 c6 bd d3 a1 bf bd
       -0.13531505 -0.12771174 -0.09684787 -0.093570374
000030 ce 24 6e be 52 2f 36 be b9 f6 2e be aa aa 13 be
       -0.23256227 -0.17791489 -0.17086305 -0.14420572

model/conv1d_7/BiasAdd/ReadVariableOp f4 [16]
000000 e1 f1 31 be 16 35 fa bd 45 9f 0a be 1b 25 07 be
       -0.17377426 -0.122171566 -0.13537319 -0.13197748
000010 bc 41 44 be aa 67 9d bd c6 25 37 be 25 7a 0d be
       -0.191657 -0.07685788 -0.17885503 -0.13816126
000020 67 55 e2 bd 75 64 96 bd a7 b1 0f be 2f d7 20 be
       -0.110514455 -0.073433794 -0.14032613 -0.15707086
000030 40 94 54 be 10 6f d6 bd 41 98 f7 bc 97 fe fc bd
       -0.20759678 -0.10470402 -0.030223968 -0.12353247

model/conv1d_8/BiasAdd/ReadVariableOp f4 [16]
000000 c7 85 14 be 7b d6 d3 bd 01 c9 34 be 30 2c f6 bd
       -0.14504157 -0.10343643 -0.17654802 -0.12020147
000010 ff cd dd bd 8a 96 b7 bd 45 e0 3f be 35 83 40 bd
       -0.10830306 -0.0896426 -0.18737896 -0.04700013
000020 cb a0 c2 bd 30 50 3e be e2 52 a0 bd 78 06 e1 bd
       -0.09503325 -0.18585277 -0.07828309 -0.10987562
000030 87 41 16 be dd 85 b0 bd 99 0e 21 be 58 f6 38 be
       -0.14673434 -0.086192824 -0.15728225 -0.18062723

model/conv1d_9/BiasAdd/ReadVariableOp f4 [16]
000000 9e 21 f3 bd ab 98 37 be c0 f7 64 bd b5 aa 05 be
       -0.11871646 -0.17929332 -0.055900335 -0.13053401
000010 87 47 31 bd 65 61 01 be 5e ca d5 bd 8c 03 0a be
       -0.043281104 -0.1263481 -0.10438989 -0.13477916
000020 67 f0 22 be 0d 61 cc bd 8b ef 24 be 29 bc 15 be
       -0.15912019 -0.099794485 -0.16107003 -0.14622559
000030 45 55 1c be eb f3 ea bd c8 e1 02 be 47 ba 2d be
       -0.15266903 -0.11472305 -0.12781441 -0.1696559

model/conv1d/BiasAdd/ReadVariableOp f4 [16]
000000 91 a8 02 be 6a e5 8a be 24 3e 27 be 59 61 bf bd
       -0.12759615 -0.27128154 -0.16332299 -0.093447395
000010 0a 8a 3e be b9 aa 06 be ce fc 1c be 96 d2 71 be
       -0.18607345 -0.13151063 -0.15330812 -0.23615488
000020 27 25 6a be 39 29 b8 bd 0e ca 43 be 7e d1 02 be
       -0.22865735 -0.089922376 -0.19120046 -0.12775227
000030 33 2a fe bd dc 81 13 bd eb 4b 5f be cb d5 4e be
       -0.124103926 -0.036012515 -0.21806304 -0.20198743

model/conv1d_1/BiasAdd/ReadVariableOp f4 [16]
000000 57 91 6e be 1a 9f 85 bd 6d 65 b2 be bd 96 74 be
       -0.2329763 -0.06524487 -0.34843007 -0.23885627
000010 35 24 14 bd 39 18 01 bf 10 f3 02 be 00 00 3a be
       -0.036167342 -0.50427586 -0.12788033 -0.18164062
000020 d2 12 ab be ad 77 19 be 1e 89 4f be 6c ea aa be
       -0.33412796 -0.14987059 -0.2026715 -0.33381975
000030 4e 4e 71 be ab 20 e4 bd 4c 13 b7 bd 19 49 2f bd
       -0.23565027 -0.111390434 -0.089392275 -0.04279432

model/conv1d_2/BiasAdd/ReadVariableOp f4 [16]
000000 96 d8 ac bc 1c 5b 93 be 90 ab 69 be ae 01 65 be
       -0.02109937 -0.28780448 -0.22819352 -0.22363922
000010 67 e7 20 be 45 de 44 be 9c ff 0f be 8a a8 98 be
       -0.15713273 -0.19225414 -0.14062351 -0.29816085
000020 c4 56 6e be 92 1f 8d bd 48 08 b6 bd 70 08 7c be
       -0.23275286 -0.06890787 -0.08888298 -0.24612594
000030 70 83 c3 bd 17 7e 88 be 5f f8 3e bd 66 2a 83 be
       -0.09546554 -0.266587 -0.046623584 -0.25618285

model/conv1d_3/BiasAdd/ReadVariableOp f4 [16]
000000 d0 01 23 be f2 45 2a be ab 5c 93 bd f0 5a 52 be
       -0.1591866 -0.16628245 -0.071954094 -0.20542502
000010 31 a8 68 be 34 ea 6c be c1 a8 ca bd e0 db 4c be
       -0.2272041 -0.23136216 -0.098954685 -0.2000575
000020 94 46 38 be 52 d9 41 be df 7c 3f be 86 66 49 be
       -0.17995673 -0.18930557 -0.18699978 -0.19668016
000030 78 a3 95 bd a9 0e 1f be 98 36 21 be b1 88 64 be
       -0.0730657 -0.15532936 -0.15743482 -0.22317769

model/conv1d_4/BiasAdd/ReadVariableOp f4 [16]
000000 4e 94 0d be 3d 0b 3a be 22 e1 98 bd 9e ba 2f bd
       -0.13826105 -0.1816835 -0.07464816 -0.04290258
000010 18 96 16 be 94 8b 40 be 99 00 04 be 0d d5 31 be
       -0.14705694 -0.18803245 -0.12890853 -0.17366429
000020 3f 5d 4b be 11 b8 45 bd 67 cf af bd 89 77 3a be
       -0.1985979 -0.048271243 -0.08584481 -0.18209662
000030 c8 9d 57 be 0d a5 2a be 35 36 42 be ad 06 4c be
       -0.21056283 -0.16664524 -0.18965991 -0.19924422

model/conv1d_10/Conv1D f4 [16, 1, 1, 20]
000000 53 d0 82 3e f7 87 66 3d c0 4e 52 3e 1c 21 ea 3e
       0.25549564 0.05628201 0.20537853 0.45728385
000010 bd f7 ee 3d 36 ee 16 3e b1 f8 0c be fa 3d 13 be
       0.11668346 0.14739308 -0.13766743 -0.14379111
000020 e1 69 ce bd 26 7d 19 bd ba 16 98 3e 24 0f b7 be
       -0.100787885 -0.037472866 0.2970484 -0.3575374
000030 33 fe ac bd c1 c5 4d 3d 27 39 0d 3d 15 2d 12 be
       -0.08446922 0.05023742 0.034478333 -0.1427501
000040 bc d5 8a 3d 55 dd 44 be 3f c3 31 be de c3 65 be
       0.06779048 -0.19225056 -0.17359637 -0.22437999
000050 42 7e ae bd 1c 97 a6 bd 26 20 e1 3d ab cb 34 be
       -0.085201755 -0.081342906 0.1099246 -0.17655818
000060 18 c8 30 bd c8 76 8a bc 77 7f 75 3d 93 b7 0d 3e
       -0.043159574 -0.016902342 0.059936013 0.1383956
000070 73 fc 2a 3f 5a 6c c4 3d 58 91 47 3e 19 1c 79 3e
       0.66791457 0.09590979 0.19489038 0.24327125
000080 cb 4c 11 be 40 86 0c 3e ec cb 7c bd ef 5a a4 3e
       -0.1418945 0.13723087 -0.061717913 0.32100627
000090 89 d0 c6 be d4 6b 5d be 93 52 56 3d 4c 2c 95 bd
       -0.38830975 -0.21623164 0.052324843 -0.072838396
0000a0 05 f8 2c be 75 df ac 3e 53 e7 8a 3e de a0 89 be
       -0.16891487 0.33764234 0.2712961 -0.26880544
0000b0 28 30 59 3e 5f 8c 20 be 85 a6 1a 3e b6 c7 89 3e
       0.21209776 -0.15678547 0.15102585 0.2691018
0000c0 d5 c5 ac bd 9f 90 9a be a8 9e 3e 3e ce 03 88 be
       -0.08436171 -0.30188462 0.1861521 -0.26565403
0000d0 86 f5 1a be 31 c5 80 3e 84 78 7a 3e 12 fa 10 be
       -0.15132722 0.25150445 0.24460036 -0.14157894
0000e0 3e 99 8c 3e a8 bf 9c 3e 21 3d aa be 4f 22 91 3d
       0.27460665 0.30614972 -0.33249763 0.07086622
0000f0 9d 3c 18 be d1 b9 99 be e4 08 32 3e e0 57 a3 3e
       -0.14866872 -0.3002458 0.17386204 0.3190298
000100 fc f2 89 3e 49 f5 98 be 0b 70 46 be 8c 1d 5d 3e
       0.26943195 -0.29874638 -0.19378679 0.21593302
000110 0f b3 cc 3c c7 84 cf 3e 66 79 ae 3e 87 b9 f8 bc
       0.024987726 0.4053099 0.34076995 -0.030361904
000120 f1 80 9e 3d 87 77 8a 3d ec d1 a3 3e 26 da 59 3e
       0.07739437 0.06761079 0.31996095 0.21274623
000130 91 75 bb 3e f3 fd fe bd 52 02 d5 3e f0 f5 b4 be
       0.36613134 -0.12450781 0.41603333 -0.35343885
000140 20 9d 59 be 1e 7a 5f 3e 52 f6 d9 bd 0b 9c 0e 3d
       -0.21251345 0.21823928 -0.10642685 0.034816783
000150 9f 5b c4 bd 6a 18 8f bd 6d ce 80 be 6a db 1b 3d
       -0.09587788 -0.069870785 -0.2515749 0.038051046
000160 c4 b4 23 be 93 67 7f 3e f2 ea c2 be b5 f3 c1 3e
       -0.15986925 0.24941854 -0.38069874 0.37881246
000170 99 6b 9b 3e 94 e5 b1 be b8 a7 29 3f 6c 6c 5c 3d
       0.30355528 -0.34745467 0.66271544 0.053814337
000180 9f 5c 30 3e e7 41 d2 3e 08 6f 09 be 58 d8 90 bd
       0.17222832 0.41065904 -0.13421261 -0.07072514
000190 d4 43 10 be 44 38 93 3e 40 45 35 3d cc 8e 4c 3e
       -0.14088374 0.28753865 0.044255495 0.19976348
0001a0 49 dc e1 3e 4a 5a 84 bd 60 4b 6d be 10 92 6f 3d
       0.44113377 -0.06462534 -0.23173285 0.058488905
0001b0 64 04 00 3e 1c 96 93 be 12 9d b3 be be cf a1 3d
       0.12501675 -0.28825462 -0.35080773 0.07900952
0001c0 c0 19 8a 3e 85 9d 36 3e f0 ec b8 3e d1 81 ae 3e
       0.2697277 0.17833526 0.3611827 0.34083417
0001d0 7e f3 6d bd 8e 27 a7 3d 6f 42 80 3e a6 6d 62 3e
       -0.05809354 0.08161841 0.25050685 0.2211214
0001e0 42 b3 09 be 9c a8 02 be 13 33 65 be ba 43 f3 3c
       -0.13447288 -0.12759632 -0.22382765 0.02969538
0001f0 cc 4e 10 be 12 ea 4e be 9e 86 81 3e 35 80 32 3e
       -0.14092559 -0.20206478 0.25298017 0.1743172
000200 cb 61 2f be 25 1e b0 3d c9 43 76 bd bf ea ff bc
       -0.17127149 0.085994996 -0.06012324 -0.031239865
000210 aa be 8d bd d8 0d d4 3b 0d e1 3d 3f 99 64 78 be
       -0.06921132 0.006471377 0.74171525 -0.24257125
000220 ed b2 07 3e df cc 85 3c 55 df b8 3d b9 5a 20 3d
       0.13251849 0.016333042 0.09026972 0.03914902
000230 f0 0a 05 3e 17 8a f8 bd 9c cc 87 3e ac 75 16 be
       0.12992454 -0.121357135 0.26523292 -0.14693326
000240 fc b1 16 3d 44 c9 1b be 5a 96 09 3e 23 41 c9 3d
       0.036790833 -0.15213495 0.13436261 0.09826877
000250 c5 e8 50 be 53 48 b8 be c0 9d 7a 3e b7 37 0d bd
       -0.20401295 -0.3599268 0.2447424 -0.034476962
000260 6f 3b 7b 3d f7 02 05 be 92 26 bd 3e 16 17 dc 3d
       0.061335977 -0.12989412 0.3694349 0.10746591
000270 cc 9f a1 3e 94 7c d9 3e 94 dc d0 3e da 8f fb 3d
       0.31567228 0.42477858 0.40793288 0.12283297
000280 1e 9a fb bd 01 33 b3 3d 7c 54 2f be 06 e2 b8 3d
       -0.12285255 0.087499626 -0.17122072 0.090274855
000290 d2 a2 52 3d 0a 8a 8f bd 57 bd a9 3e c4 41 82 3e
       0.05142481 -0.07008751 0.33152267 0.254408
0002a0 78 93 c3 3e 06 d5 27 3c 32 dc 3c bd 85 45 cb 3d
       0.38198447 0.01024366 -0.046108432 0.09925369
0002b0 34 53 67 be 57 e1 79 bd bd 33 26 3e 0b 4f 54 be
       -0.22590333 -0.061005916 0.16230674 -0.20733277
0002c0 78 40 a0 be bc 63 49 3e e1 27 e8 3e a4 05 5b 3e
       -0.31299186 0.19666952 0.45342925 0.2138887
0002d0 2b 3b 97 3d 54 65 1d be 26 39 90 3e 96 7e 73 be
       0.07384332 -0.15370685 0.281686 -0.23778757
0002e0 06 fd 84 3e 36 85 9e 3e 0f 5e 1a 3e 43 82 42 3e
       0.25974292 0.30961007 0.15074943 0.18995003
0002f0 f5 23 30 3e 98 be 28 bd db c3 17 bd 42 4d 6d be
       0.17201217 -0.04119739 -0.037052017 -0.23174003
000300 1f dd 29 be 76 51 17 be f7 f5 f6 3d d9 ea 9b 3d
       -0.16588257 -0.14777169 0.12058633 0.07613153
000310 89 b9 25 be 25 9c 34 3e bc e8 df 3e 81 a3 7c 3e
       -0.16184057 0.1763769 0.4373225 0.24671747
000320 aa 2d 9a be 4f c5 20 3e 1c 28 e5 bb bb 9d 62 be
       -0.30112964 0.15700267 -0.006993307 -0.22130482
000330 53 0c c7 3d 91 d8 21 3e ae 64 8c 3e 3b 05 bd 3e
       0.097191475 0.1580527 0.27420563 0.36918053
000340 97 e1 33 be 11 6d 48 3e 9f 1f 73 be df 0e 68 3d
       -0.17566524 0.19572856 -0.23742531 0.056654807
000350 09 7c c1 bb 08 87 d7 bb be 27 45 3e c8 cc 6e be
       -0.0059046787 -0.0065773763 0.19253442 -0.23320305
000360 e5 ef 3e 3e 88 e2 38 3e 84 78 57 be 36 14 96 3e
       0.186462 0.18055165 -0.21042067 0.29312295
000370 0c 81 8f 3e 90 54 90 3e 68 96 6e be 73 06 f6 3e
       0.28028142 0.28189516 -0.23299563 0.48051795
000380 34 ca 3b be 78 6f 68 be 2c a6 99 3d 30 bc aa 3d
       -0.18338853 -0.22698772 0.07502398 0.08336675
000390 6e 2a 8d be 7b d7 1b be 77 12 8c bd c6 00 23 be
       -0.27571434 -0.15218918 -0.068394594 -0.15918264
0003a0 27 ae 8f be 1e be ec 3e 80 55 aa 3e e0 e5 f7 3d
       -0.28062555 0.46238798 0.33268356 0.12104392
0003b0 60 be ca bd 4e 17 52 be a3 44 09 bd ce 20 fe 3e
       -0.098995924 -0.20516703 -0.033512723 0.49634403
0003c0 9b 66 a1 3e 82 2e 9e 3e ef 87 9e 3e 3b 18 fa 3d
       0.31523594 0.30894858 0.30963084 0.12211653
0003d0 6f 00 0e 3e ee 19 23 3d ce 8b d0 3e 33 58 fc bd
       0.13867353 0.03981965 0.40731663 -0.1232151
0003e0 87 f7 11 be 85 77 4e be ce 37 98 3e 31 38 88 be
       -0.1425458 -0.2016278 0.29730076 -0.2660537
0003f0 d3 70 4f 3e a5 5c 92 3d 5f 74 05 be f8 70 e0 3c
       0.20257883 0.07146577 -0.13032673 0.027397618

model/conv1d_11/Conv1D f4 [16, 1, 3, 20]
000000 ee 21 0f 3e cc ff d7 bd dd 26 ee 3c 0d f4 90 bd
       0.13977787 -0.10546836 0.029071266 -0.07077799
000010 48 ea e0 3d 15 07 a5 3e 09 98 62 bc 49 e7 4e 3d
       0.109821856 0.32231966 -0.013830193 0.05051354
000020 1f 8d 80 3d 4c ab 9c 3e e4 f0 04 3e e8 92 24 3e
       0.06276917 0.3059944 0.12982517 0.16071665
000030 6a 71 e0 3e 77 07 9c 3e d9 0f b7 bc 15 19 26 be
       0.43836528 0.30474445 -0.022346424 -0.16220506
000040 87 52 03 3d 01 f7 52 3d 9a e7 e8 3e 4b e0 64 3e
       0.032061126 0.051505093 0.45489198 0.22351186
000050 a1 f3 11 be 77 20 11 3e 41 2c 3f 3e b3 b4 87 3e
       -0.14253093 0.1417254 0.18669225 0.2650505
000060 df fb c3 3c cb 3d 48 bd fb fe 65 3d b6 d1 40 3d
       0.023923812 -0.048887055 0.05615137 0.047074996
000070 88 ba 66 be 92 28 9d 39 4e 28 f9 3b 1c 33 7c be
       -0.22532094 0.000299756 0.0076036816 -0.24628872
000080 2b 08 a0 3e 7f fa 39 3e 4a ba 61 3d ff 53 d8 3d
       0.31256232 0.18161963 0.0551093 0.10562896
000090 2e 4a 73 3e 09 c2 dc 3d d0 15 08 3e 46 2a c3 3d
       0.23758766 0.10779197 0.13289571 0.095295474
0000a0 b6 86 86 be aa 4e 0e bc 54 fa 8f bc 6b b4 0d be
       -0.2627465 -0.008685747 -0.01757542 -0.13838355
0000b0 29 28 ed bd bf a9 65 3e 46 68 d6 bc c4 b1 26 3e
       -0.115799256 0.22428034 -0.026172768 0.1627875
0000c0 5f 12 2b 3e 27 17 19 3e 9d 15 af 3e 0f 13 75 bd
       0.16706227 0.14950238 0.34196177 -0.05983263
0000d0 c1 97 d0 3e 76 38 81 3e 9f c7 5b bd bd b2 2f 3d
       0.4074078 0.2523839 -0.05365717 0.042895067
0000e0 be f8 25 bd 5d 3e 70 3e 51 31 0a 3e da 7a c9 3c
       -0.040520422 0.2346129 0.13495375 0.024594713
0000f0 4c b2 df bd 9e 57 8f 3e 13 cc cf 3d 5a fa 77 be
       -0.10922679 0.27996534 0.10146346 -0.24216595
000100 4f c4 a0 3e 4c 79 19 3d 16 d3 08 be d1 03 d6 bd
       0.31399772 0.037469193 -0.13361773 -0.10449947
000110 44 3b 7a 3e 41 ad ab 3e 2e 38 b7 3e de 0e 90 3d
       0.2443667 0.3353062 0.3578505 0.07034086
000120 9b 8d 8c b9 b5 f2 63 3e 47 9c c3 3d dd d0 a3 3e
       -0.00026808385 0.22260554 0.09551292 0.31995288
000130 ce 87 b4 3e 30 72 a4 3e 82 26 1c 3d bf 9c 10 3e
       0.3525986 0.32118368 0.03812266 0.14122294
000140 1a a1 c5 bd 18 cd c1 3d 90 06 e4 3e 23 89 09 bc
       -0.09649868 0.09462947 0.44536257 -0.008394512
000150 a0 4f ac 3e ec 57 e8 bd ad b5 ba bd d7 93 81 3e
       0.336545 -0.11344895 -0.09116683 0.25308105
000160 2f 57 3e 3e 57 35 87 3e d3 63 83 3d 92 22 64 bd
       0.18587945 0.26407883 0.06415524 -0.05569703
000170 2d 49 c5 3e 48 48 4f be 0d bf 15 3d c3 6b 13 3d
       0.3853239 -0.20242417 0.036559153 0.03599144
000180 3c e2 d4 3d 3e 24 21 be 9e 68 a5 bc d1 bf 68 be
       0.10394713 -0.15736482 -0.020191487 -0.22729422
000190 f1 43 97 bd c6 6c 1e be 7c 55 9d be 37 92 2e 3e
       -0.07386006 -0.15471181 -0.30729282 0.17047964
0001a0 1e f6 15 3e a1 ba 1a 3d 76 5e 48 3e 6c 13 09 3d
       0.14644668 0.03777564 0.19567284 0.033465788
0001b0 83 e4 19 3d bd d4 82 3e 90 26 0b 3f 31 6c 83 be
       0.03757144 0.2555293 0.54355717 -0.2566848
0001c0 2d ab fb 3e 05 c0 89 3d ed 39 81 bd da c6 d3 bd
       0.49154034 0.06726078 -0.063098766 -0.10340662
0001d0 c3 cd 2b 3e 44 1b 09 3e 58 dc af bd bc ee ba bd
       0.1677771 0.13389307 -0.08586949 -0.09127566
0001e0 84 91 5e bd 8b ed dc bd 0b da 2e bd 03 74 83 be
       -0.054337993 -0.10787495 -0.04268841 -0.25674447
0001f0 0a 0a dd bd 88 0f f9 3d 70 2c 8f bd 19 28 ab bd
       -0.107929304 0.121611655 -0.06990898 -0.083572574
000200 53 d3 0a 3e 33 1a 08 3f 62 05 21 be fd 69 0a be
       0.13557176 0.53164977 -0.1572471 -0.13516994
000210 09 6c 5d 3d 1d 03 4c be 26 38 eb bd c0 11 40 bd
       0.05405811 -0.19923063 -0.11485319 -0.046891928
000220 ef 63 8f 3e 6b 6b ed 3c d8 a9 fa 3d 55 50 c0 3e
       0.2800593 0.028981885 0.122394264 0.37561288
000230 e4 52 63 3e 1a 3c fb bd e7 87 b5 3e 40 02 88 3d
       0.22199589 -0.12267323 0.35455248 0.06641054
000240 83 43 08 bd 15 a9 54 3e e0 65 9e bd 2a 83 e8 3d
       -0.03326751 0.20767625 -0.07734275 0.113531426
000250 e1 e0 22 3c f2 60 13 3e 66 2e 5e 3d 69 bb 50 3e
       0.009941311 0.1439245 0.054243468 0.20383991
000260 dc 54 4d ba 18 ae ab 3e 4f 61 b2 3e 6f b3 12 3d
       -0.00078327744 0.3353126 0.34839866 0.035815652
000270 1d c1 d5 3e 3f 45 6b 3e f5 dc 8d 3e 78 c7 05 3e
       0.41748896 0.22975634 0.2770764 0.13064373
000280 19 45 81 3e 73 9e 29 3e 9a 76 5a 3e 5c 64 b5 bd
       0.2524803 0.1656435 0.21334305 -0.08857033
000290 e7 48 68 bc e9 cd 5c 3e 4b 49 40 be 23 34 11 3e
       -0.0141775375 0.21562923 -0.18777959 0.14180045
0002a0 f5 f3 28 be 94 93 c7 3d 8b 6e 3f 3d f1 b4 c3 bd
       -0.16499312 0.09744945 0.04673628 -0.09555996
0002b0 74 d4 2e be 40 28 14 3e 06 ed ba bd 7e 2b 0b be
       -0.17073232 0.14468479 -0.0912724 -0.1359081
0002c0 2b 0c 2f be 57 b1 12 3d eb 01 d3 bd f9 6c 86 3e
       -0.17094485 0.035813656 -0.103031 0.26255015
0002d0 e4 20 19 3f 20 aa 51 bc 96 f2 81 be b8 0d 89 3a
       0.5981581 -0.012796909 -0.2538039 0.0010456359
0002e0 ba 8c d4 3e ab a7 f5 bd 71 58 45 be dd 6e 08 3e
       0.41513616 -0.11994871 -0.19272019 0.13323541
0002f0 58 e7 7a 3b bd 48 ca 3c 92 ae 66 bb 98 c1 59 bd
       0.0038284864 0.024692887 -0.0035199267 -0.05316314
000300 d0 00 50 bd f9 85 00 3e c9 64 d2 3d ff 73 2b bb
       -0.050782025 0.12551107 0.102731295 -0.0026161668
000310 f3 b8 22 be 5a a9 38 3e 1d 6d 13 be 5a 57 e8 3b
       -0.15890865 0.18033352 -0.14397092 0.0070904912
000320 e0 db 17 3e 00 2f 08 3e 92 8f 8a 3e 61 e3 a5 3e
       0.1482997 0.13299179 0.2706266 0.3240004
000330 92 09 b0 3e 8b 6d 92 be 29 10 ad be 86 37 8d 3e
       0.34382302 -0.285992 -0.33801392 0.27581424
000340 d3 63 40 3e 79 5c 2f 3e 29 64 11 be 5b b0 c6 3d
       0.1878808 0.1712512 -0.14198364 0.09701606
000350 24 28 0f 3e 68 d0 2a be 0d aa 8d 3e b1 86 ca 3d
       0.13980156 -0.16681063 0.276688 0.098889716
000360 30 e8 84 3e a2 c4 90 3d e8 bb 4a 3a c7 b4 a8 3c
       0.25958395 0.07068755 0.00077336887 0.020594014
000370 fb 55 5b be 82 d8 65 3e f6 4e 0c 3e 4d 5b ba 3d
       -0.21419518 0.22445872 0.13701996 0.090994455
000380 22 e4 df 3e 1b 8f 74 be 45 81 82 be f8 a9 6a be
       0.4372874 -0.23882715 -0.2548925 -0.229164
000390 38 5e 89 be 50 dc 0c 3e 10 3b 9a bd f0 bb 7f 3d
       -0.26829696 0.13755918 -0.075307965 0.06243509
0003a0 56 8a e1 3c 5f 9a 47 3e 99 db 1c 3e c1 27 21 3e
       0.027531784 0.19492482 0.15318145 0.15737821
0003b0 da 7c e7 3e 5b 20 0a be f5 95 0b bd 65 76 f1 3e
       0.45212442 -0.13488905 -0.034078557 0.4716064
0003c0 a0 9f bb bd b6 d9 56 3e 17 1e d9 3e 16 82 5c 3e
       -0.091613054 0.20981488 0.4240577 0.21533999
0003d0 be 5f dd bd a5 c2 99 3d 69 b2 ec bd 7d 9c 24 3e
       -0.10809277 0.075078286 -0.115574665 0.1607532
0003e0 09 1c 47 3e 7b 0e d1 bd 66 28 bc bd ad 59 3a 3d
       0.19444288 -0.1020784 -0.09187393 0.045495678
0003f0 3c fb 9f 3a 8b d8 dd 3d 91 20 a8 3d 47 7b ca be
       0.0012205611 0.10832318 0.082093365 -0.39547178

model/conv1d_12/Conv1D f4 [16, 1, 5, 20]
000000 37 2b 62 3e 48 57 0b 3d 5a 64 19 be 2d 23 f5 3d
       0.22086798 0.034018785 -0.14979687 0.119696
000010 ea c4 d1 bc e0 2a 17 bd 74 d4 0c bd e1 9d 97 3e
       -0.025606591 -0.036906123 -0.0343823 0.2961264
000020 1a 2e fa bd f0 c1 9e 3b 3a 61 23 3e 5c cd 13 bd
       -0.122158244 0.0048448965 0.15955058 -0.036084518
000030 bd 4d 09 bc 35 2a 06 3e 68 1b 45 bc ee eb 41 be
       -0.008380351 0.13102038 -0.01203046 -0.18937656
000040 aa 60 2c be 31 c9 65 3e 1c ae 09 bd 14 9e b0 bc
       -0.1683375 0.2244003 -0.03361331 -0.021559753
000050 c4 8c 40 3e 81 ab 80 3e f2 74 11 3d 80 e1 e3 3d
       0.18803698 0.25130847 0.03551192 0.11126995
000060 58 65 8b 3e 18 e6 13 3e 51 c7 dc bd c2 72 9a 3e
       0.27225757 0.14443243 -0.10780204 0.30165678
000070 16 2e 35 bc f3 f1 63 bc 44 f7 ab bd ae 88 61 3d
       -0.011058351 -0.013912666 -0.083967716 0.05506199
000080 af 6b 19 be 6c 0e c3 bc 3c 3d 1a 3e 0c 62 17 3e
       -0.14982484 -0.023810588 0.15062422 0.14783496
000090 36 f4 35 bc b2 d7 f8 bc d1 bb c6 3d 84 cc 8e 3b
       -0.011105588 -0.030376289 0.09703792 0.0043578763
0000a0 5b e5 94 bd 49 22 56 3e 17 54 94 bd a7 97 88 bc
       -0.072703086 0.20911516 -0.07242601 -0.016673876
0000b0 9a 16 1f 3e 08 31 8c 3d 55 20 94 3e 53 c2 4f be
       0.15535966 0.068452895 0.28930917 -0.20288973
0000c0 c5 62 c8 3e 0e e3 3e be f8 13 cf bd 20 be e5 3d
       0.39137855 -0.18641302 -0.101112306 0.11217904
0000d0 83 b1 13 3d f5 58 83 3e 2a 04 e6 3e 3f 61 9a be
       0.03605796 0.25653806 0.44925052 -0.30152318
0000e0 41 6f 46 be 6c 85 cb 3d f3 20 8b 3e fe 92 8d 3b
       -0.19378377 0.099375576 0.27173576 0.0043205013
0000f0 6b 29 e4 bc c8 25 31 3e 9c c8 37 be 72 71 8e 3e
       -0.02785178 0.17299569 -0.1794762 0.27820927
000100 46 a4 4a 3d f4 af d7 bd 2f 83 23 3e 1f 1a 32 3e
       0.04947307 -0.10531607 0.15968011 0.17392777
000110 10 0d 40 3c d8 5d 5e bc 8c 14 87 bd 26 c7 81 3e
       0.011721864 -0.013572179 -0.06595716 0.2534725
000120 41 31 e9 3d b5 0e 69 bd 0b 98 c5 3e 59 40 10 3d
       0.113863476 -0.05689879 0.38592562 0.035217617
000130 ba a8 21 3d b8 08 ac bd 7e 29 ef bc db 12 cd 3d
       0.03946755 -0.084001005 -0.02919459 0.10013362
000140 23 b4 a2 bc a2 e4 65 3e e0 79 ce bd f3 9c 21 be
       -0.019861287 0.22450498 -0.100818396 -0.15782528
000150 98 f9 d0 3d d0 7c e0 3e b8 88 40 bd 6c 31 0a 3e
       0.10203856 0.43845224 -0.047005385 0.13495415
000160 23 47 b3 3b 4d bd 32 3e 29 2b ac 3e fd 22 ef 3b
       0.0054711266 0.17455025 0.3362668 0.007297872
000170 67 c1 87 3e 72 c7 50 bc 8c 77 81 bd 47 79 18 be
       0.26514742 -0.012742864 -0.0632163 -0.14890014
000180 17 d6 39 3e af e8 4f 3e ec 90 5f 3e ec 29 d1 3e
       0.18148075 0.20303605 0.21832627 0.40852296
000190 10 62 74 3e c3 dc 23 3e 6d b6 4c 3e a7 72 94 3e
       0.23865533 0.16002183 0.19991465 0.28993723
0001a0 95 76 82 3d b8 9f 74 3e ed c5 03 3e a8 2d a7 3d
       0.06370274 0.23889053 0.12868471 0.08163005
0001b0 cc fd ad 3d 1d 4c 28 bd 71 9d 57 bd 7c 22 57 bd
       0.084956735 -0.041088212 -0.052640382 -0.05252312
0001c0 a8 a3 e7 3c c9 d6 05 bd b1 57 d0 3e 61 87 23 3e
       0.02827628 -0.03267554 0.40691903 0.15969612
0001d0 e4 08 16 3e d1 45 ff 3d 31 08 06 3e 04 4f 15 3e
       0.14651829 0.12464488 0.13089062 0.14580923
0001e0 ff a1 21 be d7 a7 36 3d e7 23 b3 bd fc 2e 00 3e
       -0.15784453 0.04459366 -0.08747082 0.12517923
0001f0 fa d3 8e 3e 89 71 c1 3e 25 14 50 be 17 3e 83 3e
       0.278961 0.37781933 -0.20320185 0.25633308
000200 87 45 8e bd 7d be b8 3d 29 42 8a 3e 11 d6 fc 3c
       -0.06946855 0.09020708 0.270036 0.030863794
000210 3a 24 33 3e 50 47 99 3d a5 fa 94 3d 02 d3 18 be
       0.17494288 0.07484305 0.07274369 -0.14924243
000220 db 36 e3 3d 7e 7a 41 3d db b2 44 bd 11 c8 68 3d
       0.11094447 0.04723596 -0.048022132 0.056831423
000230 e6 07 a0 3d a5 d9 17 3e 08 c1 02 bd c9 73 39 3c
       0.078140065 0.14829119 -0.03192237 0.011319109
000240 d5 be ac bc 29 12 c3 3e 13 2c 50 3e c5 93 41 3d
       -0.02108709 0.38099793 0.20329313 0.047260065
000250 23 8f 79 3d 15 b1 f2 bc fc 3b a3 3c e2 f0 e3 3d
       0.06092752 -0.029625455 0.019926064 0.11129929
000260 41 69 74 3d d1 c0 ac be 28 eb 05 3f 17 cd ed 3c
       0.05967069 -0.33740857 0.52311945 0.029028459
000270 6a 54 17 be d1 3b cf 3d 5a 57 11 be 11 f6 ab bd
       -0.14778295 0.10118831 -0.14193478 -0.08396543
000280 25 7f 12 3e 21 37 62 bd 42 9c 9c 3e df ed 93 3d
       0.14306314 -0.055228356 0.30587965 0.07223105
000290 8c df 28 3e 07 7e 32 3e 06 f6 b0 3e 2c 3e c3 bd
       0.16491526 0.17430888 0.345627 -0.09533343
0002a0 83 7f 1e 3e 90 60 a5 3d 0d 95 21 bd f1 cb 48 be
       0.1547833 0.080750585 -0.039448787 -0.19609047
0002b0 4e d9 d6 bd bc e8 c5 bd 55 74 4f bd 08 a4 f7 3d
       -0.10490666 -0.09663531 -0.050648052 0.12091833
0002c0 ad 75 23 3e 6c 29 e0 3d 3e 81 91 bd 40 5d 1b bd
       0.15962858 0.109454006 -0.07104729 -0.037930727
0002d0 d3 39 1b 3f e6 29 09 3d 03 34 35 be ad 60 f3 3d
       0.6063511 0.033487223 -0.17695622 0.11883674
0002e0 39 34 af bd 6b 01 ed bc 5c 16 6d be 9d 6f b3 3e
       -0.085548826 -0.02893134 -0.2315306 0.35046092
0002f0 48 eb 28 be 98 73 2d 3e 8d 06 e1 bd 69 36 ca bd
       -0.16496003 0.16938627 -0.109875776 -0.09873659
000300 df 77 c8 3a 38 47 f8 bc bc ca f1 3d 20 50 a8 3e
       0.0015294513 -0.030307397 0.11806247 0.3287363
000310 6c 8f 87 3d 96 1c bc 3d 7c f6 20 bc 0d de 41 3d
       0.066191524 0.0918514 -0.009824391 0.047330905
000320 ad f2 11 be 36 fe 26 be 53 56 3c 3e 39 10 04 be
       -0.1425273 -0.16307911 0.18392305 -0.12896813
000330 49 d1 60 be b3 d3 8c be 7d a0 aa 3c 0e 51 58 3e
       -0.21954836 -0.27505264 0.02082848 0.2112467
000340 fa c4 0a 3d 30 22 17 3d 9e a2 34 bd 21 85 4e be
       0.033879258 0.036897838 -0.044100396 -0.20167972
000350 c6 2b 75 3d c5 a1 ea bd 7d e8 63 bd 98 19 4d 3d
       0.0598562 -0.11456636 -0.05564164 0.050073236
000360 34 dc c5 bd 06 54 36 3e ac 1d fe bd c5 4c 1e 3e
       -0.09661141 0.1780549 -0.12408003 0.15458973
000370 9b 0a 6a 3e 44 c4 a1 bd e2 13 4b 3e e8 cc d9 3c
       0.22855608 -0.07898763 0.19831803 0.026586965
000380 ea 9f 6a 3e f1 2e 99 bd f7 a5 18 be b2 c8 23 3e
       0.22912565 -0.074796565 -0.1490706 0.15994528
000390 a2 67 76 3e d7 b1 03 bd 74 c6 0d be c8 1b 56 be
       0.2406297 -0.032152023 -0.13845235 -0.20909035
0003a0 eb 25 08 be 2d 71 87 3e 9c 43 27 3e 97 22 af 3e
       -0.13295715 0.26453534 0.16334385 0.34206077
0003b0 40 21 c9 3d d2 dc 9f 3e 94 1c 83 3a 25 dc 46 3d
       0.09820795 0.3122316 0.0010003024 0.04854979
0003c0 28 cd a5 3e 8f 74 7b 3d 99 35 d2 bd 3e ea 36 3d
       0.32383084 0.061390456 -0.10264129 0.044656985
0003d0 23 52 81 3e 93 cc 20 3e 66 0c 0a ba 73 d1 d9 3d
       0.25257978 0.15703039 -0.000526613 0.106356524
0003e0 01 68 83 3d 99 92 c7 bd c6 e9 37 be 91 c2 ad 3e
       0.064163215 -0.09744758 -0.17960271 0.33937505
0003f0 4d 9a 8a 3d d4 4d 14 3e 1a dd df 3d a8 96 a3 3e
       0.06767712 0.14482814 0.10930844 0.3195088

model/conv1d_13/Conv1D f4 [16, 1, 7, 20]
000000 98 4f 72 3d 55 62 01 be ae b0 2a 3e 7d 2d b0 bc
       0.059157938 -0.12635167 0.1666896 -0.021506066
000010 cd 57 f7 bc 4c 9a 41 bd b0 24 29 be 1d 74 27 3e
       -0.030193234 -0.04726629 -0.16517901 0.16352887
000020 fe 67 f0 bd 27 3b ff 3c 31 33 3e be 65 78 21 be
       -0.11738585 0.031156136 -0.18574215 -0.15768583
000030 32 fb 4d be de ee 55 be b3 81 26 3e 68 4b 73 3e
       -0.20115355 -0.20891902 0.16260414 0.23759234
000040 62 40 51 3e b6 94 bc bc be 56 01 be 93 36 8a 3c
       0.20434716 -0.02302013 -0.12630746 0.016871726
000050 58 55 ad 3e d6 15 57 3e c8 c9 66 bd 91 33 08 be
       0.33854175 0.21004423 -0.056344777 -0.13300921
000060 8d 83 dd 3d a4 e9 10 bd 3d 61 1b 3e af cc c4 3b
       0.10816107 -0.035379067 0.15173812 0.0060058455
000070 c6 41 b4 3e 56 74 6b bc 7f aa 42 be 67 5d db 3d
       0.3520643 -0.014370998 -0.19010352 0.107111745
000080 d9 7b c6 bd c1 28 1a 3e 81 d1 33 3e ed b7 2a 3c
       -0.09691591 0.15054609 0.17560388 0.010419828
000090 b8 67 b1 3d e2 f1 07 3d 76 fe 8a 3e 06 55 1b be
       0.08662361 0.03318966 0.27147263 -0.15169153
0000a0 d3 a7 7a 3e 0e 4c 0f 3d 37 17 7b bd cd d6 c3 3d
       0.24478082 0.03498464 -0.061301436 0.095624544
0000b0 63 51 25 bd ad 1a de 3a 26 ba 7b 3e e1 be 9a 3d
       -0.04036082 0.0016945206 0.24582729 0.075559385
0000c0 4e a7 93 3d f3 f2 03 3b 46 96 32 be 57 03 82 3b
       0.07209645 0.0020133823 -0.17440137 0.0039676833
0000d0 cf ac 09 be 20 39 98 3d 67 4f c1 3d 25 1a ac be
       -0.13444827 0.07432771 0.09438973 -0.33613697
0000e0 e9 3c 0d bf 1e a2 68 3e 52 d9 69 3e 8d 0c 1e be
       -0.55171067 0.22718093 0.22836807 -0.15434475
0000f0 f6 92 47 3e 00 56 10 3e 03 d9 7d be 69 af d4 bd
       0.19489655 0.14095306 -0.24789815 -0.10385019
000100 64 28 ee 3d f6 ae 3e be 79 cc cc bc 92 87 37 bd
       0.11628798 -0.1862143 -0.024999844 -0.044807024
000110 e0 06 37 be b7 46 db 3d c4 21 84 3d c1 21 a9 3d
       -0.17873716 0.10706847 0.06451753 0.08258391
000120 a6 09 77 3d 34 83 b0 3e b2 9c 80 3e fb 1c 19 3e
       0.060311936 0.344751 0.2511955 0.14952461
000130 9a 62 ad 3e e0 cc 57 3e 9b 0e 2f 3e 33 e0 86 3e
       0.3386429 0.21074247 0.17095415 0.26342925
000140 40 97 c1 3d 45 16 89 3e ab 0c 11 be a9 4a 71 3d
       0.09452677 0.26774803 -0.14164989 0.058909092
000150 01 9d 05 3e bb 8d fc 3d 60 f3 a9 3e aa 5b 09 be
       0.13048173 0.123317204 0.33193493 -0.13413873
000160 fc 5e d3 bb 8b 45 46 bd bf 75 35 3e e7 0f 86 3e
       -0.006450532 -0.048406165 0.17720698 0.26184008
000170 ad b6 45 3e 46 98 8d 3e 3a 62 97 3d 02 26 81 be
       0.19307967 0.27655238 0.07391782 -0.2522431
000180 bb 0d 57 bd 72 25 af 3d 9c ea 01 be e4 43 9f 3d
       -0.05250333 0.08552064 -0.12687153 0.07776621
000190 08 c8 09 be 99 5c 2e bd cc 83 80 be 91 86 72 be
       -0.13455212 -0.042568777 -0.25100553 -0.23684146
0001a0 2f cb 4b be 3d 45 65 be 39 16 eb bd a9 88 1f 3d
       -0.19901727 -0.22389694 -0.11478848 0.03894869
0001b0 63 3e bd bd a4 8f e9 3d 1b 99 a5 bd 80 0d 9f bd
       -0.09240415 0.114043504 -0.08085843 -0.07766247
0001c0 da 9c 84 3d cb 55 df 3a e4 b0 38 3e 43 b3 40 be
       0.064752296 0.0017039118 0.18036228 -0.18818383
0001d0 10 39 29 be 1c b4 30 bd 52 cd 2a be 0c ea 15 bd
       -0.16525674 -0.043140516 -0.16679886 -0.036600158
0001e0 08 97 9d 3c df e6 9f bd 51 01 0c be 4e 75 3c 3e
       0.019237056 -0.07807707 -0.13672377 0.18404123
0001f0 5e eb 9a bd 65 14 81 bd ec e7 a4 bd fa 30 46 be
       -0.07564424 -0.06302718 -0.08052048 -0.1935462
000200 44 84 d3 3c 52 df 0a bd 40 9b 76 bc c0 aa 0e be
       0.025819905 -0.03390438 -0.015051663 -0.13932323
000210 0c 70 10 3e 81 ef 54 3e e2 79 09 3e 3f 48 2d be
       0.14105242 0.20794488 0.13425401 -0.16922091
000220 cc fc de bd b9 43 f8 3d 36 b6 ab bd 71 a2 b3 bd
       -0.10888061 0.12122292 -0.08384363 -0.087712176
000230 75 36 bf 3d 8e 38 ac 3d 6f 03 f8 bd 87 e8 36 3b
       0.09336559 0.084092245 -0.1211003 0.0027909593
000240 43 fb 61 3e 10 3a a3 3e a9 37 79 3e eb 49 2e 3e
       0.22068505 0.31880236 0.24337639 0.17020385
000250 c4 08 91 bc 74 93 e5 3d c3 c5 67 3e 69 4e a7 3d
       -0.017704375 0.11209765 0.22634034 0.081692524
000260 0e 16 91 3e a3 11 96 3e c8 68 87 3e ed 6b bf 3c
       0.2833714 0.2931033 0.2644713 0.023366893
000270 4b bb db 3d 35 b2 2e 3e 43 1e 27 3e 1e bc 60 3d
       0.10729083 0.17060168 0.16320138 0.054866903
000280 08 8c c5 3d e9 d9 7c be 0e ea 07 bb 1d 5a f9 3d
       0.096458495 -0.24692501 -0.0020738873 0.12175391
000290 bc eb 3d 3e dc a3 4d bd 14 6c 95 3d a4 c4 fc bc
       0.18546957 -0.050205097 0.07296005 -0.030855484
0002a0 5f df 40 be 74 3d 51 3e 95 77 16 3e 9e 13 35 be
       -0.1883521 0.20433599 0.14694054 -0.17683265
0002b0 82 ad 58 3e 9b 98 08 be 03 83 72 3d e5 73 14 be
       0.21159938 -0.13339464 0.059206974 -0.14497335
0002c0 55 3a 1c bd e3 0a 08 be 44 96 01 be b0 02 af 3e
       -0.038141567 -0.13285403 -0.12654978 0.34181738
0002d0 fb 5b 5c be 0f 36 86 3d f2 e2 e7 3d 22 90 ff bd
       -0.21519463 0.065532796 0.11322583 -0.12478663
0002e0 10 74 2f 3e 3e 4b e8 bd 3d fd 9a bd f3 ef ec 3d
       0.17134118 -0.11342476 -0.075678326 0.11569204
0002f0 50 25 b5 3d c8 6b 29 3d 9f 91 cd 3c a1 ce 4d bd
       0.088450074 0.041362554 0.025093852 -0.050245885
000300 77 16 ad 3d ab 04 3e 3e 7c 1c 91 b9 54 e7 3b be
       0.084515505 0.18556468 -0.00027677778 -0.18349963
000310 05 23 aa 3d 9c b4 52 3d 89 8c 97 3e 2a 7a 09 3e
       0.08307461 0.051441774 0.29599407 0.13425508
000320 9f 85 87 3d 21 ac e0 bd 7e a3 37 be d0 f8 52 be
       0.06617283 -0.10970331 -0.17933461 -0.20602727
000330 e9 9c 2d 3e c4 46 f8 3d c6 4a 75 3c 26 61 da bd
       0.16954388 0.121228725 0.014971441 -0.10663061
000340 80 45 35 bd 21 c1 25 bd 20 65 8e 3e 1f cc 0c bd
       -0.044255733 -0.040467385 0.27811527 -0.034374353
000350 11 1a 63 3e 9f a6 30 bc 2f 63 b4 3e b5 f0 36 3e
       0.22177912 -0.010781913 0.3523192 0.1786526
000360 af ad 54 be f1 b5 e4 3d fc 17 56 3c d2 8e 14 bc
       -0.2076938 0.11167515 0.013067242 -0.009067254
000370 02 ec 16 bb 16 2e 0f 3e e3 e4 72 3e 74 31 ea 3d
       -0.0023028855 0.13982424 0.23720126 0.11435214
000380 37 b8 89 3e cc 05 14 3e 71 f5 41 3e ae ab f5 bd
       0.26898357 0.14455336 0.18941285 -0.11995636
000390 9c d0 1e 3c b8 cd 87 3c 3d 44 13 3d 02 fc 68 3d
       0.009693291 0.016577587 0.03595375 0.05688096
0003a0 76 69 aa 3d 24 4a 2b 3d 61 1b fb 3d 70 05 4b 3d
       0.08320896 0.041818753 0.122610815 0.049565732
0003b0 33 68 a0 3d 41 69 be bd 89 cf 8e 3d 48 ea 40 3e
       0.078323744 -0.09297419 0.06973178 0.18839371
0003c0 18 19 4d be e8 6d 1d be 44 54 c2 3d 52 69 b4 bd
       -0.20029104 -0.15373957 0.09488729 -0.08809151
0003d0 5e 27 58 3d f9 44 4b be 94 84 31 be cf 97 88 3d
       0.05277192 -0.1985053 -0.17335731 0.0666958
0003e0 9a 2e d0 bd 15 39 b2 3e 9f e5 0e 3e 59 4e 20 be
       -0.101651385 0.34809175 0.13954781 -0.15654887
0003f0 2c 6a d0 3d 22 31 80 3e 0f dd 0c bd 3f 22 06 be
       0.10176501 0.25037485 -0.034390505 -0.13099001
