results/fold_3/checkpoint/my_netTCR_model_fold_3.tflite (tflite, 406736 bytes, 73 tensors)

model/conv1d_10/BiasAdd/ReadVariableOp f4 [16]
000000 b3 b4 81 be 9e ec 37 be a4 42 6f be 68 87 94 bd
       -0.25333175 -0.17961356 -0.23365265 -0.07252389
000010 19 7f bf bd 9d 75 e3 bd 37 7a 73 be a4 ca 1a be
       -0.09350414 -0.11106417 -0.2377709 -0.15116364
000020 e4 7a 0a be 96 ea 19 be 4b d4 ec bd 24 78 9c bd
       -0.13523442 -0.15030894 -0.11563929 -0.076401025
000030 e1 4d 22 be 7a 9b db be 82 17 2f be c4 3a 9c bd
       -0.15850021 -0.42892057 -0.17098811 -0.07628396

model/conv1d_11/BiasAdd/ReadVariableOp f4 [16]
000000 15 a1 91 be 66 97 21 be 8f 21 4d be 28 8d 73 be
       -0.28443208 -0.1578041 -0.20032333 -0.23784316
000010 fb d8 5d be 74 66 b2 be 73 a1 ce bd 97 e0 72 be
       -0.21664803 -0.3484379 -0.10089388 -0.23718487
000020 40 43 13 be 19 6c 3b be 5b e5 8d bd 47 1c 40 be
       -0.14381123 -0.18302955 -0.06928512 -0.18760787
000030 84 80 66 be d4 eb 3b be d5 fb 5f be e9 bf 49 be
       -0.22509962 -0.1835168 -0.2187341 -0.19702114

model/conv1d_12/BiasAdd/ReadVariableOp f4 [16]
000000 26 8a 77 be e1 dd fd bd e7 ec 49 bd 3a 25 08 be
       -0.24173793 -0.12395836 -0.049298193 -0.13295451
000010 74 95 62 be 80 8a 7e be 0d bc 48 be d4 63 33 be
       -0.22127324 -0.24857521 -0.19602986 -0.1751855
000020 f0 03 a8 be 11 70 63 be e7 4f d7 bd 0e 56 37 be
       -0.32815504 -0.22210719 -0.10513287 -0.17903921
000030 80 4c ad bd d7 fe 3a be e3 b5 75 be ad 39 97 bd
       -0.08461857 -0.18261276 -0.23995166 -0.07384048

model/conv1d_13/BiasAdd/ReadVariableOp f4 [16]
000000 e3 34 7e bc c4 af 36 be a8 80 6b be 11 f3 31 be
       -0.015515539 -0.17840487 -0.22998297 -0.17377879
000010 6a dd bd bd 62 70 3a be 49 c4 7d be 58 bf 11 be
       -0.09270747 -0.18206933 -0.24781908 -0.14233148
000020 0a 4a d2 bc 63 d2 0c bd af 16 42 be d0 56 85 be
       -0.02567007 -0.034380328 -0.18953966 -0.26042795
000030 25 ac 3e be 55 22 6d be 56 d0 5a be a7 44 26 bd
       -0.18620355 -0.23157628 -0.21368536 -0.040592816

model/conv1d_14/BiasAdd/ReadVariableOp f4 [16]
000000 a2 e9 21 be c9 95 0b be 3b 5a 9e be f8 64 0e be
       -0.1581178 -0.13631357 -0.30928215 -0.13905704
000010 e7 9e 0d be 9d d2 25 be ee 32 0b be b3 06 62 be
       -0.13830148 -0.16193624 -0.13593647 -0.22072868
000020 b2 4e 75 be 18 d5 7b be 12 8c 4f be 0c 49 d0 bd
       -0.23955801 -0.24593008 -0.20268276 -0.101701826
000030 93 8a 94 bd 1d 67 84 bd bf cc 67 be 69 6c 38 bd
       -0.072529934 -0.0646498 -0.22636698 -0.045025263

model/conv1d_15/BiasAdd/ReadVariableOp f4 [16]
000000 d0 39 32 be 59 66 f3 bd c6 22 34 be 48 03 88 be
       -0.17404866 -0.11884756 -0.1759139 -0.26565003
000010 48 45 61 be d8 16 27 be 7e 95 3d be 19 1c 54 be
       -0.21999085 -0.16317308 -0.18514058 -0.20713843
000020 0a be 49 be af ea 95 be 9c c8 5a bc d0 95 49 be
       -0.197014 -0.29280612 -0.013353493 -0.19686055
000030 ad 22 7b be 64 5c 9b bc 6b b5 58 be a6 5e a1 bd
       -0.24524947 -0.018964954 -0.21162955 -0.07879381

model/conv1d_16/BiasAdd/ReadVariableOp f4 [16]
000000 48 1f ac bd ce 63 6f be 80 f2 a2 be 55 dc 32 be
       -0.08404404 -0.23377916 -0.31825638 -0.17466862
000010 53 78 54 be 0d a9 7e be 3f a1 3b be 31 2a f7 bd
       -0.20749025 -0.24869175 -0.18323229 -0.12068594
000020 88 5c 07 be 86 59 9e be 8a 0d 4b be c6 10 4b be
       -0.13218892 -0.30927676 -0.19829383 -0.19830617
000030 33 4b 29 be 6d ba ae bd 42 b4 16 be 33 ac 47 be
       -0.16532592 -0.08531652 -0.147172 -0.19499283

model/conv1d_17/BiasAdd/ReadVariableOp f4 [16]
000000 ff 3c d5 bd e3 9f 58 be b9 a0 33 be d2 ee 9e be
       -0.10412025 -0.21154742 -0.1754178 -0.3104158
000010 50 36 11 be 62 eb 8e be df 9a 4b be 8a c1 2c be
       -0.14180875 -0.27913958 -0.19883297 -0.16870704
000020 5f f0 83 be 52 17 83 be 1b a5 74 be 73 95 45 be
       -0.25769326 -0.2560373 -0.23891108 -0.19295292
000030 fe 6f 7a be 91 19 5d be 49 95 3c be 45 7e 85 be
       -0.24456784 -0.21591784 -0.18416323 -0.26072899

model/conv1d_18/BiasAdd/ReadVariableOp f4 [16]
000000 fb e8 cf bd df 4a 1a be fe e9 7a be 76 9e 80 be
       -0.101518594 -0.15067624 -0.24503323 -0.25120896
000010 f4 c1 73 be 8a 4c 89 be 37 f5 50 be ae 9f 9f be
       -0.23804456 -0.26816207 -0.20406042 -0.31176513
000020 5d a3 11 be 41 87 68 be 07 5a 73 be a8 60 3c be
       -0.14222474 -0.22707845 -0.23764811 -0.18396246
000030 be 1e 54 be c3 0d 29 be 6c fb 66 be 44 4a 6c be
       -0.20714852 -0.16509156 -0.22556847 -0.23075205

model/conv1d_19/BiasAdd/ReadVariableOp f4 [16]
000000 4e ae 25 be 5a 35 24 be 07 3a c7 bd e4 6b a5 bd
       -0.16179773 -0.16035977 -0.09727865 -0.08077219
000010 28 72 66 be 3b b3 42 be 77 67 2e be f0 c7 83 be
       -0.22504485 -0.19013683 -0.17031656 -0.25738478
000020 ef 51 8b be 69 15 65 be 1b 13 db bd c1 fa 3d be
       -0.27210948 -0.22371449 -0.106970035 -0.18552686
000030 b0 95 9c be 13 4b 90 be 17 02 73 be 4c 53 f0 bd
       -0.30582952 -0.28182277 -0.23731266 -0.117346376

model/conv1d_20/BiasAdd/ReadVariableOp f4 [16]
000000 93 9f 3b be a8 a7 f4 bd 66 28 47 be 04 62 6e be
       -0.18322591 -0.119460404 -0.19449005 -0.23279577
000010 94 d9 2a be 5a 52 89 be 2b 76 27 be 9b 50 08 be
       -0.16684562 -0.26820642 -0.16353671 -0.13311999
000020 cc 87 3c be f3 19 e5 bd b0 0c b3 bd 0c 53 1d be
       -0.18411177 -0.1118659 -0.08742654 -0.15363711
000030 bb 54 21 be fc 80 2b be 9b 0b 19 be c4 75 d3 bd
       -0.15754978 -0.16748422 -0.14945833 -0.103251964

model/conv1d_21/BiasAdd/ReadVariableOp f4 [16]
000000 7b 31 42 be 00 89 a1 bd e4 ea 2a be 1a d5 b3 bd
       -0.18964188 -0.07887459 -0.16691166 -0.0878088
000010 dc aa 29 be 57 24 72 be f3 32 b5 bd 34 6c df bd
       -0.16569084 -0.23646675 -0.088476084 -0.1090931
000020 22 80 fa bd d7 92 71 bd a4 59 3c be 90 f6 12 be
       -0.12231471 -0.058977928 -0.1839357 -0.14351869
000030 bd 0d 1e be eb ee 7c be 9b 07 14 be 86 ce da bd
       -0.15434928 -0.24700515 -0.14456026 -0.106839225

model/conv1d_22/BiasAdd/ReadVariableOp f4 [16]
000000 d6 33 72 bd 8f 3a 0b be 3d 26 d1 bd 25 8a da bd
       -0.059131466 -0.13596557 -0.102123715 -0.1067088
000010 e1 0d 13 be db 50 bb bd 4a 9f e6 bc c0 74 fc bd
       -0.14360763 -0.09146281 -0.028152127 -0.12326956
000020 1c 01 cd bd ba 82 08 be 41 49 18 be 5f 99 7d bd
       -0.10009977 -0.13331118 -0.14871694 -0.061913844
000030 2f 1b 40 be eb a6 1a bc 20 5c 5e be 5b 4c f0 bd
       -0.1876037 -0.00943921 -0.2171483 -0.11733314

model/conv1d_23/BiasAdd/ReadVariableOp f4 [16]
000000 b2 5d ad bd 57 11 e9 bd a7 f4 44 bd 28 1d 36 be
       -0.084651366 -0.113802604 -0.04808488 -0.1778456
000010 ad 67 60 bd f3 24 c2 bd af df 61 bd 56 02 ab bd
       -0.054786373 -0.09479704 -0.055144962 -0.08350055
000020 2f b2 55 be 17 4c f4 bd 82 52 28 be 08 1e 14 be
       -0.20868753 -0.119285755 -0.16437724 -0.14464581
000030 70 16 37 be f4 92 d9 bd 06 ec d3 bd 3a a2 39 bd
       -0.17879653 -0.10623732 -0.10347752 -0.045320727

model/conv1d_24/BiasAdd/ReadVariableOp f4 [16]
000000 96 43 aa bd 8e 2a 98 bd b4 2f 2f be 0a 06 55 be
       -0.08313672 -0.07429992 -0.17108041 -0.20803085
000010 cc ec f9 bd b9 bf 10 be 97 ab 2f bd 88 e8 06 be
       -0.122033685 -0.14135636 -0.04288825 -0.13174641
000020 38 55 33 bd 89 68 43 be 2b 4f 83 be da 4d a7 bd
       -0.043782443 -0.19082846 -0.25646338 -0.08169146
000030 1c 92 97 bd f1 ce 03 be 43 06 34 be 9d 0f 3d bd
       -0.07400915 -0.1287191 -0.17580514 -0.046157468

model/conv1d_25/BiasAdd/ReadVariableOp f4 [16]
000000 e4 70 52 be ed b8 42 be 40 ca 4f be 18 0e 23 be
       -0.20550877 -0.19015856 -0.20291996 -0.15923345
000010 ac 22 94 bd 92 be 31 be 1a 3f 0a be 92 b1 1b be
       -0.07233176 -0.17357853 -0.13500634 -0.15204456
000020 1c 82 58 be 0d 3e f1 bc 16 20 20 be 18 68 23 be
       -0.21143383 -0.029448533 -0.1563724 -0.15957677
000030 d5 ea 0d be d4 55 1b be 71 14 e9 bd 19 c2 52 be
       -0.13859113 -0.1516946 -0.11380852 -0.20581855

model/conv1d_26/BiasAdd/ReadVariableOp f4 [16]
000000 4a 7d 51 be 5e 66 e6 bd 92 a1 19 be d2 c6 20 be
       -0.2045795 -0.11249994 -0.1500304 -0.15700844
000010 55 af 71 be e6 10 e0 bd bf cd 78 be 3b 33 06 be
       -0.2360204 -0.10940723 -0.24297236 -0.1310548
000020 87 76 1e be 8d 1a 6b be fd b8 8b be 45 b4 40 be
       -0.15474902 -0.22959347 -0.27289572 -0.18818767
000030 a6 b9 3c be 5c 0a fa bd 56 ba 30 be e1 ed 3c be
       -0.18430194 -0.12209007 -0.17258582 -0.18450119

model/conv1d_27/BiasAdd/ReadVariableOp f4 [16]
000000 cd 0d 64 be d4 ee 74 be 3e d3 f5 bd 98 1a 64 be
       -0.2227089 -0.2391923 -0.12003182 -0.2227577
000010 c4 e7 1b be 42 8c ae be cc 31 45 be 7c bd 12 be
       -0.1522513 -0.34091383 -0.19257277 -0.14330095
000020 d7 e5 34 be 3e 1f 69 be bc 0a 6e be 3c 71 39 be
       -0.17665802 -0.22765824 -0.23246282 -0.18109602
000030 2e f2 38 be 57 f5 4d be d0 49 f3 bd 68 6a 58 be
       -0.18061134 -0.20113121 -0.11879313 -0.21134341

model/conv1d_28/BiasAdd/ReadVariableOp f4 [16]
000000 40 6c c4 bd 9b e8 3e be ce 96 54 bd 50 c0 22 be
       -0.095909595 -0.1864342 -0.05190163 -0.15893674
000010 31 77 01 be 66 c7 4b be 5c 25 4f be c6 4b 79 be
       -0.12643124 -0.19900283 -0.20229095 -0.24345312
000020 2e ba 44 be 20 7f d2 bd 7e ca 67 bd 2d ee 8a be
       -0.19211647 -0.102781534 -0.056589596 -0.2713484
000030 e2 91 be bd f2 67 23 be 9c 12 2e be d2 05 f0 bc
       -0.09305169 -0.1595762 -0.16999286 -0.02929965

model/conv1d_29/BiasAdd/ReadVariableOp f4 [16]
000000 13 75 5e be 9f 18 27 be 42 d7 83 bd 55 ec 4f be
       -0.21724348 -0.16317986 -0.064375415 -0.20304997
000010 76 23 48 be 48 69 1c be 78 73 45 be 72 2f 04 be
       -0.19544777 -0.15274537 -0.19282329 -0.12908724
000020 a4 79 14 be 58 71 09 be 37 62 b6 bd 22 f6 75 be
       -0.14499527 -0.13422143 -0.08905452 -0.24019673
000030 b6 14 8b be 3e 84 fd bd c0 c5 4b be f8 ca 32 be
       -0.2716424 -0.12378739 -0.19899654 -0.17460239

model/conv1d_30/BiasAdd/ReadVariableOp f4 [16]
000000 0b c4 a1 be a9 35 10 be a1 8b 3e be 15 de 4e be
       -0.3159488 -0.1408297 -0.18607952 -0.20201905
000010 35 6f 49 be f8 d7 6e bd 4b a1 19 bd da 17 82 be
       -0.19671328 -0.058311433 -0.037507337 -0.25408822
000020 92 b1 59 be 68 23 80 bd 92 61 22 be 60 34 54 be
       -0.21259144 -0.06256753 -0.15857533 -0.20723104
000030 78 a4 66 be 0b b4 a6 bd 00 00 00 00 55 d0 5d bd
       -0.22523677 -0.08139809 0.0 -0.05415376

model/conv1d_31/BiasAdd/ReadVariableOp f4 [16]
000000 b0 e2 a4 be 4f be 63 be cc 0b a0 be e3 bd a0 be
       -0.322042 -0.22240566 -0.31259 -0.31394872
000010 06 4c 6a bd 8e ed 0a be 90 4c d8 bd fd 21 75 be
       -0.057201408 -0.13567182 -0.10561478 -0.23938747
000020 70 b0 18 be 90 d4 47 be a0 0a 9d be a2 87 15 be
       -0.14911056 -0.1951468 -0.3067217 -0.14602521
000030 cb 51 88 be 80 b2 50 be c3 5b b1 be ec 92 15 be
       -0.26624903 -0.20380592 -0.3464032 -0.14606827

model/conv1d_32/BiasAdd/ReadVariableOp f4 [16]
000000 80 b5 43 be cb 97 18 be 54 77 8b bd 9a c1 78 be
       -0.19112206 -0.14901654 -0.068098694 -0.24292603
000010 69 f7 5a be 29 b4 36 be fe 06 a7 bd d5 21 6d be
       -0.21383442 -0.17842163 -0.081556305 -0.23157437
000020 f9 63 45 be e8 08 44 be 36 a1 b2 bd 6d 4f 96 be
       -0.19276418 -0.19144022 -0.08722155 -0.29357472
000030 4f 2b 98 be 6d 38 6e be 00 03 e9 bd f3 2f 87 be
       -0.29720542 -0.23263712 -0.11377525 -0.2640377

model/conv1d_33/BiasAdd/ReadVariableOp f4 [16]
000000 dc 65 9e be e3 b0 d9 bd e2 18 00 be de ae fd bd
       -0.30937088 -0.106294416 -0.12509492 -0.12386869
000010 76 f4 df bd 0e 02 65 be 38 d2 7a bd 72 27 04 be
       -0.10935299 -0.22364065 -0.061235636 -0.12905672
000020 29 bc 63 bd ff 4a 1a be a7 da b2 bd ff 5c 93 be
       -0.055599365 -0.15067671 -0.08733111 -0.28781888
000030 26 91 6f be e4 df 09 be 80 98 7f be a2 e8 31 be
       -0.23395213 -0.13464314 -0.24960518 -0.17373899

model/conv1d_34/BiasAdd/ReadVariableOp f4 [16]
000000 34 cd 39 be e3 da 8f be 9d 41 5e be e7 48 77 be
       -0.18144685 -0.28096685 -0.21704717 -0.24148904
000010 98 e5 2e be 02 83 16 be 55 06 13 be f3 b5 1a be
       -0.1707977 -0.14698413 -0.14357884 -0.1510847
000020 7f 62 fe bd 42 47 66 be c0 35 af bd ea e5 c5 bd
       -0.124211304 -0.2248812 -0.08555174 -0.09662993
000030 4a f6 12 be 00 40 27 be 67 af 22 be 77 ed 8f bd
       -0.14351764 -0.16333008 -0.15887223 -0.07027715

model/conv1d_5/BiasAdd/ReadVariableOp f4 [16]
000000 0c eb af bd b7 e5 11 be 45 d7 05 be 5e 9d c5 bd
       -0.085897535 -0.14247786 -0.130704 -0.09649156
000010 23 9b 0e be 53 b5 1f bd 35 24 f3 bd 4a aa 48 be
       -0.13926367 -0.038991284 -0.1187214 -0.1959621
000020 eb 6a b3 bd ff 0e 26 be 30 b1 9e bd 5f 74 3c be
       -0.08760627 -0.16216658 -0.077486396 -0.18403767
000030 ea 58 b0 bd c5 58 7d be e8 e9 22 be 72 4c 0b be
       -0.08610709 -0.24740894 -0.1590954 -0.1360338

model/conv1d_6/BiasAdd/ReadVariableOp f4 [16]
000000 08 23 7a be 37 3d 1c be cb 75 83 bd 3a db 43 be
       -0.24427426 -0.15257727 -0.064189516 -0.19126597
000010 62 73 8b bd 75 20 80 be 09 50 d5 bd 37 ba 94 bd
       -0.06809117 -0.25024763 -0.10415656 -0.0726208
000020 3d 8a 05 be 88 b9 31 bd fa 73 2c be 8b e4 7f be
       -0.13041015 -0.043389827 -0.16841117 -0.24989526
000030 c6 f1 85 be ce 7f 36 be f7 09 74 be c9 11 9d be
       -0.2616102 -0.17822191 -0.23831926 -0.30677631

model/conv1d_7/BiasAdd/ReadVariableOp f4 [16]
000000 aa 1d ce bd 4c d7 2b be ca 77 21 be ce 9b 80 be
       -0.10064252 -0.16781348 -0.15768352 -0.2511887
000010 1c 49 fd bd e5 2c ce bd d8 6e 1d be b6 be 49 be
       -0.1236746 -0.10067157 -0.15374315 -0.19701657
000020 db 6e 40 be 56 88 01 be f1 4b 4a be 7b f0 36 be
       -0.18792288 -0.12649664 -0.19755532 -0.17865174
000030 c1 38 93 bb 98 3a 17 be dd 2e 50 be de b3 21 be
       -0.0044928496 -0.14768445 -0.20330377 -0.1579127

model/conv1d_8/BiasAdd/ReadVariableOp f4 [16]
000000 08 07 56 be 9c 21 24 be 32 7c 0c be 54 11 26 be
       -0.2090112 -0.16028446 -0.13719252 -0.16217548
000010 72 b2 40 be 8f af 7a bd 75 f8 61 be a5 d5 75 be
       -0.18818071 -0.061202582 -0.22067435 -0.2400728
000020 9e 15 25 be 54 bd 66 be 11 19 e1 bd c1 e5 fd bd
       -0.16121528 -0.2253316 -0.10991109 -0.12397338
000030 80 07 5e bd c3 7d 1f be 84 ae 2e be b9 1a 38 be
       -0.05420637 -0.15575318 -0.1705876 -0.17978944

model/conv1d_9/BiasAdd/ReadVariableOp f4 [16]
000000 20 f2 3f be 59 3b 5c be 00 e9 a5 bc e2 48 3c be
       -0.18744707 -0.21507014 -0.020252705 -0.18387178
000010 4d 0c 06 be 64 4a 6a be ae 31 6a be b4 0c 22 be
       -0.1309063 -0.2287994 -0.22870514 -0.15825158
000020 b0 97 2c be 37 a3 3c be 18 aa 16 be 77 71 66 be
       -0.16854739 -0.18421637 -0.14713323 -0.22504221
000030 06 2e 89 be ff b9 99 bd da b8 4a be 56 a7 07 be
       -0.26792926 -0.07506179 -0.19797078 -0.13247427

model/conv1d/BiasAdd/ReadVariableOp f4 [16]
000000 ef aa da bd 9e 62 2a bd ff 5f 1f be bc c0 a2 bd
       -0.10677134 -0.041597955 -0.15563963 -0.079469174
000010 eb 9e 5e be f3 d0 a2 bd 54 e8 d0 bd f7 c9 bf be
       -0.2174031 -0.0795001 -0.10200563 -0.37458774
000020 db 99 a3 be 50 ee 95 bd 00 d2 91 bd c7 c9 83 be
       -0.3195332 -0.07320845 -0.071201324 -0.2573988
000030 9c 18 2b be 26 88 3f be 58 51 82 be c3 61 ae be
       -0.16708606 -0.1870428 -0.25452685 -0.3405896

model/conv1d_1/BiasAdd/ReadVariableOp f4 [16]
000000 5f 9a a3 be 67 ab 53 bd 69 4b 87 be d1 cf 12 be
       -0.31953713 -0.051677134 -0.2642472 -0.14337088
000010 5c 5c 3c be f3 c2 50 be 9b 8b 87 be b7 79 0f be
       -0.18394607 -0.20386867 -0.26473698 -0.14011274
000020 58 7e 14 be 19 6f 55 be 7d c7 86 be 1a 0e 59 be
       -0.14501321 -0.20843162 -0.26324072 -0.21196786
000030 2c d9 6f be 9f fc a9 bd c2 20 ef be 6f 08 ac be
       -0.23422688 -0.08300137 -0.4670468 -0.33600184

model/conv1d_2/BiasAdd/ReadVariableOp f4 [16]
000000 28 58 8d bd dd 8f 9d be e5 c9 0e be bc df 5b be
       -0.0690158 -0.3077382 -0.13944204 -0.21472067
000010 54 c4 27 bd a9 43 41 be 06 40 17 be e2 81 05 be
       -0.040958717 -0.18873467 -0.14770517 -0.13037828
000020 bc 2f 38 be ab 0f fe bd e2 0d 91 be 62 90 83 be
       -0.17986959 -0.12405332 -0.28330904 -0.25696093
000030 97 6a a5 bd 44 ba 9f be ad 24 af bd 53 b0 4d be
       -0.08076971 -0.31196797 -0.08551917 -0.20086794

model/conv1d_3/BiasAdd/ReadVariableOp f4 [16]
000000 6e c5 3d be 86 20 95 be 71 e8 72 bd b3 55 82 be
       -0.18532345 -0.29126376 -0.059303705 -0.25456008
000010 f0 81 5c be 95 31 93 be 65 8e f1 bd 14 6f 68 be
       -0.21533942 -0.28748766 -0.11794738 -0.22698623
000020 c7 0b 8d be 60 75 6f be c6 9a 78 be da 7b ef bd
       -0.27548048 -0.23384619 -0.24277791 -0.11693545
000030 ac af 90 be ee 02 50 be 5a 73 a9 be f2 3d 89 be
       -0.28259027 -0.20313618 -0.3309582 -0.26805073

model/conv1d_4/BiasAdd/ReadVariableOp f4 [16]
000000 00 08 44 be 33 28 82 bd 41 e3 b4 bc 90 f9 56 be
       -0.19143677 -0.06355324 -0.02208102 -0.20993638
000010 0e a5 92 be 1e d0 34 be 42 4e 2b be 18 10 8a bd
       -0.28641552 -0.17657515 -0.16729072 -0.06741351
000020 fb 6c 82 be 50 d0 58 be 90 f2 59 be ce 84 80 be
       -0.2547377 -0.21173215 -0.21283937 -0.25101322
000030 54 15 7e be 9d d4 95 bd 63 fa 74 be e9 8e 19 be
       -0.24812824 -0.073159434 -0.2392364 -0.14995922

model/conv1d_10/Conv1D f4 [16, 1, 1, 20]
000000 8b 5a 8d 3e 50 55 3f 3c 30 ed 26 3e 46 a9 d7 3e
       0.2760814 0.011678055 0.16301417 0.42121333
000010 2e c1 d6 3d a0 9d 85 3e 00 ae d5 bd 9b 99 5f be
       0.10486065 0.2609682 -0.104335785 -0.2183594
000020 fe 80 39 be 49 bb 1d bd 70 79 8d 3e fd 1d 9f be
       -0.18115613 -0.038508687 0.27631712 -0.31077567
000030 57 33 cb bd 9f 7d 84 3d a4 0f ea 3e fa 50 af bd
       -0.09921902 0.06469273 0.45715058 -0.08560367
000040 96 ad 69 3d 13 90 32 be fb d5 44 be 2d 7b 66 be
       0.05705031 -0.17437772 -0.19222252 -0.22507925
000050 02 4b d6 3d a5 a0 38 be 20 c5 05 3d 59 16 29 be
       0.10463525 -0.18030031 0.032658696 -0.16512431
000060 1b fb a5 bc 99 0d 99 3c 30 bc e0 bd a9 61 8a 3d
       -0.020261338 0.018683242 -0.10973394 0.067569084
000070 19 3d 8b 3e 71 0a ba 3d 86 1f 48 3e 2d 37 4f 3e
       0.2719505 0.09084023 0.19543275 0.20235892
000080 fe cf 23 be f4 2a d6 3d 2f 53 cb bd 33 a2 13 3f
       -0.15997311 0.104574114 -0.099279754 0.5766937
000090 fc c4 7e bd b1 e0 83 be 28 c5 02 3d b5 34 c5 39
       -0.062199578 -0.25757363 0.031926304 0.00037614038
0000a0 2b f4 60 be df 2a 97 3e 4c f6 5f 3e 76 d3 a6 be
       -0.21968143 0.29524896 0.21871299 -0.32583207
0000b0 08 29 dc 3e 49 cf bd be b3 ab 59 3e 40 33 98 3e
       0.43000054 -0.3707221 0.21256904 0.297266
0000c0 fb 09 8b be 27 b4 84 be 5d b5 85 3e 08 2b a8 be
       -0.27156052 -0.25918695 0.26114932 -0.3284533
0000d0 de d3 c1 be 8c 45 11 3f 66 de 92 3e 38 05 f3 bd
       -0.37856954 0.56746745 0.28685302 -0.1186623
0000e0 1d 0a a4 3e 45 3e 01 3f 64 14 9d be 07 97 68 bd
       0.32038966 0.5048564 -0.3067962 -0.056784656
0000f0 58 e7 19 be 37 91 a5 be 1c b8 20 3e c0 18 9c 3e
       -0.15029657 -0.32337353 0.15695232 0.30487633
000100 bb bd 81 3e 95 ad 9e be a4 27 5e be e6 f1 74 3e
       0.25340065 -0.30991808 -0.21694809 0.23920402
000110 b4 70 6d 3c 12 f4 cd 3e 0c de ae 3e dd ce 2f bd
       0.014492203 0.40225273 0.34153783 -0.04292189
000120 e5 35 a3 3d 73 a9 81 3d 37 aa a5 3e 74 28 40 3e
       0.07969264 0.06331148 0.32356426 0.18765432
000130 54 1d b5 3e e9 90 f8 bd 74 4e d1 3e 2e 01 bb be
       0.35373938 -0.121370144 0.40880167 -0.36524338
000140 77 ee 5b be 57 ea 38 3c 39 80 11 be 4d 1a 6c 3d
       -0.21477686 0.01128634 -0.1420907 0.05764227
000150 ab 08 95 bd 67 73 47 be 37 96 c6 be fc b7 65 3c
       -0.07277044 -0.19477616 -0.3878648 0.014020916
000160 d6 dc 36 be 9a 29 89 3e f7 80 ba be e3 07 54 3e
       -0.1785768 0.26789552 -0.36426517 0.20706134
000170 3f 47 9c 3e 43 23 a4 be 7e 55 28 3f e2 ef ad bc
       0.30523106 -0.32058153 0.6575545 -0.02123255
000180 a2 1e 45 3e 60 eb eb 3e 96 c7 f0 bd df 25 90 bd
       0.19249967 0.46078014 -0.11756818 -0.07038473
000190 5e c2 6e be 3f 8b 74 3e 20 c8 20 3c 87 d4 37 3e
       -0.23316333 0.23881243 0.0098133385 0.17952166
0001a0 f7 e4 c3 3e 11 a7 e5 bd c2 17 5d be 50 ee 32 3c
       0.38260624 -0.11213506 -0.21591094 0.010921076
0001b0 34 5f 88 3c a6 de 73 be c4 ee a5 be c7 dd 9b 3d
       0.016646959 -0.23815402 -0.32408726 0.0761066
0001c0 b2 eb 87 3e 40 b6 03 3e 74 0f 09 3f d9 e8 09 3e
       0.2654701 0.12862492 0.53539205 0.1346773
0001d0 c6 69 6f be 69 ac c3 3d 93 6f 0e 3e 5a 7d 66 3e
       -0.23380193 0.09554369 0.1390975 0.22508755
0001e0 33 ed 84 be 93 8e 0b be 8b 30 60 be 0e 8f e9 bc
       -0.2596222 -0.13628606 -0.21893518 -0.028510597
0001f0 df 82 bf 3c c1 b6 bb be 7c 2d 84 3e 7e 55 2d 3e
       0.023377834 -0.36662868 0.25815952 0.16927144
000200 8a 9e 6b be f7 46 66 3c 56 84 f6 3d 92 f2 17 be
       -0.23009697 0.014055005 0.1203696 -0.14838627
000210 97 de 00 be 47 6b d7 3e ad 93 fb 3e 7b 9a 85 be
       -0.12584911 0.42074034 0.49136105 -0.26094422
000220 89 6c a4 3d e4 de 41 3e 29 84 17 3e 53 8b 11 be
       0.08028514 0.18932682 0.14796509 -0.14213304
000230 a6 46 8a bd 65 04 92 be 3f 50 2d 3d 9b 90 06 be
       -0.06751756 -0.28518978 0.042312857 -0.131411
000240 27 86 0c bd 33 60 60 be 35 80 df 3d d1 4f 53 3c
       -0.034307625 -0.21911697 0.109131254 0.012897448
000250 6d 42 a2 be 18 21 ce be d1 34 85 3e f1 8e 8c bd
       -0.31691304 -0.40259624 0.26016858 -0.068632014
000260 29 c1 e8 3c 86 85 4b be e7 d7 4a 3f 70 12 00 be
       0.028412418 -0.19875154 0.7923569 -0.12507033
000270 3f 66 36 3e 82 1c a7 3e 83 87 8a 3e da aa 13 bd
       0.17812441 0.32638937 0.27056512 -0.03605161
000280 cd 92 50 bd ac 6a 71 3e 68 ab 27 be b3 95 9d 3d
       -0.05092125 0.23575848 -0.1637398 0.076945685
000290 15 a4 f0 3d 2f 7f ae bd bf 37 b0 3e 37 2f 93 3e
       0.11750046 -0.08520352 0.3441753 0.2874696
0002a0 be cc 36 3e 1b 7c 99 3d 8e 83 48 3d bb f0 95 3e
       0.1785154 0.07494374 0.048953585 0.29285225
0002b0 c5 0f 52 be 7f a6 ec bd 98 92 82 3e 6c 76 08 be
       -0.20513828 -0.11555194 0.25502467 -0.13326424
0002c0 fe 07 64 be 9d 30 d4 3d 02 07 ab 3e 7f e7 67 3e
       -0.22268674 0.10360835 0.33403784 0.22646903
0002d0 4e 56 98 3d 85 28 7a bc b4 97 2c 3e 2b 0d bb be
       0.07438336 -0.01526845 0.16854745 -0.36533484
0002e0 cc fc 6c 3e 85 4b 40 3f d8 ce 30 3e 8a 51 6f 3e
       0.2314331 0.75115234 0.17266405 0.23370948
0002f0 83 af 53 3d 80 34 d1 bd 9c 2a cc 3c 6f 76 5d bd
       0.051681053 -0.10215092 0.024922661 -0.054068025
000300 e4 0c a2 3e a2 c5 9a be 67 6d 66 3e 8f 02 91 3e
       0.3165046 -0.30228907 0.22502671 0.28322265
000310 c6 e7 72 be c3 68 97 3e 4a 7d a7 3e b3 b3 e1 3d
       -0.23721227 0.29572114 0.32712775 0.11020603
000320 8b a9 5f be 0d 3a 17 3e e8 7e 7e be 69 51 90 be
       -0.2184202 0.14768238 -0.24853098 -0.2818711
000330 ad 20 10 3e 2f 35 7b 3e 8f b2 9c 3e 33 4e a9 3e
       0.14074965 0.24532007 0.3060498 0.33067474
000340 f2 ca 37 be 30 e9 3e 3e 18 a2 8c be 19 9b 32 3c
       -0.17948511 0.18643641 -0.27467418 0.010901236
000350 d3 84 07 bd 9a 2e fc 3c cd 7f 2c 3f 73 37 ab be
       -0.033085655 0.03078394 0.6738251 -0.33440742
000360 bf f7 aa 3e 7f 4c 77 3e a4 84 13 be fb 68 9c 3e
       0.3339214 0.24150275 -0.14406067 0.30548844
000370 36 cc 06 3f 25 fb 66 3e c9 ba 23 bf fc cf 32 3e
       0.5265535 0.22556742 -0.63956887 0.17462152
000380 94 1d 1e be 4b 78 5c be 7e 67 aa 3d 7d 95 9e 3d
       -0.1544097 -0.21530263 0.08320521 0.077433564
000390 a9 f3 c0 be 1a db 84 be 42 ab dc bd 23 b9 ca bd
       -0.37685898 -0.2594841 -0.10774852 -0.09898593
0003a0 50 35 a0 be cc 81 15 3f 0d 46 2a 3f 75 9f 0f 3e
       -0.31290674 0.5840118 0.6651314 0.14025672
0003b0 78 af 1c be 11 e4 1a be c5 8e 5d 39 ca 53 ce 3e
       -0.15301311 -0.15126063 0.00021129388 0.402983
0003c0 dc 72 c0 3e 5e 24 ec 3e c5 3c 78 ba ee 6a 41 3e
       0.3758763 0.46121496 -0.00094695046 0.18888447
0003d0 cf 6d 98 3d 4a c9 ca 3e c7 b6 1a 3f 50 5d 58 be
       0.07442819 0.39606696 0.60435146 -0.21129346
0003e0 51 fb 6d 3d 18 f0 9f be 71 55 94 3e 19 9f 68 be
       0.058101002 -0.31237864 0.28971437 -0.22716941
0003f0 57 8c 81 3e a0 c5 d2 3c 7e 0c 36 be bc 65 ac bd
       0.25302383 0.025729 -0.17778203 -0.08417842

model/conv1d_11/Conv1D f4 [16, 1, 3, 20]
000000 bc c6 a9 3e 03 cc 82 bd dc cc 5b 3d 26 0b a5 bd
       0.33159435 -0.063865684 0.053662166 -0.08058767
000010 fd 4d a4 3e 44 eb b0 3e cd cb bd 3c 14 e9 7b 3c
       0.3209075 0.34554493 0.023168469 0.015375394
000020 33 05 25 bd d9 7b ed 3e d8 fb bd 3e 7e 0c 2c 3e
       -0.04028816 0.4638355 0.37106204 0.1680164
000030 91 1c 04 3f 9c d1 65 3e 5a 7b 08 3b 7a 78 8d bd
       0.5160609 0.22443241 0.0020825476 -0.06907745
000040 d4 0b 8d 3e 17 09 0c bd ab 6c 70 3e b4 cf e5 3e
       0.27548087 -0.034188356 0.23478954 0.44885027
000050 6c 02 c0 bd 73 6c 0b 3e cb 35 2e 3e 09 ea e5 3e
       -0.09375462 0.13615589 0.17012708 0.44905117
000060 b0 d6 e8 bb e2 8c 0c 3d 92 39 25 3e 51 8b da 3e
       -0.007105671 0.034314044 0.16135243 0.42684415
000070 83 97 5f be df 92 16 be 77 99 22 be 76 5e 5f be
       -0.21835141 -0.14704464 -0.15878855 -0.21813378
000080 35 2b 23 3e c5 9c 10 3d d3 da 55 3e 19 be 84 bd
       0.15934451 0.035305757 0.20884256 -0.06481571
000090 44 7a 2c be 62 bc cd 3d 74 e5 e5 ba db fb 58 bd
       -0.16843516 0.10045697 -0.0017539696 -0.052974563
0000a0 1e 1a 2f bd e8 e5 84 bb 75 31 27 3e de 46 fd bd
       -0.042749517 -0.0040557273 0.1632746 -0.123670325
0000b0 23 0f ac 3a e7 4c 3b 3e 06 db 73 bd db 35 59 3e
       0.001312707 0.18291055 -0.05953505 0.2121195
0000c0 19 ba a8 3e 52 84 b1 3e da 53 f2 3d 6d ec 03 be
       0.3295448 0.34671265 0.118324 -0.12883158
0000d0 c9 0b de 3e 17 95 bc 3e b9 eb a0 3d 01 b8 42 3e
       0.43368366 0.36832497 0.078574605 0.19015504
0000e0 13 48 07 3e cd 2e fa 3e f1 b3 c9 3e d5 3f a7 3e
       0.13211088 0.4886383 0.39395097 0.32665887
0000f0 d7 16 3a be e5 2b 01 3d 4b da 18 bd f2 24 be be
       -0.18172775 0.031536 -0.037317555 -0.37137562
000100 43 65 2d 3b b2 70 02 bd 6a ae 2e be 44 da bf 3d
       0.0026458062 -0.031845756 -0.17058721 0.09367803
000110 ac a1 23 3d 3f 09 48 3e 39 58 d5 3e fe 99 3e be
       0.039949104 0.19534777 0.4166887 -0.18613431
000120 7b 7f 0e 3e d0 bd 21 bc e1 d8 84 3d bd 83 64 3d
       0.13915817 -0.009871915 0.06486679 0.055789698
000130 a6 a1 7a 3e 3c a5 a0 3e a7 6d 30 be 3e 5e e3 bd
       0.24475726 0.31376064 -0.17229329 -0.1110196
000140 d3 3b 11 3f ac 65 64 3e d0 4c 96 3d aa a3 62 be
       0.5673191 0.2230441 0.073388696 -0.22132745
000150 97 df f1 3e d9 a5 44 bb 0e 88 3e 3c b3 5f e8 3d
       0.47240898 -0.003000608 0.011629118 0.11346378
000160 b2 b8 53 3e 21 40 8e 3e 82 14 08 bd 1a c7 39 bd
       0.20675924 0.277833 -0.033222683 -0.045355894
000170 b4 0e 78 3e 55 e8 b9 bd 37 26 74 3e 4c 3f c7 3e
       0.24224359 -0.09077517 0.23842703 0.3891548
000180 f2 af cc 3e 0f 9a 9f bd 6b e0 7e 3e 86 bf 83 3a
       0.39977986 -0.07793056 0.24890296 0.0010051585
000190 4a 1f 07 3f 7a 7b 82 be d8 da f5 be 68 c9 6a 3d
       0.5278212 -0.2548483 -0.48018527 0.057320982
0001a0 f1 02 86 3e be 37 3d be 27 71 0f 3d cb 2b 86 bd
       0.2617412 -0.18478295 0.03502002 -0.065513216
0001b0 48 b6 12 be de 15 04 3f 2b e1 84 3e 80 52 92 be
       -0.14327347 0.51595867 0.2595304 -0.28578568
0001c0 18 ce 4e 3e e6 21 3e be 34 99 a4 3d 46 98 c0 bb
       0.20195806 -0.18567619 0.08037034 -0.0058775274
0001d0 64 7e dd 3d 40 c1 03 3d 46 96 a8 bc a1 1e 9f 3e
       0.10815123 0.03216672 -0.020579468 0.31078056
0001e0 61 0c 7b 3d 7e b1 ee 3d e8 e1 be bd 74 43 b9 bd
       0.061291102 0.11654948 -0.09320432 -0.09046069
0001f0 47 94 ec 3d 2f 46 a7 3e 31 a1 17 3d 99 25 3a 3e
       0.11551719 0.32670733 0.03701896 0.18178405
000200 3c f1 4b 3e f9 22 f5 3e 74 20 aa 3d 29 7f 38 3c
       0.19916242 0.47878245 0.08306971 0.011260786
000210 46 b5 17 be 5c 98 76 3d 74 1b f4 3d 98 4e a4 3d
       -0.14815244 0.060203895 0.11919299 0.08022803
000220 f1 71 5b 3e e7 1e 8d 3e 72 e3 8c 3e 20 75 89 3e
       0.21430184 0.2756264 0.27517277 0.26847172
000230 56 f3 38 3e 99 1d 14 be 6a c1 85 3e b9 8b 74 3c
       0.18061575 -0.14464416 0.26124126 0.014925891
000240 14 26 2f 3c 06 8f cd 3d 41 77 77 bd b4 bd e9 bd
       0.010690231 0.10037045 -0.060416464 -0.11413136
000250 49 4e dd bd 43 f7 cc 3e a0 6a 30 bd d0 73 87 3e
       -0.10805947 0.40032396 -0.043070436 0.26455545
000260 d1 95 54 bd 14 2c cb 3e 87 13 a1 3e 83 2e 83 be
       -0.05190069 0.39682066 0.3146021 -0.25621423
000270 02 45 a1 bc 2a c9 1d 3e 6b 0a a9 3e 97 27 d3 3e
       -0.019686226 0.15408769 0.3301576 0.41241142
000280 ed 86 43 3e c8 c5 1b 3e 6f 3a 8f 3e 1c 26 1e be
       0.19094439 0.15212166 0.2797427 -0.15444225
000290 35 27 13 bc 20 07 32 3c f2 73 56 be 15 50 9b 3d
       -0.008981516 0.010865957 -0.20942667 0.07583634
0002a0 57 bd 76 3e cc de 2c 3c 39 fd fa bd a4 ea f4 bd
       0.24095665 0.010551166 -0.1225533 -0.11958817
0002b0 a2 b0 ca be fb 9a db 3e 9a 6d b1 bd 9d 72 11 be
       -0.39587885 0.42891678 -0.08663483 -0.14203878
0002c0 d7 38 7d be b1 d1 f0 3e d0 3c a9 3e 14 fa 32 3e
       -0.24728714 0.47034982 0.3305421 0.1747821
0002d0 2f 65 da ba 93 69 9e 3d 0d 0d 02 bd 27 96 12 3e
       -0.0016662235 0.077349804 -0.031750727 0.14315091
0002e0 48 e4 b3 3e 84 13 34 bd d6 3c 73 be 6a 95 bb 3e
       0.35135102 -0.043963924 -0.23753676 0.3663743
0002f0 01 d5 ce 3c 4b 1b 91 bd 1f 70 fe 3d 4d e8 48 be
       0.025248053 -0.07085284 0.12423729 -0.19619866
000300 02 15 48 3e 3e 24 94 3d 18 2f 95 bd 11 8f 97 be
       0.19539264 0.07233475 -0.07284373 -0.29601339
000310 83 94 50 be c6 38 75 3e 23 f2 91 be 85 4a 15 be
       -0.20369153 0.23947439 -0.28505048 -0.14579208
000320 05 87 b8 be 48 75 d6 3d b7 7f 80 3e d0 08 20 3f
       -0.36040512 0.104715884 0.2509744 0.62513447
000330 0a cc 96 3e 6f e3 b1 bc 08 01 41 3e ce ca 5d 3e
       0.29452544 -0.021714894 0.1884805 0.21659395
000340 6d e6 4b 3e 6a 0e 2f 3e 58 58 63 bd 3d 11 3b bd
       0.19912119 0.17095342 -0.055504173 -0.045670737
000350 d3 86 bb 3d 67 39 a9 bd 57 f3 5a 3e 1f f2 ed bb
       0.09156575 -0.08262902 0.2138189 -0.007261529
000360 c7 e1 0c 3e 5c cd ef 3d 0f 0f 3c 3d b8 3d 2c 3c
       0.13758002 0.11709091 0.0459128 0.010512762
000370 13 79 6a 3c f8 df 86 3e f7 d6 02 3e bf b0 21 3e
       0.014311093 0.2634275 0.12777315 0.1579008
000380 87 c6 91 3e 75 39 1c be 97 0e 42 bd 1a 64 a7 bb
       0.28471777 -0.15256293 -0.047377195 -0.0051083686
000390 32 c0 23 be 5b 75 28 bd 1a dd 9b bd 3c 8a 84 3e
       -0.15991285 -0.041127544 -0.07610531 0.25886714
0003a0 4d 47 36 bd 6d de 93 3e bf e8 50 3f 99 b8 e0 3d
       -0.04450159 0.28880635 0.8160514 0.10972709
0003b0 cf f7 7e 3e ec f4 aa bd 11 b1 25 3c 7e b0 5b 3e
       0.24899219 -0.083474964 0.010113017 0.21454045
0003c0 4a a3 c0 3d 48 d8 34 3f 8d 70 bf 3d ca 56 4a 3e
       0.09406145 0.7064252 0.09347639 0.1975967
0003d0 23 f4 02 3d de 61 4e be e2 d8 73 bd 68 dc 05 3e
       0.03197111 -0.20154521 -0.059533007 0.1307236
0003e0 a0 83 b3 bd 0d 75 b7 bd 53 e9 22 bc 77 d8 3a 3e
       -0.0876534 -0.089578725 -0.009943324 0.18246637
0003f0 7a 8c cb bd 35 99 cf 3d 68 f4 8b 3d 40 f7 96 be
       -0.09938903 0.10136644 0.06833726 -0.29485512

model/conv1d_12/Conv1D f4 [16, 1, 5, 20]
000000 9f c3 f4 3d 52 a7 3f 3e fb c9 84 3d de a7 47 3d
       0.11951374 0.18716171 0.06483837 0.048744075
000010 28 83 e3 bd 6b 39 30 3e 02 77 ee bd 76 d4 3c bc
       -0.111090004 0.17209403 -0.11643793 -0.011525264
000020 4c 05 78 3e 47 47 01 3e b9 cf 6b 3e 8c 9c 6b 3c
       0.2422077 0.12624846 0.23028459 0.014380585
000030 98 4c b9 3e 57 06 80 3e 46 25 00 be 6d 84 ba be
       0.3619125 0.25004837 -0.12514219 -0.36429158
000040 84 89 8c be 0a 29 04 3f 06 e5 86 3e 37 ba 91 3d
       -0.27448666 0.5162512 0.26346606 0.07115596
000050 bf dd 77 3e b6 a1 84 3c d4 e4 95 3d 4b 5e 73 3e
       0.24205683 0.016190391 0.07319036 0.23766439
000060 a4 da a9 3e f8 c5 89 3d f4 fb 5f 3e 7c ef 1b 3e
       0.33174622 0.06727213 0.21873456 0.15228075
000070 4a c4 77 be 56 2c 3e 3d b2 26 53 3d 31 85 9d bd
       -0.24195972 0.046429 0.051550575 -0.0769142
000080 08 0a c9 bd 71 06 97 3c 75 10 39 3e d8 1d 46 3e
       -0.098163664 0.018435689 0.18072684 0.19347322
000090 d3 63 8d 3e 42 f6 07 be 04 df 29 bd f7 cf ed 3d
       0.27615222 -0.13277534 -0.04147245 0.11611932
0000a0 ad 22 93 3e fb 6d 8b 3e cd b7 e2 bd 86 8d c9 bd
       0.28737393 0.27232346 -0.110702135 -0.098414466
0000b0 8e ae 09 3f 6c b5 a6 bd 59 c5 0f 3e fd 1f 03 be
       0.53781974 -0.08140072 0.14040126 -0.12805171
0000c0 bd 52 1a 3e 91 82 2c bc 17 b4 61 3e 41 9b 2c bd
       0.15070625 -0.010529176 0.22041355 -0.04214025
0000d0 c8 6b e0 3e c2 cf bc 3e 45 19 de 3e 24 75 17 3e
       0.4383223 0.36877257 0.43378654 0.1479078
0000e0 a5 58 b1 3e 6e bd 84 3d 22 78 92 3e 7c 9d 81 3e
       0.34637943 0.06481443 0.2860728 0.25315464
0000f0 d1 1c a3 bc b5 30 53 3e da ff 3e be b6 d7 af 3d
       -0.019911202 0.20624049 -0.18652287 0.085860655
000100 00 74 2d 3e 44 91 54 ba f0 f0 d5 3d 3c 80 08 3f
       0.16938782 -0.00081088045 0.10446346 0.5332067
000110 f5 fd 1d 3e 7f d8 25 be e1 a0 b3 bd 43 17 93 3e
       0.15428908 -0.16195868 -0.087709196 0.28728685
000120 62 ad 19 3e 20 f2 86 3d 82 c4 60 3c dd b6 d5 3d
       0.15007547 0.065891504 0.013718726 0.10435269
000130 3c bf 41 be bc 05 fc 3d e9 b6 30 3d 96 3a 51 bd
       -0.18920606 0.12305781 0.043143187 -0.051081263
000140 db 98 12 be 89 bd 2b 3d 74 9c dd be b2 ad c0 be
       -0.14316122 0.0419288 -0.43283427 -0.3763252
000150 ad 84 9c 3d 06 09 de 3b a8 66 8b be 68 0b 9c 3c
       0.076424934 0.006775978 -0.27226758 0.019048408
000160 62 76 92 be f0 b1 a9 bd 67 54 f9 3d bb 7d 59 be
       -0.28605944 -0.08285892 0.121743016 -0.21239369
000170 c4 9b 31 be b2 01 8a bd ba 44 1a be 3f 53 c0 be
       -0.17344576 -0.067386046 -0.1506528 -0.37563512
000180 62 66 85 be b3 00 87 3d 44 bb 00 be 2d 27 0f 3e
       -0.26054674 0.0659193 -0.12571436 0.13979788
000190 81 e4 aa 3e 77 2e 55 3d c0 95 55 be 02 5b 45 bd
       0.3337746 0.052046265 -0.20857906 -0.048182495
0001a0 6f bb b3 3d 2c de 94 3e a6 d2 2b 3d 3e 4e d9 be
       0.087759845 0.29075754 0.041948937 -0.42442507
0001b0 ec 8d 0f be 62 3f 0d 3e 9b bd 8d 3e 22 06 51 be
       -0.14018983 0.1379371 0.2768372 -0.20412496
0001c0 f3 4b da 3e a3 60 fb 3d 46 09 d2 3c b4 b8 83 3e
       0.4263607 0.12274291 0.025639188 0.25726855
0001d0 3a 5c 92 3e 10 b4 b6 3d 6f e6 38 3e 71 00 c2 3e
       0.28585988 0.08921063 0.18056653 0.37890962
0001e0 ce 87 3b 3e 91 0b 13 bd d3 2a 19 3e de 62 5c 3e
       0.18313524 -0.035899702 0.14957742 0.2152209
0001f0 f9 10 28 3e cc 2d c8 3d 60 e0 28 be 68 22 c1 3e
       0.16412725 0.0977436 -0.16491842 0.37721562
000200 7e e8 12 bd cb 0c ab bd dc 27 fd 3d 87 7d 23 bc
       -0.035866253 -0.083520494 0.12361118 -0.0099786585
000210 c0 47 91 3d 42 8d 0a 3d ef 21 f0 bd 5c 1d 24 be
       0.07093763 0.03382612 -0.11725222 -0.16026825
000220 9f 3a 9b 3c 10 cd a8 bd cd 25 96 bd d6 7e dc bd
       0.018948851 -0.082422376 -0.07331429 -0.107663795
000230 d9 92 d0 3e 32 25 a2 3e 77 e2 8a bd d1 e3 fe bd
       0.40737036 0.31669003 -0.06781476 -0.12445796
000240 78 9a 64 3e b4 15 c8 3d 07 7d 8b 3e e1 71 02 be
       0.2232455 0.097697645 0.27243826 -0.12738754
000250 0e 9a 13 3d 49 ba 32 3e 62 29 80 3e c9 8a 4a 3e
       0.03603559 0.17453875 0.25031573 0.19779505
000260 b6 4f 82 3e 58 8c 33 bd c3 c7 20 3e fe f4 dd bc
       0.2545144 -0.043835014 0.15701203 -0.02709436
000270 40 4d 9e 3d 80 8d 64 3e d8 b8 fa 3d cf cb 57 3e
       0.07729578 0.22319603 0.122422874 0.2107384
000280 9c eb 8b bd c0 73 f1 3d b2 2f b2 3d 15 67 31 be
       -0.06832048 0.11789656 0.087005034 -0.17324479
000290 29 b6 39 3e 07 09 a8 bc 4e 35 09 bd 8e 67 cd bd
       0.18135895 -0.020512117 -0.0334981 -0.10029517
0002a0 8d 7a 11 bd 44 df 13 3e b2 f8 8d 3d 2f 78 0a be
       -0.035517264 0.14440638 0.069322005 -0.13522409
0002b0 9a bd d8 bd 58 4e 9d bd 16 05 27 be 82 53 0c be
       -0.10583039 -0.076809585 -0.16310534 -0.1370373
0002c0 81 7a 4c 3e 75 91 40 3e f7 a2 06 be ab 9e 43 bc
       0.19968607 0.18805487 -0.13148104 -0.011939685
0002d0 c0 46 be 3e 8b b4 95 3e 99 ef de bd 29 67 75 3e
       0.37163353 0.29239306 -0.108855434 0.23965134
0002e0 43 b8 44 3e 5c 83 33 3e 5d d0 00 3c 8d ae 3a 3e
       0.19210915 0.17530578 0.007862178 0.18230648
0002f0 b0 2e 36 3e ec 87 7f 3e 0f 0c f9 3d a3 d4 16 3d
       0.17791247 0.24954194 0.12160503 0.03682388
000300 b6 ba 99 3e 00 dc dc 3e 2b be c1 3e e1 9c a8 3e
       0.30025262 0.43136597 0.378404 0.3293219
000310 be 81 0b 3e e3 24 c5 3e 2b 1c b9 3e a8 61 1f 3d
       0.13623711 0.38504705 0.36154303 0.03891149
000320 4e 8e 12 3d e0 4c 15 bd aa 5d 10 3e 3a 1c ee bd
       0.035780244 -0.036450267 0.1409823 -0.116264775
000330 27 6b eb bd 86 69 dd bd b6 39 23 3e e9 99 9e 3d
       -0.11495047 -0.108111426 0.15939984 0.077442
000340 41 b2 e1 3d ec b7 5f bd 1e 82 d3 3b b4 da c8 bd
       0.11020327 -0.05461876 0.00645472 -0.09807339
000350 ed e3 b3 3d 3e 8a b2 bd 3e ab fb bc db e2 12 3e
       0.08783708 -0.08717774 -0.030721303 0.14344351
000360 c6 90 2d 3b d6 1c 7a 3e d6 c3 43 bd 34 ec e8 3d
       0.0026483997 0.24425063 -0.047794186 0.11373177
000370 dc 8b 20 3e 53 56 b5 3d d4 d2 01 3e df 0f 7e 3d
       0.15678352 0.08854356 0.12678081 0.062026855
000380 ca a0 b1 3d f8 ba 27 bd ef c5 8e bd 63 66 63 3d
       0.08673246 -0.04094979 -0.069713466 0.055517565
000390 4e 7c 39 3e 09 c6 f8 bc 63 db 91 bd 19 ee 08 be
       0.18113825 -0.030367868 -0.07121923 -0.13372077
0003a0 39 1b 9d bd cf dc 0b 3e dc a7 38 3e 4f 5e c2 3d
       -0.07671208 0.1365845 0.18032783 0.09490644
0003b0 5f 3a f0 bc 81 3e 6b 3e 02 0e 89 bd b4 31 f9 3c
       -0.029324709 0.22973062 -0.06692125 0.030419208
0003c0 a9 29 39 3d 10 5b e0 bd ea c4 13 be 31 a0 e7 3d
       0.045205746 -0.10954869 -0.14430586 0.11309851
0003d0 7f a0 ef 3d 72 1b 02 3d 0e 0b c8 bc 8f 54 b9 3d
       0.11700534 0.031764455 -0.024419334 0.090493314
0003e0 33 79 32 3c 05 0d 5d bd cf cc fb bd d4 3e 25 3e
       0.010893154 -0.053967495 -0.122949235 0.16137248
0003f0 57 55 da 3d 66 a9 43 3e 4e b7 37 bd 37 36 f8 3d
       0.106608085 0.19107589 -0.044852547 0.12119716

model/conv1d_13/Conv1D f4 [16, 1, 7, 20]
000000 9e a2 4c 3c 8c 29 ee 3c b7 bc b6 3d ad 3b 77 bd
       0.012489943 0.029072545 0.08922713 -0.060359646
000010 87 df 02 be 2b fe 8e 3d f6 a2 f0 bc 26 a0 46 3d
       -0.12780581 0.069820724 -0.02937458 0.048492573
000020 44 91 1e bc 56 35 f7 3d 8a 15 fb bd dc f0 b0 3c
       -0.009678189 0.1207072 -0.122599676 0.021599226
000030 79 8b f8 bd 16 d7 09 be e9 0b b1 3b 9e 95 2a 3c
       -0.12135977 -0.13460955 0.005403031 0.010411648
000040 33 32 02 3c 4d ed 68 3d c1 ba ec b9 f9 d1 9a 3d
       0.007946539 0.056866933 -0.0004515257 0.0755958
000050 90 77 83 bd d7 c7 22 3e 57 bb ef bd cf d5 dc bd
       -0.06419289 0.15896545 -0.11705654 -0.10782968
000060 a4 6b 46 3d 25 df 01 be 5e 74 45 3c 80 ca c5 3d
       0.048442498 -0.12682779 0.01205167 0.096577644
000070 29 2e d6 3d 7d 01 9e 3d 65 2c 85 3c 77 0b 77 3d
       0.10458023 0.077151276 0.01625652 0.060313668
000080 c7 0b e6 3c 66 50 06 3e f6 d3 9d 3d d4 3c 6a bd
       0.028081788 0.13116607 0.07706444 -0.057186916
000090 85 87 24 3e f4 64 cf bc 69 7b ac 3d 6a 19 1a be
       0.16067322 -0.025316693 0.08421976 -0.15048757
0000a0 60 d8 15 3e 63 52 8e ba 00 c6 e5 3c 4d 08 bc 3d
       0.14633322 -0.0010858293 0.028048515 0.09181271
0000b0 b3 14 b3 3a fc e8 fb 3d af 2f a6 3d b6 9a 34 bd
       0.0013662785 0.123002976 0.08114564 -0.044092856
0000c0 76 08 6d bc 4f f7 47 3d ca 10 6b bd 40 4e 39 bc
       -0.014467349 0.048819836 -0.05738906 -0.01131016
0000d0 4b 25 93 3c 2a 0c 80 3c 47 04 25 3e 5c f1 9c 3d
       0.017962119 0.0156308 0.16114913 0.07663223
0000e0 5f ca d1 bd ba 9e 21 3e 4c c8 da 3d 85 4e e8 bd
       -0.10243677 0.15783206 0.10682735 -0.113431014
0000f0 2d 2a 10 3e 70 6e 89 bc 56 eb e8 bc 65 48 bf 3d
       0.14078589 -0.016776294 -0.02843253 0.0933998
000100 69 e6 4d bd f5 62 2c bc dd 63 9a 3b 01 6f b2 3d
       -0.050268564 -0.01052164 0.0047116117 0.087125786
000110 3d e7 9e bd 39 a3 67 bd 09 3f 3c bd 5b 7b 71 3c
       -0.07758949 -0.056552146 -0.045958553 0.014738883
000120 72 4e 08 3e e6 38 05 3e d1 63 29 3e 9d 51 be 3d
       0.13311175 0.13009986 0.16541983 0.0929291
000130 f6 7d 43 bd 64 6c d3 3d 14 2c 96 3d 7c b7 55 3d
       -0.047727548 0.10323408 0.07332626 0.052176937
000140 34 a5 f6 3d bc 5f d6 bc e3 25 b1 3d d2 cf d9 3d
       0.12043229 -0.026168697 0.086498044 0.10635342
000150 43 06 d2 3d 3e 3b cc 3c cf 71 e1 3d a1 72 00 3d
       0.102551006 0.024930593 0.110080354 0.03135932
000160 85 26 ae bc 5c 06 67 bd eb f3 55 bc 14 31 05 3e
       -0.021258602 -0.05640255 -0.013058643 0.13007003
000170 ac 0d 56 3d 3e 86 1a 3e 49 1a 96 3c c6 6a 10 be
       0.052259132 0.15090272 0.01832308 -0.14103231
000180 e6 68 9e bd d6 0c 62 3c 74 a1 f7 bd 0e 78 8a 3d
       -0.077348515 0.013797006 -0.120913416 0.0676118
000190 a4 68 89 3a 2a fe 9c 3d f9 df a6 bd b9 0e 00 be
       0.0010483456 0.076656654 -0.08148188 -0.12505616
0001a0 c2 a9 0b be bb 9a c4 bd c0 2b 9e bc 3e bc 5a 3d
       -0.13638976 -0.09599825 -0.019307971 0.053402178
0001b0 c3 9f 2a 3d ea 69 97 3d e9 5d bf bc c7 fa 7a 3d
       0.041656267 0.073932484 -0.02336021 0.061274316
0001c0 5c ef 06 3e 35 34 a9 3d 57 e5 d8 3d c3 bc 93 3c
       0.13177246 0.08261911 0.10590618 0.018034345
0001d0 c8 3d 93 bc 35 87 38 bc 4f 6f a7 bd a4 83 b0 bd
       -0.017973796 -0.011262705 -0.08175527 -0.086188585
0001e0 f1 3b 1f 3e eb b9 93 bd 57 4d c8 3c 5b 69 ee 3d
       0.1555021 -0.072131954 0.024450941 0.11641189
0001f0 80 a1 8d bd 89 1f 9b bc 74 13 f2 bd ac 92 0f 3d
       -0.06915569 -0.018935936 -0.11820117 0.035051987
000200 13 7b b4 3d e6 f7 bb bd 49 ef ae bd 9e 4b 93 bd
       0.08812537 -0.09178142 -0.08541734 -0.07192157
000210 7a 96 0d 3e e0 f7 18 3e c1 0b e2 3d 1c d8 6f 3d
       0.13826934 0.14938307 0.11037398 0.058555707
000220 dd 2f 8d 3b 5c 68 6e 3d c8 5e e1 bd 5a 70 ff bd
       0.0043086843 0.058204994 -0.11004406 -0.12472601
000230 82 4a 32 bd 6e f1 09 be be 85 d3 3d 3c 07 2d 3e
       -0.043528087 -0.13471004 0.10328244 0.16897291
000240 93 f8 28 3d 35 b0 c9 3d d3 c4 fd 3d 6a 8b 42 3e
       0.041252684 0.09848062 0.12391057 0.18998495
000250 01 b0 cc bb a8 5f ed bc bd e0 fa 3c 76 c5 ec bd
       -0.0062465672 -0.028976277 0.030624742 -0.115611
000260 ec 20 68 3d 97 a9 f7 3d 06 c2 14 3e 7e 9a 7d 3d
       0.05667202 0.120928936 0.14527139 0.061914913
000270 9f de e5 3c 97 d4 01 3c bc 01 22 bd 30 c4 a1 bd
       0.028060256 0.0079242205 -0.039552435 -0.07898748
000280 0c 23 06 bc 7b 31 a4 bd d5 60 83 3e c3 ec af 3e
       -0.008187067 -0.0801725 0.25659814 0.34360322
000290 f5 37 59 3e 3b f3 08 3e a4 df 75 3e cc 84 08 3e
       0.21212752 0.13374035 0.24011093 0.13331908
0002a0 8f 61 ef 3d 34 64 d2 3d 59 29 04 3e 67 d9 97 bc
       0.1168853 0.102730185 0.12906398 -0.018536283
0002b0 91 62 26 3e 14 2f e4 bb 7f 75 a9 3e 4e 0d 48 3d
       0.16248538 -0.00696362 0.33097455 0.048840813
0002c0 11 8d 34 3e 0d 14 f9 bc 5d f8 5b 3c 5e b1 3e 3e
       0.17631938 -0.030405069 0.013425914 0.18622348
0002d0 6f f3 42 be ac bb 8e 3c 28 8b 01 3e e1 91 1e be
       -0.19038175 0.017423473 0.1265074 -0.15485336
0002e0 24 9e 18 3e fa a3 06 be 32 9c 86 be b1 e6 3b 3e
       0.14904076 -0.1314849 -0.26291043 0.1834972
0002f0 37 1d 78 bd bb cd 11 bd 31 35 05 be 50 5e 8c bd
       -0.060574736 -0.03559659 -0.13008572 -0.06853926
000300 02 67 c5 bd fe f3 01 bd 22 47 7f 3d dd 1d 2e be
       -0.09638788 -0.03172683 0.062323697 -0.1700358
000310 3f 37 01 bd 7a 18 80 bd 37 48 05 3e f0 f5 9e 3d
       -0.031546827 -0.062546685 0.13015829 0.077617526
000320 d7 bb 06 3e e8 01 40 bd e0 16 01 3d 6e 50 a1 bc
       0.13157593 -0.046876818 0.031515956 -0.019691672
000330 e0 a8 79 3e 1e 84 24 3c df 5b cd 3d 16 97 0c 3d
       0.24380827 0.010041265 0.10027289 0.034323774
000340 d0 06 82 bd 15 5d 39 3b 0b b7 67 3e 80 af 65 bd
       -0.06348956 0.002828424 0.22628419 -0.056075573
000350 8c 14 09 3e 47 60 d2 3c 8c 98 5d 3e 09 04 4f 3e
       0.13386744 0.025680674 0.21640223 0.20216383
000360 67 e9 5d 3b 39 25 1e 3e e9 3d c9 3c b9 69 b7 3d
       0.0033861042 0.15443887 0.024565654 0.08955712
000370 26 6e cb 3d 5d f3 2e 3e 3b e8 61 3e 8e ee ad bc
       0.099331185 0.17085023 0.22061245 -0.021231916
000380 22 4d a0 3e 6f 07 45 3e 37 dd 4f 3e 74 59 b1 3d
       0.31308848 0.19241117 0.2029923 0.0865964
000390 3f 77 00 3d 04 5b 4f 3d a2 6e ce 3d 2d 39 43 3e
       0.031363722 0.05062391 0.10079695 0.1906478
0003a0 d7 35 25 3e 31 3e 0a 3e d2 43 fa 3d ed 84 1d bd
       0.1613382 0.13500287 0.12219967 -0.038456846
0003b0 b5 9b 06 bd 43 84 38 3d d7 32 f6 3d 8e 57 4d 3e
       -0.032863338 0.04504801 0.12021416 0.2005293
0003c0 81 ac 24 bc 28 2d a5 bd cc 82 1e 3e 2a 65 0e bc
       -0.010050894 -0.080652535 0.15479583 -0.008691112
0003d0 dc 2a ab 3d f8 2b 1d bd 9f a1 51 bb 5e 3e 19 3d
       0.08357784 -0.03837201 -0.0031987203 0.037412994
0003e0 44 42 56 bd f7 06 40 3e 97 94 88 3d 4a a0 4e bd
       -0.05230929 0.18752657 0.06668966 -0.050445832
0003f0 db 3f ef bb 81 30 3a 3e d8 8f af 3c 5c a4 4e 3d
       -0.0073013133 0.18182565 0.021430895 0.050449714
