results/fold_1/checkpoint/model_1204_fold_1.tflite (tflite, 406736 bytes, 73 tensors)

model/conv1d_10/BiasAdd/ReadVariableOp f4 [16]
-0.21847425 -0.26416954 -0.076731645 -0.07079122 -0.0357038 -0.038945694 -0.08966769 -0.18067604
-0.05744145 -0.1259657 0.009671611 -0.176256 -0.10568938 -0.23600988 -0.011417913 -0.09933874
00000000: b7b7 5fbe 3b41 87be 7b25 9dbd fdfa 90bd
00000010: 263e 12bd 8585 1fbd b2a3 b7bd 2403 39be
00000020: ba47 6bbd 27fd 00be ad75 1e3c 747c 34be
00000030: ac73 d8bd 93ac 71be 3312 3bbc 1c72 cbbd

model/conv1d_11/BiasAdd/ReadVariableOp f4 [16]
-0.18246719 -0.09423193 -0.10922173 -0.07108092 -0.18626364 -0.23914212 -0.08623915 -0.17666586
-0.057125572 -0.11601331 -0.08709933 -0.046505716 -0.10831941 -0.114105545 -0.05711475 -0.078837454
00000000: aed8 3abe acfc c0bd a4af dfbd e092 91bd
00000010: e5bb 3ebe ace1 74be 279e b0bd e5e7 34be
00000020: 81fc 69bd 6398 edbd 2261 b2bd c77c 3ebd
00000030: 91d6 ddbd 2bb0 e9bd 28f1 69bd 8875 a1bd

model/conv1d_12/BiasAdd/ReadVariableOp f4 [16]
-0.094508715 -0.08804322 -0.07974761 -0.095677 -0.11328265 -0.063691616 -0.05178898 -0.1477301
-0.14320965 -0.13223691 -0.09178885 -0.10249693 -0.10252845 -0.12382267 -0.121222205 -0.055249456
00000000: c98d c1bd 0150 b4bd b752 a3bd 4ef2 c3bd
00000010: bc00 e8bd c070 82bd ae20 54bd 8f46 17be
00000020: 8da5 12be 1d69 07be cbfb bbbd e9e9 d1bd
00000030: 70fa d1bd bd96 fdbd 5943 f8bd 414d 62bd

model/conv1d_13/BiasAdd/ReadVariableOp f4 [16]
-0.07568309 -0.053342216 -0.10595315 -0.030187426 -0.09241882 -0.10643223 -0.062400933 -0.05068856
-0.036895584 -0.047742005 -0.14578138 -0.09236438 -0.023921818 -0.13158384 -0.086427815 -0.118429594
00000000: bcff 9abd 5e7d 5abd f7fd d8bd 9f4b f7bc
00000010: 1446 bdbd 24f9 d9bd 1f98 7fbd cf9e 4fbd
00000020: d31f 17bd 1f8d 43bd b747 15be 8929 bdbd
00000030: b0f7 c3bc eabd 06be 1101 b1bd 378b f2bd

model/conv1d_14/BiasAdd/ReadVariableOp f4 [16]
-0.12730694 -0.028148428 -0.058759738 -0.06489926 -0.045337874 -0.065389484 -0.08954746 -0.057588767
-0.07825222 -0.06538762 -0.08038987 -0.1271712 -0.0899788 -0.05757788 -0.024494033 -0.10226393
00000000: c05c 02be 8897 e6bc 0dae 70bd e7e9 84bd
00000010: 35b4 39bd ecea 85bd a964 b7bd 33e2 6bbd
00000020: b342 a0bd f2e9 85bd 72a3 a4bd 2b39 02be
00000030: ce46 b8bd c8d6 6bbd b6a7 c8bc c06f d1bd

model/conv1d_15/BiasAdd/ReadVariableOp f4 [16]
-0.1582429 -0.13647488 -0.10159036 -0.1890484 -0.12484539 -0.18191484 -0.123901084 -0.16122647
-0.0789757 -0.16806442 -0.010822558 -0.17845446 -0.1276821 -0.027023138 -0.091724224 -0.0012548434
00000000: 6d0a 22be 12c0 0bbe 9b0e d0bd e795 41be
00000010: f1ae ffbd e247 3abe dabf fdbd 8d18 25be
00000020: 03be a1bd 1419 2cbe 1951 31bc c4bc 36be
00000030: 19bf 02be a15f ddbc e9d9 bbbd 8f79 a4ba

model/conv1d_16/BiasAdd/ReadVariableOp f4 [16]
-0.10491518 -0.06911485 -0.09355994 -0.15688509 -0.12691928 -0.090787284 -0.084258065 -0.13257681
-0.11804883 -0.1606108 -0.10167983 -0.061419357 -0.14066438 -0.11385151 -0.056169186 -0.14550176
00000000: c5dd d6bd 168c 8dbd 5b9c bfbd 7ca6 20be
00000010: 21f7 01be afee b9bd 7e8f acbd 37c2 07be
00000020: 96c3 f1bd 2877 24be 843d d0bd dd92 7bbd
00000030: 530a 10be fb2a e9bd a911 66bd 6afe 14be

model/conv1d_17/BiasAdd/ReadVariableOp f4 [16]
-0.095422275 -0.11854786 -0.07387996 -0.09832729 -0.057829615 -0.0873489 -0.054643206 -0.11453184
-0.099517815 -0.1693764 -0.112348475 -0.05237214 -0.121909365 -0.055695616 -0.13506143 -0.11300057
00000000: c16c c3bd 38c9 f2bd 604e 97bd d15f c9bd
00000010: bfde 6cbd fbe3 b2bd 8ed1 5fbd ab8f eabd
00000020: ffcf cbbd 0271 2dbe f516 e6bd 2b84 56bd
00000030: 9eab f9bd 1621 64bd 8b4d 0abe d86c e7bd

model/conv1d_18/BiasAdd/ReadVariableOp f4 [16]
-0.13795964 -0.13221392 -0.11175276 -0.15190434 -0.11511353 -0.085470505 -0.066705145 -0.061531235
-0.13521846 -0.09636195 -0.084909365 -0.09182235 -0.04507214 -0.10863518 -0.06236173 -0.09788174
00000000: 4b45 0dbe 1663 07be a2de e4bd d08c 1bbe
00000010: a4c0 ebbd 290b afbd b59c 88bd 2d08 7cbd
00000020: b576 0abe 6a59 c5bd f6e4 adbd 5b0d bcbd
00000030: 909d 38bd 1f7c debd 036f 7fbd 3976 c8bd

model/conv1d_19/BiasAdd/ReadVariableOp f4 [16]
-0.04263767 -0.11285265 -0.03369494 -0.09941397 -0.08982736 -0.092188425 -0.14011216 -0.13333583
-0.08426462 -0.06982663 -0.046775226 -0.09846832 -0.086828426 -0.10535661 -0.102427445 -0.06222903
00000000: d6a4 2ebd 4a1f e7bd b503 0abd 8d99 cbbd
00000010: 68f7 b7bd 49cd bcbd 9079 0fbe 3089 08be
00000020: ee92 acbd 4401 8fbd 6197 3fbd c2a9 c9bd
00000030: 1ad3 b1bd 35c5 d7bd 7bc5 d1bd dee3 7ebd

model/conv1d_20/BiasAdd/ReadVariableOp f4 [16]
-0.11449043 -0.07633501 -0.036800545 -0.13429622 -0.15366448 -0.10552228 -0.0746509 -0.18304253
-0.08485419 -0.0387675 -0.17176655 -0.09953723 -0.056724712 -0.12812185 -0.07101259 -0.10045989
00000000: f579 eabd 8855 9cbd 2bbc 16bd f384 09be
00000010: 395a 1dbe 111c d8bd 92e2 98bd 806f 3bbe
00000020: 09c8 adbd acca 1ebd 92e3 2fbe 2dda cbbd
00000030: 2c58 68bd 6032 03be 0c6f 91bd eabd cdbd

model/conv1d_21/BiasAdd/ReadVariableOp f4 [16]
-0.04153967 -0.17578003 -0.081162035 -0.06999441 -0.025533905 -0.1492175 -0.06786649 -0.036572553
-0.07016068 -0.080844715 -0.021351488 -0.08772175 -0.11244948 -0.07620156 -0.054730915 -0.06479101
00000000: 8025 2abd aeff 33be 4838 a6bd 3b59 8fbd
00000010: 7b2c d1bc 79cc 18be 96fd 8abd 1acd 15bd
00000020: 67b0 8fbd ea91 a5bd 51e9 aebc 76a7 b3bd
00000030: ea4b e6bd 900f 9cbd 862d 60bd 26b1 84bd

model/conv1d_22/BiasAdd/ReadVariableOp f4 [16]
-0.11182818 -0.09643998 -0.13299742 -0.0909741 -0.113751255 -0.06490898 -0.08901458 -0.11353839
-0.0639716 -0.065032676 -0.09295367 -0.07452833 -0.06657487 -0.006435183 -0.01814749 -0.050970864
00000000: 2c06 e5bd 5382 c5bd 7a30 08be a150 babd
00000010: 6bf6 e8bd 00ef 84bd 474d b6bd d186 e8bd
00000020: 8b03 83bd da2f 85bd 7e5e bebd 4fa2 98bd
00000030: 6858 88bd 3ade d2bb 0caa 94bc d3c6 50bd

model/conv1d_23/BiasAdd/ReadVariableOp f4 [16]
-0.08944524 -0.06815232 -0.0902227 -0.033785123 -0.07840958 -0.04041808 -0.056737144 -0.1164957
-0.070277095 -0.10322405 -0.06508261 -0.06011928 -0.029737404 -0.03774328 -0.07887263 -0.0831001
00000000: 112f b7bd 7293 8bbd aec6 b8bd 4562 0abd
00000010: 3495 a0bd 6e8d 25bd 3565 68bd 4c95 eebd
00000020: 70ed 8fbd 2167 d3bd 084a 85bd a23f 76bd
00000030: db9b f3bc b398 1abd f987 a1bd 6330 aabd

model/conv1d_24/BiasAdd/ReadVariableOp f4 [16]
-0.09418037 -0.11090168 -0.08653568 -0.12809956 -0.057047363 -0.08690446 -0.059236676 -0.09793815
-0.06545306 -0.051146246 -0.08499118 -0.061656673 -0.091661565 -0.026577255 -0.06779451 -0.054542206
00000000: a3e1 c0bd 6c20 e3bd 9e39 b1bd 882c 03be
00000010: 7faa 69bd f7fa b1bd 28a2 72bd cc93 c8bd
00000020: 410c 86bd ba7e 51bd db0f aebd b58b 7cbd
00000030: 0fb9 bbbd 8bb8 d9bc d9d7 8abd a667 5fbd

model/conv1d_25/BiasAdd/ReadVariableOp f4 [16]
-0.09677253 -0.11914564 -0.14709988 -0.12367849 -0.039242942 -0.08605039 -0.10562231 -0.08248933
-0.11389849 -0.028642803 -0.1280854 -0.104267 -0.14479713 -0.0812497 -0.066003695 -0.15552188
00000000: ad30 c6bd a102 f4bd 5aa1 16be 264b fdbd
00000010: 35bd 20bd 303b b0bd 8250 d8bd 2af0 a8bd
00000020: 9d43 e9bd 50a4 eabc d228 03be f089 d5bd
00000030: b345 14be 3e66 a6bd f22c 87bd 2141 1fbe

model/conv1d_26/BiasAdd/ReadVariableOp f4 [16]
-0.031159809 -0.11638143 -0.08172927 -0.16064127 -0.15406531 -0.07139047 -0.09168677 -0.060652524
-0.05182683 -0.099302724 -0.095201895 -0.14668992 -0.12970144 -0.038851045 -0.1431565 -0.08314334
00000000: db42 ffbc 6359 eebd ad61 a7bd 257f 24be
00000010: 4cc3 1dbe 2b35 92bd 46c6 bbbd c86e 78bd
00000020: 5f48 54bd 3a5f cbbd 36f9 c2bd e235 16be
00000030: 74d0 04be 4622 1fbd 9e97 12be 0e47 aabd

model/conv1d_27/BiasAdd/ReadVariableOp f4 [16]
-0.060473733 -0.05699133 -0.14268194 -0.13911872 -0.102299474 -0.1178283 -0.11821617 -0.09041688
-0.11956962 -0.10047065 -0.1072512 -0.089813314 -0.0973733 -0.14794753 -0.06563244 -0.079729654
00000000: 4eb3 77bd be6f 69bd 371b 12be 2375 0ebe
00000010: 6382 d1bd f74f f1bd 521b f2bd 7c2c b9bd
00000020: ebe0 f4bd 8ec3 cdbd 84a6 dbbd 0bf0 b7bd
00000030: a76b c7bd 8f7f 17be 4d6a 86bd 4d49 a3bd

model/conv1d_28/BiasAdd/ReadVariableOp f4 [16]
-0.08830568 -0.10921291 -0.09809293 -0.11329225 -0.076956384 -0.123408675 -0.065200225 -0.08571694
-0.09560619 -0.09692776 -0.1027352 -0.07662842 -0.09797086 -0.055500142 -0.092425436 -0.05558847
00000000: 9cd9 b4bd 05ab dfbd f2e4 c8bd c405 e8bd
00000010: 4f9b 9dbd b0bd fcbd b287 85bd 5d8c afbd
00000020: 2ecd c3bd 1082 c6bd d566 d2bd 5cef 9cbd
00000030: f2a4 c8bd 1e54 63bd 8c49 bdbd bcb0 63bd

model/conv1d_29/BiasAdd/ReadVariableOp f4 [16]
-0.076081455 -0.11120324 -0.15128657 -0.10806747 -0.11117816 -0.08491375 -0.13135275 -0.08230475
-0.07091917 -0.07222311 -0.09072504 -0.09349555 -0.089046 -0.06137143 -0.061148435 -0.06426402
00000000: 98d0 9bbd 86be e3bd deea 1abe 7a52 ddbd
00000010: 60b1 e3bd 43e7 adbd 5681 06be 658f a8bd
00000020: 123e 91bd b6e9 93bd 0dce b9bd 987a bfbd
00000030: c05d b6bd 9c60 7bbd c876 7abd db9c 83bd

model/conv1d_30/BiasAdd/ReadVariableOp f4 [16]
-0.23142819 -0.13016175 -0.18893966 -0.09708215 -0.19118379 -0.06642846 -0.054114148 -0.10832829
-0.15590788 -0.03242834 -0.08355504 -0.15884963 -0.11769116 -0.043152284 0.0 -0.11559372
00000000: 83fb 6cbe 1f49 05be 6679 41be 02d3 c6bd
00000010: afc5 43be a50b 88bd cca6 5dbd 39db ddbd
00000020: 51a6 1fbe 94d3 04bd e81e abbd 7aa9 22be
00000030: 1008 f1bd 73c0 30bd 0000 0000 66bc ecbd

model/conv1d_31/BiasAdd/ReadVariableOp f4 [16]
-0.119579256 -0.16077635 -0.14238305 -0.16343354 -0.1071305 -0.09547073 -0.17524979 -0.14620689
-0.1013165 -0.06035052 -0.15462731 -0.10412206 -0.11690939 -0.13343443 -0.15708974 -0.0969738
00000000: f8e5 f4bd 8ea2 24be ddcc 11be 1f5b 27be
00000010: 3c67 dbbd 2886 c3bd ae74 33be 42b7 15be
00000020: 067f cfbd 1b32 77bd 9f56 1ebe f23d d5bd
00000030: 316e efbd 09a3 08be 22dc 20be 339a c6bd

model/conv1d_32/BiasAdd/ReadVariableOp f4 [16]
-0.10601913 -0.101232335 -0.13363874 -0.11511929 -0.10426167 -0.1181877 -0.06628534 -0.07873705
-0.17910406 -0.102424726 -0.15334089 -0.07197651 -0.119425245 -0.14075536 -0.08924955 -0.16087744
00000000: 8f20 d9bd e652 cfbd 98d8 08be aac3 ebbd
00000010: 2487 d5bd 650c f2bd 9cc0 87bd e440 a1bd
00000020: 0e67 37be 0ec4 d1bd 6505 1dbe 6c68 93bd
00000030: 3995 f4bd 2c22 10be 78c8 b6bd 0ebd 24be

model/conv1d_33/BiasAdd/ReadVariableOp f4 [16]
-0.104861975 -0.13044469 -0.10569399 -0.06322022 -0.123585455 -0.062975265 -0.09293652 -0.08646571
-0.066009365 -0.08154513 -0.122680195 -0.10135087 -0.15598318 -0.13573658 -0.112897605 -0.077456445
00000000: e0c1 d6bd 4b93 05be 1776 d8bd 9a79 81bd
00000010: 5f1a fdbd 2df9 80bd 8155 bebd ef14 b1bd
00000020: eb2f 87bd 2201 a7bd c13f fbbd 0c91 cfbd
00000030: 0eba 1fbe 88fe 0abe dc36 e7bd 7ca1 9ebd

model/conv1d_34/BiasAdd/ReadVariableOp f4 [16]
-0.10330669 -0.102477334 -0.10522908 -0.09275982 -0.082772434 -0.09323082 -0.12711054 -0.12469138
-0.0934896 -0.08272123 -0.104430795 -0.031563986 -0.12181609 -0.08413354 -0.08824325 -0.1322471
00000000: 7592 d3bd a3df d1bd 5882 d7bd dcf8 bdbd
00000010: 9884 a9bd cdef bebd 4429 02be 325e ffbd
00000020: 7a77 bfbd c069 a9bd d0df d5bd 3d49 01bd
00000030: b77a f9bd 354e acbd e1b8 b4bd c96b 07be

model/conv1d_5/BiasAdd/ReadVariableOp f4 [16]
0.0028868362 -0.04942161 -0.07098295 -0.078227356 -0.15298854 0.022673866 -0.09805174 -0.13328306
-0.110052414 -0.090145 -0.07343077 -0.098663196 -0.16871679 -0.25956818 -0.13385755 -0.06910496
00000000: 1331 3d3b 506e 4abd 825f 91bd aa35 a0bd
00000010: 07a9 1cbe 8bbe b93c 5acf c8bd 5b7b 08be
00000020: 2963 e1bd f19d b8bd df62 96bd ee0f cabd
00000030: 18c4 2cbe 1fe6 84be f411 09be e786 8dbd

model/conv1d_6/BiasAdd/ReadVariableOp f4 [16]
-0.16802648 -0.078512825 -0.11547469 -0.11428567 -0.06403277 -0.10435317 -0.10315746 -0.11773157
-0.11819844 -0.052391604 -0.14766821 -0.111627996 -0.1242924 -0.05314404 -0.1365881 -0.11962229
00000000: 220f 2cbe 55cb a0bd ff7d ecbd 9b0e eabd
00000010: 9d23 83bd 1db7 d5bd 3844 d3bd 401d f1bd
00000020: 0612 f2bd 9498 56bd 5636 17be 389d e4bd
00000030: 048d febd 91ad 59bd c0dd 0bbe 88fc f4bd

model/conv1d_7/BiasAdd/ReadVariableOp f4 [16]
-0.11971213 -0.1181296 -0.09965428 -0.15425614 -0.023045674 -0.05729979 -0.13186455 -0.08198652
-0.07217335 -0.040799726 -0.10995661 -0.050712187 -0.04660751 -0.15903828 -0.097860835 -0.07384917
00000000: a22b f5bd efed f1bd 8b17 ccbd 52f5 1dbe
00000010: 48ca bcbc 2fb3 6abd 8007 07be 8ce8 a7bd
00000020: 9fcf 93bd 9d1d 27bd ee30 e1bd 95b7 4fbd
00000030: 84e7 3ebd eeda 22be 436b c8bd 3c3e 97bd

model/conv1d_8/BiasAdd/ReadVariableOp f4 [16]
-0.1096195 -0.113580875 -0.067978315 -0.11388615 -0.077206686 -0.043862864 -0.055588026 -0.11534908
-0.16687049 -0.079231665 -0.08742093 -0.021018084 -0.12724409 -0.124982744 -0.103538625 -0.12750466
00000000: 3080 e0bd 179d e8bd 3738 8bbd 243d e9bd
00000010: 8a1e 9ebd 8ca9 33bd 45b0 63bd 233c ecbd
00000020: 19e0 2abe 3644 a2bd bf09 b3bd 1e2e acbc
00000030: 464c 02be f4f6 ffbd 0f0c d4bd 9590 02be

model/conv1d_9/BiasAdd/ReadVariableOp f4 [16]
-0.07501225 -0.12672786 -0.00613548 -0.05231948 -0.06769565 -0.08642672 -0.10357564 -0.040185124
-0.12862426 -0.09582341 -0.15286782 -0.114439525 -0.09195703 -0.09803248 -0.13860996 -0.11851116
00000000: 06a0 99bd f3c4 01be 230c c9bb f34c 56bd
00000010: 04a4 8abd 7e00 b1bd 771f d4bd 2899 24bd
00000020: 14b6 03be 103f c4bd 6289 1cbe 455f eabd
00000030: f853 bcbd 41c5 c8bd c5ef 0dbe fbb5 f2bd

model/conv1d/BiasAdd/ReadVariableOp f4 [16]
-0.12368747 -0.10754187 -0.12619269 -0.10057253 -0.10529167 -0.07818657 -0.10856755 -0.20043966
-0.13791896 -0.10940473 -0.070049435 -0.20370854 -0.0690061 -0.07662022 -0.16837646 -0.13845047
00000000: db4f fdbd e93e dcbd a838 01be f8f8 cdbd
00000010: 29a3 d7bd 4820 a0bd aa58 debd 0e40 4dbe
00000020: a13a 0dbe 960f e0bd 1476 8fbd f998 50be
00000030: 1253 8dbd 10eb 9cbd e16a 2cbe f6c5 0dbe

model/conv1d_1/BiasAdd/ReadVariableOp f4 [16]
-0.07404126 -0.08601028 -0.21717153 -0.12257504 -0.12471991 -0.09329469 -0.13873215 -0.04542556
-0.19470142 -0.120130695 -0.14869533 -0.17780161 -0.16441695 -0.16388838 -0.19442365 -0.08698303
00000000: f2a2 97bd 2826 b0bd 3762 5ebe 9f08 fbbd
00000010: 276d ffbd 4911 bfbd cd0f 0ebe 2710 3abd
00000020: cf5f 47be 1507 f6bd 9743 18be a011 36be
00000030: eb5c 28be 5bd2 27be fe16 47be 2924 b2bd

model/conv1d_2/BiasAdd/ReadVariableOp f4 [16]
-0.10404369 -0.055392407 -0.1191156 -0.15112697 -0.12284747 -0.082458325 -0.0464506 -0.13700834
-0.18490015 -0.027536836 -0.09756636 -0.15509064 -0.19557783 -0.13306698 -0.104297265 -0.17619309
00000000: dc14 d5bd 26e3 62bd e1f2 f3bd 07c1 1abe
00000010: 7497 fbbd e9df a8bd fc42 3ebd ea4b 0cbe
00000020: 7756 3dbe ee94 e1bc dfd0 c7bd 15d0 1ebe
00000030: 8e45 48be b642 08be ce99 d5bd f66b 34be

model/conv1d_3/BiasAdd/ReadVariableOp f4 [16]
-0.16037154 -0.11257268 -0.16453765 -0.17323942 -0.06265852 -0.13715799 -0.13177904 -0.14602509
-0.090244055 -0.13758713 -0.11819993 -0.13385752 -0.13657765 -0.15577003 -0.18211223 -0.06293131
00000000: 7038 24be 818c e6bd 8f7c 28be ad65 31be
00000010: 1c53 80bd 2573 0cbe 16f1 06be 9a87 15be
00000020: e0d1 b8bd a4e3 0cbe ce12 f2bd f211 09be
00000030: 03db 0bbe 2e82 1fbe a17b 3abe 21e2 80bd

model/conv1d_4/BiasAdd/ReadVariableOp f4 [16]
-0.060635064 -0.13552094 -0.090246975 -0.04645374 -0.1755244 -0.18143931 -0.14329848 -0.048197426
-0.17071845 -0.14569812 -0.060248483 -0.19908176 -0.18044685 -0.022205366 -0.13638167 -0.056031995
00000000: 795c 78bd 00c6 0abe 68d3 b8bd 4746 3ebd
00000010: abbc 33be 3acb 39be d6bc 12be aa6a 45bd
00000020: d1d0 2ebe e331 15be 1dc7 76bd 17dc 4bbe
00000030: 0fc7 38be 07e8 b5bc a3a7 0bbe ce81 65bd

model/conv1d_10/Conv1D f4 [16, 1, 1, 20]
0.32916355 0.12245419 0.14632969 0.20306145 0.18643746 0.22146766 -0.21594375 -0.27411023
-0.060265545 -0.021917794 0.29288474 -0.19008003 -0.021051798 0.10435626 0.13482639 -0.1330456
0.16346717 -0.1479082 -0.16000898 -0.17486595 -0.048196357 -0.08213738 -0.036303304 -0.22044706
-0.043331325 -0.076249294 -0.02231092 0.094537646 0.25804225 0.13581038 0.2639831 0.19475523
-0.12182224 0.11539855 -0.12071417 0.4250272 -0.25133887 -0.20463103 -0.055162206 -0.0021694982
-0.23981267 0.306446 0.19540173 -0.357799 0.25729093 -0.2547522 0.13905592 0.22136183
-0.13155745 -0.2732127 0.22505778 -0.3337617 -0.17757164 0.39123437 0.19088438 -0.16654408
0.2772985 0.38443622 -0.26822856 0.04318287 -0.15051013 -0.32769778 0.1863194 0.30795312
0.25114682 -0.32144725 -0.22002868 0.23771597 0.011490772 0.41093197 0.31261185 -0.046743467
0.06474316 0.061799757 0.3148261 0.19121574 0.332436 -0.12616669 0.40171215 -0.35703307
-0.27668828 0.15075098 -0.12933044 0.05442775 -0.10990571 0.13287053 -0.21984868 0.047583025
-0.040267292 0.23112215 -0.34098452 0.23555 0.39206904 -0.35801125 0.46668994 0.030669412
0.23202729 0.49940306 -0.07265856 -0.080614366 -0.25930685 0.28194016 0.19670233 0.2663244
0.37980387 -0.06399758 -0.19714984 0.1627896 0.27162477 -0.30007905 -0.39913714 0.097269684
0.26536533 0.11303573 0.2715782 0.21075101 -0.19864284 0.061648875 0.1937509 0.16248624
-0.1515537 -0.1270322 -0.20770304 0.019791441 -0.14555931 -0.21484463 0.25404796 0.15234238
-0.17257622 0.08360466 -0.05418871 -0.054270655 -0.07599784 0.027936358 0.671599 -0.24962164
0.11982701 0.0058261286 0.09274221 0.0469554 0.05847579 -0.25736216 0.13562894 -0.23516376
0.16957986 -0.36146545 0.10127601 0.06729405 -0.38640663 -0.40182066 0.33614278 -0.1528445
0.014005302 0.0057262564 0.32218555 0.042676274 0.2967323 0.3815477 0.22586569 -0.006858128
-0.17189185 0.14740221 -0.20715778 0.055583194 0.020972857 -0.15371872 0.25875908 0.21961221
0.2558917 0.037487037 -0.021343075 0.14829624 -0.16969939 -0.06335435 0.13900213 -0.22086294
-0.324145 0.17483154 0.4011629 0.19989721 0.15264705 -0.21838273 0.11419527 -0.3120392
0.23410192 0.29971528 0.092576586 0.1988209 0.14950165 -0.06331872 -0.008057691 -0.26846716
0.015082551 -0.13879369 0.13061701 0.06341078 -0.20031638 0.20651436 0.39968252 0.19857481
-0.35937887 0.18003164 0.03892847 -0.24482682 0.06105215 0.3785297 0.383387 0.32033095
-0.050279427 0.17543569 -0.2499937 0.20609935 0.037565596 -0.08614388 0.09743696 -0.19098698
0.16605888 0.17320888 -0.23977453 0.26278552 0.19366813 0.28771317 -0.4753765 0.29666385
-0.20427224 -0.17130855 -0.013652396 0.12613094 -0.30301818 -0.18745506 -0.10050599 -0.013810994
-0.26254722 0.47982726 0.63894254 -0.044141278 -0.07058991 -0.17695029 -0.053920493 0.46701154
0.3548507 0.22155187 0.2135993 0.027369041 0.15148355 -0.07346523 0.3497117 -0.18243703
-0.23704244 -0.17572065 0.26390326 -0.35711813 0.12851024 0.02770642 -0.17971188 0.12100864
00000000: 2088 a83e 43c9 fa3d 73d7 153e 57ef 4f3e
00000010: 76e9 3e3e 6bc8 623e 5c20 5dbe 2d58 8cbe
00000020: 01d9 76bd f28c b3bc fdf4 953e 57a4 42be
00000030: d274 acbc bcb8 d53d ee0f 0a3e 1b3d 08be
00000040: f063 273e 3f75 17be 65d9 23be 0f10 33be
00000050: 8b69 45bd a537 a8bd c6b2 14bd e0bc 61be
00000060: 307c 31bd 9728 9cbd 64c5 b6bc f49c c13d
00000070: 1d1e 843e e011 0b3e cb28 873e ea6d 473e
00000080: f07d f9bd 1356 ec3d fe38 f7bd 2a9d d93e
00000090: 7daf 80be cc8a 51be c4f1 61bd 242e 0ebb
000000a0: 7491 75be 7de6 9c3e 6417 483e 6e31 b7be
000000b0: a3bb 833e e16e 82be ad64 0e3e adac 623e
000000c0: ffb6 06be 89e2 8bbe 8c75 663e d0e2 aabe
000000d0: 57d5 35be df4f c83e 3277 433e 888a 2abe
000000e0: 12fa 8d3e d3d4 c43e 4155 89be 85e0 303d
000000f0: 541f 1abe 01c8 a7be 83ca 3e3e 08ac 9d3e
00000100: 5196 803e bc94 a4be 334f 61be d16b 733e
00000110: ca43 3c3c ad65 d23e a90e a03e 1476 3fbd
00000120: 1098 843d be21 7d3d e330 a13e 0fce 433e
00000130: 0d35 aa3e d731 01be 37ad cd3e 0acd b6be
00000140: 16aa 8dbe 775e 1a3e 336f 04be a2ef 5e3d
00000150: 3f16 e1bd 360f 083e 0320 61be 6be6 423d
00000160: 51ef 24bd 49ab 6c3e 8695 aebe 0534 713e
00000170: 46bd c83e 404d b7be fcf1 ee3e 6b3e fb3c
00000180: 9098 6d3e c2b1 ff3e 03ce 94bd 2519 a5bd
00000190: dec3 84be 765a 903e 566c 493e ac5b 883e
000001a0: a775 c23e 2a11 83bd a6e1 49be 51b2 263e
000001b0: 6712 8b3e f6a3 99be b45b ccbe 5435 c73d
000001c0: f7dd 873e 477f e73d 4c0c 8b3e 1dcf 573e
000001d0: 0769 4bbe 8883 7c3d a366 463e cb62 263e
000001e0: e530 1bbe bb14 02be 1bb0 54be a921 a23c
000001f0: 800d 15be 3b00 5cbe 9312 823e a4ff 1b3e
00000200: d2b7 30be ec38 ab3d fbf4 5dbd e84a 5ebd
00000210: c1a4 9bbd cada e43c e9ed 2b3f d19c 7fbe
00000220: dd67 f53d 1ce9 be3b a1ef bd3d 4e54 403d
00000230: 4f84 6f3d f9c4 83be 50e2 0a3e c5ce 70be
00000240: 58a6 2d3e 0012 b9be cc69 cf3d 76d1 893d
00000250: 17d7 c5be 70bb cdbe e81a ac3e 4583 1cbe
00000260: 7f76 653c 52a3 bb3b 81f5 a43e 51cd 2e3d
00000270: 4ced 973e 385a c33e 5649 673e 26ba e0bb
00000280: 6b04 30be 9bf0 163e 2b21 54be 34ab 633d
00000290: 45cf ab3c 7168 1dbe 127c 843e 06e2 603e
000002a0: 3d04 833e 028c 193d acd7 aebc f8da 173e
000002b0: adc5 2dbe edbf 81bd 9356 0e3e e529 62be
000002c0: 55f6 a5be 0a07 333e 3965 cd3e dbb1 4c3e
000002d0: 824f 1c3e b99f 5fbe 36df e93d 9ac3 9fbe
000002e0: 6ab8 6f3e 4874 993e cb98 bd3d b597 4b3e
000002f0: f616 193e 3fad 81bd 6804 04bc 8774 89be
00000300: ce1c 773c ef1f 0ebe 77c0 053e 83dd 813d
00000310: bd1f 4dbe 8078 533e 30a3 cc3e 3257 4b3e
00000320: 8200 b8be 375a 383e 7673 1f3d e2b3 7abe
00000330: d211 7a3d a5ce c13e 4d4b c43e 6b02 a43e
00000340: cdf1 4dbd 6aa5 333e 59fe 7fbe b50b 533e
00000350: 62de 193d 346c b0bd 078d c73d 1792 43be
00000360: 570b 2a3e ab5d 313e 7487 75be d38b 863e
00000370: f050 463e 244f 933e 8c64 f3be 53e4 973e
00000380: be2c 51be 826b 2fbe 4dae 5fbc 7828 013e
00000390: 3325 9bbe 38f4 3fbe 16d6 cdbd 8247 62bc
000003a0: 976c 86be ebab f53e bd91 233f 7ccd 34bd
000003b0: 7191 90bd 7532 35be bcdb 5cbd 231c ef3e
000003c0: feae b53e 7ede 623e c6b9 5a3e 0a35 e03c
000003d0: 811e 1b3e f074 96bd 690d b33e c6d0 3abe
000003e0: 41bb 72be 1df0 33be 541e 873e 30d8 b6be
000003f0: 3098 033e 93f8 e23c 6406 38be 61d3 f73d

model/conv1d_11/Conv1D f4 [16, 1, 3, 20]
0.07752858 -0.18102399 0.019389218 -0.036055245 0.14073053 0.17049217 -0.09001314 0.048137404
-0.092001125 0.3146039 0.115180336 0.14518914 0.24017712 0.23063195 -0.029628614 -0.08475063
0.19380328 -0.14357571 0.15830679 0.25290856 -0.22911024 0.21661714 0.16793156 0.10386953
-0.018127065 0.13380507 0.015264397 0.08491235 0.020411517 -0.037097022 0.027566519 -0.24285744
0.42392448 0.20923313 0.0060463445 -0.03977913 -0.0029506872 0.2121552 0.19307438 0.038337022
-0.1025976 0.07618237 0.22804156 0.05239635 -0.047036264 0.26884335 0.11832935 0.122245
0.1812518 0.21947652 0.09891649 0.071582966 0.19547737 0.109339796 -0.03225607 0.15688846
0.14225109 0.06506211 0.08629229 0.19730628 -0.2847459 -0.012604041 0.3100789 -0.016195096
-0.019281533 -0.13583966 -0.05442122 0.3149841 0.32273272 0.18126248 0.13858265 -0.07542037
-0.17003126 -0.036876194 0.20129797 -0.13904484 -0.18412635 0.29076093 -0.19282143 -0.14885134
0.25140274 0.09697602 0.05734677 -0.16149314 0.24422237 -0.116689295 -0.01872301 0.24636634
0.23782066 0.19687545 -0.079325475 -0.11639595 0.16828033 -0.14253591 0.10563758 0.045235198
0.037592564 -0.06669553 0.17357956 -0.15863688 0.026213817 -0.15991472 -0.0788046 0.41290697
0.038160536 0.04689115 0.24213906 0.045830637 0.0857636 0.24155898 0.21041144 -0.19691533
0.08595787 -0.14880417 0.055661328 0.0036013257 0.24428862 0.0092795845 -0.022446686 -0.063798174
-0.16184439 -0.06700512 -0.11894937 -0.23503953 -0.22310288 0.23308438 -0.022959998 -0.043947443
0.2712079 0.30451307 0.028822016 -0.13238879 0.05245892 0.102967836 -0.16287547 -0.049781714
0.15770268 0.16100155 0.09771564 0.04400685 0.1608181 -0.027117094 0.3020655 -0.008653862
-0.07232575 0.2875226 0.0009013074 0.013101677 -0.0763389 0.1322221 -0.048556183 0.4279591
-0.12038607 0.26840916 0.36213374 -0.014411151 0.37699786 0.13982788 0.20177764 0.092318565
-0.017877132 0.23035705 0.24001224 -0.20157097 -0.09050952 0.33102903 -0.10414919 -0.1442402
0.015015149 0.10886473 0.127347 0.050881106 -0.06381005 0.29403496 -0.17541994 -0.28438127
-0.27812493 0.15805705 0.099970505 0.20163256 0.14174502 0.22045152 -0.09555172 0.017453913
0.27686465 -0.12411309 -0.29222786 0.057175223 0.027882602 -0.06745969 -0.04839275 0.1005117
-0.13420804 0.093960986 -0.05524105 0.0131931035 -0.09551175 0.08346319 -0.15610659 -0.09636176
-0.23108126 0.15641317 0.26009357 0.25703132 0.2493176 -0.24747705 -0.24188788 0.1726263
0.29916003 0.13249527 -0.16500531 0.0830766 0.12827519 -0.09636718 0.17135584 -0.02797887
0.17882252 0.09774072 0.13478304 -0.020025285 -0.0033656163 0.17075129 0.18526825 0.16416511
0.33012435 -0.18709195 -0.2171644 -0.1718801 -0.23735064 0.03531767 -0.07251421 0.08399677
-0.017965976 0.1603819 0.23890713 0.21416554 0.39999014 -0.20368557 -0.081171356 0.33989695
-0.054272264 0.28230435 0.21373421 0.21839921 -0.0998274 -0.1535509 -0.29649523 0.22389965
-0.07469106 -0.09282908 -0.064942434 -0.035711046 -0.056371458 0.124484904 0.040461946 -0.27598375
00000000: 4ec7 9e3d 5a5e 39be 23d6 9e3c aaae 13bd
00000010: aa1b 103e 8095 2e3e cf58 b8bd ba2b 453d
00000020: 166b bcbd c313 a13e abe3 eb3d 76ac 143e
00000030: fef0 753e c82a 6c3e b5b7 f2bc bd91 adbd
00000040: 5e74 463e 8305 13be 2d1b 223e 3b7d 813e
00000050: e09b 6abe e2d0 5d3e 40f6 2b3e 8cb9 d43d
00000060: 367f 94bc 3204 093e 8517 7a3c 87e6 ad3d
00000070: 0e36 a73c 0cf3 17bd 2ed3 e13c 9faf 78be
00000080: a10c d93e 3641 563e 6a20 c63b 71ef 22bd
00000090: 5160 41bb 363f 593e 4ab5 453e 4807 1d3d
000000a0: b11e d2bd 8105 9c3d ba83 693e 8e9d 563d
000000b0: 19a9 40bd d6a5 893e a956 f23d 965b fa3d
000000c0: 129a 393e 74be 603e bb94 ca3d 179a 923d
000000d0: 382b 483e 8bed df3d f11e 04bd 5ea7 203e
000000e0: 45aa 113e 493f 853d 03ba b03d a80a 4a3e
000000f0: 37ca 91be 2e81 4ebc a9c2 9e3e 94ab 84bc
00000100: 4ef4 9dbc 8d19 0bbe c9e8 5ebd 9945 a13e
00000110: 393d a53e df9c 393e 9ce8 0d3e ff75 9abd
00000120: ad1c 2ebe 7e0b 17bd 0e21 4e3e c561 0ebe
00000130: 9e8b 3cbe 9ede 943e fb72 45be 7c6c 18be
00000140: dcb7 803e 5d9b c63d 72e4 6a3d 755e 25be
00000150: 6e15 7a3e ccfa eebd ff60 99bc 7547 7c3e
00000160: 4287 733e b899 493e 6575 a2bd 0061 eebd
00000170: ae51 2c3e eff4 11be 8458 d83d 8b48 393d
00000180: a9fa 193d ab97 88bd d7be 313e b571 22be
00000190: 5cbe d63c afc0 23be 4e64 a1bd 8b68 d33e
000001a0: 394e 1c3d ef10 403d 4df3 773e e8b8 3b3d
000001b0: d4a4 af3d 3d5b 773e 1976 573e 2ca4 49be
000001c0: ae0a b03d 1f60 18be 22fd 633d 3804 6c3b
000001d0: cc26 7a3e 6609 183c 1de2 b7bc 9ea8 82bd
000001e0: 89ba 25be fb39 89bd ba9b f3bd 34ae 70be
000001f0: 1575 64be acad 6e3e 9b16 bcbc 3c02 34bd
00000200: c3db 8a3e 23e9 9b3e 261c ec3c ed90 07be
00000210: 2adf 563d cde0 d23d d4c8 26be e9e7 4bbd
00000220: d07c 213e 97dd 243e 231f c83d 8740 343d
00000230: 80ad 243e ab24 debc 54a8 9a3e eec8 0dbc
00000240: 861f 94bd 2a36 933e b745 6c3a 6ba8 563c
00000250: 9257 9cbd 3b65 073e d9e2 46bd 751d db3e
00000260: f98c f6bd ed6c 893e 9869 b93e c01c 6cbc
00000270: dd05 c13e 0a2f 0f3e cc9e 4e3e 8411 bd3d
00000280: 1073 92bc b8e2 6b3e c5c5 753e 9f68 4ebe
00000290: 0e5d b9bd a37c a93e 2c4c d5bd b4b3 13be
000002a0: 1902 763c 79f4 de3d 4167 023e b568 503d
000002b0: d8ae 82bd c08b 963e 49a1 33be 6c9a 91be
000002c0: 6466 8ebe b5d9 213e 56bd cc3d c478 4e3e
000002d0: 9b25 113e 0bbe 613e 9fb0 c3bd 82fb 8e3c
000002e0: 34c1 8d3e 012f febd e49e 95be 9130 6a3d
000002f0: 0e6a e43c 4e28 8abd 7a37 46bd 14d9 cd3d
00000300: d56d 09be 9e6e c03d 7044 62bd e327 583c
00000310: aa9b c3bd c0ee aa3d 68da 1fbe 5059 c5bd
00000320: 91a0 6cbe c62a 203e fc2a 853e 9c99 833e
00000330: 1d4d 7f3e a06a 7dbe 75b1 77be f3c4 303e
00000340: 812b 993e d7ac 073e 27f7 28be 1124 aa3d
00000350: 925a 033e 285c c5bd e877 2f3e f133 e5bc
00000360: 401d 373e 492c c83d 9104 0a3e 110c a4bc
00000370: ac91 5cbb 6dd9 2e3e f6b6 3d3e e61a 283e
00000380: 0f06 a93e 0895 3fbe 5860 5ebe 5601 30be
00000390: 0c0c 73be 43a9 103d 5582 94bd 8006 ac3d
000003a0: 622d 93bc 273b 243e 12a4 743e 364e 5b3e
000003b0: 82cb cc3e f392 50be 2b3d a6bd f906 ae3e
000003c0: 984c 5ebd 328a 903e 24dd 5a3e 0ba4 5f3e
000003d0: 4f72 ccbd 723c 1dbe 39ce 97be f345 653e
000003e0: a0f7 98bd 2c1d bebd 8a00 85bd bf45 12bd
000003f0: c2e5 66bd f1f1 fe3d 6dbb 253d be4d 8dbe

model/conv1d_12/Conv1D f4 [16, 1, 5, 20]
0.46262267 0.14922595 -0.14092155 0.18396154 0.065351784 0.15452275 0.014278501 0.07576536
-0.08274469 0.12468831 0.23233044 0.1203916 0.14346106 0.0839695 0.112712346 -0.14015822
-0.06320825 0.2133339 -0.018119875 0.14753677 -0.016659712 0.24354804 0.16750918 0.21453333
0.1679887 0.08895613 -0.012388711 0.34188172 0.0015970242 -0.060212348 -0.13288288 0.02570856
-0.2219006 -0.08258309 0.06917829 -0.052572668 -0.15457629 -0.061619103 0.026357438 -0.06126148
0.026543342 0.11496817 -0.03426395 -0.102437295 0.22534434 0.19482875 0.22028932 -0.22113183
0.2348576 -0.012912512 0.035846647 0.08110484 0.22444853 0.22179094 0.25866288 -0.19820549
-0.12517339 0.07067608 0.24364562 0.17210566 -0.035717662 0.31462002 -0.1691251 0.085727364
0.034570843 0.035665166 0.23074622 0.09297012 0.20099285 -0.12077761 -0.112088226 0.3024659
0.15849364 -0.04537645 0.14855146 -0.065576136 -0.08307174 -0.042957745 0.012877882 0.026802026
-0.01171216 0.10662082 -0.18653795 -0.18499237 0.10235299 0.10804133 -0.18655661 0.0978685
-0.16718714 0.028779764 0.23451078 -0.12636733 0.020493537 -0.014465066 -0.1253822 -0.077209026
0.12648703 0.020886002 0.007805737 0.2747703 0.12805082 0.12740852 -0.074331686 -0.03697592
0.0029760937 0.25077283 -0.12787633 -0.18469219 -0.0795673 0.07961511 0.13199632 -0.015419705
0.2770278 -0.034092817 0.07552743 0.1767269 0.18500073 0.022488225 0.058618005 0.26841447
0.114040785 -0.1283201 -0.06221174 0.12924284 0.17050512 0.07124438 -0.22109841 0.2813897
-0.1698445 -0.069742024 0.081488766 -0.14654024 0.024728332 0.03157801 -0.05960938 -0.036391653
0.098874815 -0.10453028 -0.1232061 -0.068796754 0.07792843 0.16495082 -0.09788773 -0.09776015
0.08655364 0.050601613 0.136475 -0.081108205 0.053443722 0.122478835 0.26129436 -0.01008355
0.27503577 -0.011739351 0.05309851 -0.15314333 -0.16729668 0.25621825 0.143459 0.07677634
8.9427536e-05 0.1953737 0.14706707 -0.15079175 0.14188896 0.057780515 0.08700665 -0.05557608
0.081090815 0.1373963 -0.0085144155 0.027874473 -0.13189583 -0.114957586 -0.10015161 -0.19181764
-0.0042711017 0.20959456 -0.086325124 -0.03155192 0.18389201 0.18534389 -0.015085351 0.2190755
-0.06383932 0.030138645 -0.117224924 0.23526703 0.07107705 0.236945 0.04900666 -0.0765322
0.17071797 0.20166714 0.119436294 0.055179503 0.07195002 0.27575284 0.18686053 0.011314168
0.09476249 0.15623008 0.27004787 -0.124228135 -0.13984774 -0.1411388 0.12740669 -0.050785877
0.13770707 -0.12810865 -0.11969265 -0.020453187 -0.029220976 -0.18841623 -0.051258832 0.35236257
0.19648817 0.11890918 -0.08798565 0.11818672 0.09407002 0.05573189 0.1454232 0.0043210424
0.021269912 -0.09460444 -0.19502819 0.2492621 0.14354959 -0.14067225 -0.16019996 -0.2120002
-0.18298979 0.117632866 0.11170574 0.08956631 -0.10143885 0.19284604 -0.05127607 -0.09324902
0.06342728 -0.053049523 -0.00042209047 0.25615442 0.16020414 0.09517682 0.03929123 0.16710322
0.046054997 -0.06353343 -0.1370606 0.22625162 0.09587544 0.19372083 0.03790233 0.2714662
00000000: e1dc ec3e b0ce 183e bd4d 10be 6a60 3c3e
00000010: 28d7 853d 363b 1e3e 60f0 693c de2a 9b3d
00000020: 0c76 a9bd 965c ff3d 08e8 6d3e df8f f63d
00000030: 75e7 123e 34f8 ab3d bbd5 e63d a385 0fbe
00000040: 5473 81bd 3474 5a3e 2270 94bc e113 173e
00000050: f379 88bc a864 793e 8787 2b3e a0ae 5b3e
00000060: 3b05 2c3e a22e b63d 05fa 4abc 1f0b af3e
00000070: 3d53 d13a 39a1 76bd 7312 08be c29a d23c
00000080: e939 63be 5321 a9bd 59ad 8d3d 7056 57bd
00000090: 3f49 1ebe 5064 7cbd 8eeb d73c 51ed 7abd
000000a0: 6c71 d93c 6f74 eb3d 5b58 0cbd a5ca d1bd
000000b0: abc0 663e 3081 473e 8693 613e 6270 62be
000000c0: 837e 703e 008f 53bc efd3 123d 4b1a a63d
000000d0: d6d5 653e 2a1d 633e 766f 843e 61f6 4abe
000000e0: 742d 00be 9fbe 903d 3d7e 793e 773c 303e
000000f0: af4c 12bd e015 a13e 212f 2dbe d491 af3d
00000100: 289a 0d3d a315 123d bd48 6c3e 1e67 be3d
00000110: 12d1 4d3e 405a f7bd 838e e5bd cfdc 9a3e
00000120: 284c 223e a8dc 39bd e01d 183e c84c 86bd
00000130: 8421 aabd 76f4 2fbd c1fd 523c ec8f db3c
00000140: 5ce4 3fbc 045c da3d ce03 3fbe a46e 3dbe
00000150: 729e d13d c644 dd3d b208 3fbe 486f c83d
00000160: 1b33 2bbe 8ac3 eb3c 9823 703e 7066 01be
00000170: 10e2 a73c e2fe 6cbc 3164 00be c41f 9ebd
00000180: d185 013e 1f19 ab3c 45c7 ff3b b1ae 8c3e
00000190: c11f 033e 6177 023e 363b 98bd 1074 17bd
000001a0: 910a 433b 4c65 803e 03f2 02be f31f 3dbe
000001b0: 2ef4 a2bd 3f0d a33d 0b2a 073e eea2 7cbc
000001c0: 96d6 8d3e e9a4 0bbd 20ae 9a3d e5f7 343e
000001d0: d570 3d3e 3a39 b83c 6f19 703d 9f6d 893e
000001e0: 378e e93d 5866 03be bdd1 7ebd 3c58 043e
000001f0: e598 2e3e 93e8 913d 9f67 62be 5012 903e
00000200: b7eb 2dbe e8d4 8ebd 95e3 a63d a50e 16be
00000210: 1293 ca3c f257 013d f728 74bd 6a0f 15bd
00000220: e17e ca3d f913 d6bd 7b53 fcbd 50e5 8cbd
00000230: f198 9f3d dee8 283e 5d79 c8bd 7936 c8bd
00000240: 0943 b13d a343 4f3d 1ac0 0b3e 0f1c a6bd
00000250: cee7 5a3d 2fd6 fa3d 60c8 853e 7935 25bc
00000260: 7dd1 8c3e 6856 40bc d37d 593d 9bd1 1cbe
00000270: d24f 2bbe 0a2f 833e ebe6 123e ea3c 9d3d
00000280: 0b8b bb38 0b10 483e c098 163e 2769 1abe
00000290: 574b 113e 43ab 6c3d 8b30 b23d bea3 63bd
000002a0: f112 a63d 9eb1 0c3e 0c80 0bbc 0259 e43c
000002b0: b30f 07be e26e ebbd 4a1c cdbd d86b 44be
000002c0: 99f4 8bbb f59f 563e 3acb b0bd 963c 01bd
000002d0: 304e 3c3e caca 3d3e 8c28 77bc 5455 603e
000002e0: 30be 82bd 52e5 f63c 9f13 f0bd d7e9 703e
000002f0: d890 913d b6a1 723e 35bb 483d eabc 9cbd
00000300: b1d0 2e3e d581 4e3e 049b f43d e703 623d
00000310: 885a 933d 7a2f 8d3e 5e58 3f3e 0f5f 393c
00000320: d612 c23d c7fa 1f3e b743 8a3e 526b febd
00000330: 3f34 0fbe b186 10be e676 023e da04 50bd
00000340: 1503 0d3e ea2e 03be 6c21 f5bd 718d a7bc
00000350: d460 efbc 2ff0 40be c8f4 51bd de68 b43e
00000360: 3234 493e a886 f33d d231 b4bd e10b f23d
00000370: c8a7 c03d 1f47 643d d2e9 143e 8897 8d3b
00000380: 3d3e ae3c f9bf c1bd 78b5 47be 903e 7f3e
00000390: aafe 123e 630c 10be 750b 24be 9516 59be
000003a0: ad61 3bbe 80e9 f03d fbc5 e43d 8b6e b73d
000003b0: 2cbf cfbd 6f79 453e db06 52bd 58f9 bebd
000003c0: 29e6 813d 754a 59bd 064c ddb9 ac26 833e
000003d0: 8e0c 243e 11ec c23d d7ef 203d 1b1d 2b3e
000003e0: 2aa4 3c3d d11d 82bd 9d59 0cbe 81ae 673e
000003f0: 585a c43d c15e 463e 793f 1b3d 9efd 8a3e

model/conv1d_13/Conv1D f4 [16, 1, 7, 20]
0.2942731 -0.06664751 0.013528534 -0.11615564 -0.030469289 -0.03211317 -0.07731227 0.11335716
-0.15043932 0.15519112 -0.15816471 -0.09576121 -0.15666758 -0.24453555 0.04984417 0.083099306
9.506468e-05 -0.017917437 -0.12885259 0.17494553 0.060291283 0.32868686 -0.19246529 -0.08414116
0.0075805485 0.050158802 0.22877175 0.010746894 0.29876935 0.02275821 -0.06910932 0.2379906
-0.033326466 0.18965715 0.1167725 -0.15047465 -0.007663868 0.13605674 0.28481865 -0.16614297
0.21302769 0.089007355 0.11128926 0.10473197 0.034837715 0.18133761 0.08872263 -0.016666293
0.019878633 0.055387255 -0.06208469 0.10017819 0.009973312 0.0002276257 0.19220826 0.17409661
-0.12534489 0.15892395 0.10829885 -0.11639683 0.18948784 0.04232893 -0.21991411 -0.014276054
0.0273694 0.24221441 0.07236749 0.08399427 -0.046319235 -0.00045594305 0.044075534 0.10306387
0.21811777 0.16706675 0.20301828 0.18333456 0.095522255 0.235164 0.120877035 0.12323056
0.18482335 0.09838294 -0.035484634 0.0745674 0.13807225 0.14774165 0.266301 0.027223712
0.029583447 -0.04958333 0.030158889 0.26262313 0.12392364 0.20076746 0.113641724 -0.18108258
-0.1744206 0.12752174 -0.039786518 0.081594616 -0.017277973 0.036355376 -0.11957543 -0.17309575
-0.1055715 -0.1399234 -0.05895092 0.018844 0.011103999 0.13131411 -0.0017742617 0.0037995165
0.1489094 0.08690211 0.09547289 -0.03941404 -0.041093215 0.008711209 -0.07864499 -0.025258472
0.11477651 -0.09505741 -0.039522763 0.05572753 -0.061470855 -0.07169038 -0.17910409 -0.025984865
0.05504945 -0.062551655 -0.06266213 -0.11804582 0.1415623 0.17056105 0.09020414 -0.014109666
-0.03856571 0.08386538 -0.11001063 -0.1072378 -0.13479067 -0.017005295 0.1011202 0.16721651
0.04458955 0.3733627 0.40947756 -0.335755 0.06524727 0.081991136 0.15196535 0.027122611
0.19149475 0.14978342 -0.020782223 -0.002176842 0.41217074 -0.049044587 0.013202499 0.07711722
0.19470212 0.11561032 -0.08143662 -0.012340612 0.20555516 0.16579604 0.21502513 -0.29580465
-0.054636613 0.1832541 0.23237273 0.21412033 0.3394908 -0.0018512956 0.025632383 -0.039868
0.30868024 -0.053199787 -0.0038641337 0.31722736 -0.24782419 0.059371147 -0.017897341 -0.14740628
0.030544896 -0.032748908 -0.17086376 0.080791354 -0.12372535 -0.091000065 -0.045167588 -0.0731373
-0.019339122 -0.07249285 -0.10618824 -0.17520584 0.026546651 -0.14174604 0.077133656 0.019545872
0.060736254 -0.10291354 -0.08517241 -0.1896161 0.17055376 -0.013489863 0.05349441 -0.14254189
-0.12068369 0.023004118 0.29325825 -0.1102815 0.22212835 0.012063092 0.107007325 0.08369692
-0.1025045 0.10180645 -0.008827919 0.10018822 -0.0870222 -0.012086315 0.07650213 -0.14233106
0.10235141 0.043110788 0.046203766 -0.10580088 -0.14360921 -0.10275846 -0.053108126 0.036101874
-0.012122198 -0.09456644 -0.075935304 -0.1990425 -0.18814264 -0.17138033 -0.13192451 0.039573804
0.010027784 -0.03645962 0.25480387 0.11058122 0.12996837 0.010349055 0.064746775 0.10247201
0.05737687 0.21479921 0.0755126 -0.019338325 0.043471295 0.20866819 0.10741129 0.09785836
00000000: f7aa 963e 7d7e 88bd c9a6 5d3c 02e3 edbd
00000010: bb9a f9bc 1989 03bd e555 9ebd cc27 e83d
00000020: c40c 1abe 6cea 1e3e eef5 21be 741e c4bd
00000030: 776d 20be 8767 7abe 6729 4c3d f82f aa3d
00000040: 765d c738 97c7 92bc eff1 03be ec24 333e
00000050: fef3 763d a549 a83e 9f15 45be 3352 acbd
00000060: 4066 f83b 5173 4d3d 2443 6a3e be13 303c
00000070: 4cf8 983e 6d6f ba3c 3089 8dbd cfb3 733e
00000080: 5581 08bd 7c35 423e 6c26 ef3d 0716 1abe
00000090: 2f21 fbbb 7552 0b3e c0d3 913e 6221 2abe
000000a0: ee23 5a3e 7d49 b63d a0eb e33d b77d d63d
000000b0: feb1 0e3d 91b0 393e 36b4 b53d c087 88bc
000000c0: 84d8 a23c bfdd 623d 844c 7ebd 392a cd3d
000000d0: 1a67 233c cfae 6e39 3ed2 443e 6246 323e
000000e0: 695a 00be f6bc 223e cacb dd3d 7661 eebd
000000f0: 1a09 423e 1a61 2d3d 2a31 61be 1ce6 69bc
00000100: cb35 e03c 0e07 783e 6835 943d 3005 ac3d
00000110: 3db9 3dbd a40b efb9 8c88 343d 2613 d33d
00000120: 445a 5f3e 8c13 2b3e 06e4 4f3e 0ebc 3b3e
00000130: 2ca1 c33d d5ce 703e 618e f73d 4e60 fc3d
00000140: 5542 3d3e ff7c c93d 5658 11bd cbb6 983d
00000150: d062 0d3e 9649 173e 9b58 883e 4304 df3c
00000160: fc58 f23c e417 4bbd c60f f73c 8a76 863e
00000170: adcb fd3d fc95 4d3e febc e83d b66d 39be
00000180: 509b 32be 0f95 023e 30f7 22bd 141b a73d
00000190: 898a 8dbc 60e9 143d f7e3 f4bd 0340 31be
000001a0: df35 d8bd 1448 0fbe 8576 71bd bb5e 9a3c
000001b0: 8ced 353c 3577 063e 588e e8ba 4f01 793b
000001c0: b57b 183e bcf9 b13d 4a87 c33d 9e70 21bd
000001d0: 5c51 28bd 75b9 0e3c a010 a1bd dbea cebc
000001e0: f20f eb3d 76ad c2bd 9fe2 21bd 8d42 643d
000001f0: ddc8 7bbd 68d2 92bd 1067 37be 36de d4bc
00000200: 887b 613d 151b 80bd 0155 80bd 02c2 f1bd
00000210: b5f5 103e 8ea7 2e3e f3bc b83d 3b2c 67bc
00000220: 14f7 1dbd 9dc1 ab3d 414d e1bd 7e9f dbbd
00000230: 9106 0abe b04e 8bbc 1b18 cf3d ce3a 2b3e
00000240: 88a3 363d 6529 bf3e 0ba7 d13e 14e8 abbe
00000250: 5ca0 853d f8ea a73d ce9c 1b3e 3d30 de3c
00000260: 3317 443e d360 193e 7b3f aabc 59a9 0ebb
00000270: 0b08 d33e fae2 48bd 4b4f 583c a2ef 9d3d
00000280: fe5f 473e 1ac5 ec3d 3ec8 a6bd 4730 4abc
00000290: 0d7d 523e 70c6 293e 8c2f 5c3e b573 97be
000002a0: a4ca 5fbd f6a6 3b3e 1ef3 6d3e 5c42 5b3e
000002b0: bdd1 ad3e 2ca7 f2ba 01fb d13c a14c 23bd
000002c0: 560b 9e3e 05e8 59bd 683d 7dbb a06b a23e
000002d0: a0c5 7dbe 292f 733d 729d 92bc acf1 16be
000002e0: 4a39 fa3c b823 06bd e9f6 2ebe f075 a53d
000002f0: b763 fdbd 3e5e babd a601 39bd 02c9 95bd
00000300: 146d 9ebc 2277 94bd 3879 d9bd 2969 33be
00000310: 5d78 d93c e025 11be 40f8 9d3d aa1e a03c
00000320: 94c6 783d 56c4 d2bd df6e aebd b92a 42be
00000330: a5a5 2e3e 9604 5dbc f41c 5b3d 80f6 11be
00000340: 0329 f7bd 2273 bc3c f225 963e 44db e1bd
00000350: 9d75 633e 46a4 453c a826 db3d 4a69 ab3d
00000360: e1ed d1bd e67f d03d faa2 10bc 7b2f cd3d
00000370: b238 b2bd ae05 46bc 26ad 9c3d 3cbf 11be
00000380: 9e9d d13d f094 303d 2940 3d3d 22ae d8bd
00000390: 4b0e 13be 0773 d2bd e887 59bd 8fdf 133d
000003a0: 2f9c 46bc 0dac c1bd f883 9bbd ccd1 4bbe
000003b0: 77a8 40be 537e 2fbe 3817 07be 2418 223d
000003c0: 934b 243c af56 15bd a775 823e 6878 e23d
000003d0: 6e16 053e 158f 293c f599 843d d8dc d13d
000003e0: 0204 6b3d 53f4 5b3e 5aa6 9a3d 686b 9ebc
000003f0: f50e 323d 1dad 553e 73fa db3d f769 c83d

model/conv1d_14/Conv1D f4 [16, 1, 9, 20]
-0.05556145 0.014724383 0.117165454 0.07807058 0.21616152 -0.11585062 -0.065591045 0.06472148
-0.040498916 0.19741513 -0.009779725 0.0424021 0.12167079 0.1184993 0.30889392 -0.05339659
0.07618483 0.03641469 0.073346384 0.22807626 -0.192988 -0.17428896 -0.06374146 -0.13324037
-0.042776015 -0.16106138 -0.22689824 0.2373118 0.034265194 0.0001815634 0.11534948 -0.21526769
0.089991406 0.10982865 0.0008799526 -0.33277327 -0.14657715 0.018209517 0.0231714 -0.008754813
0.06284167 -0.098017745 -0.03663105 0.17834245 -0.045763995 -0.079985596 -0.13248342 0.16209804
-0.064318396 -0.03460779 -0.082182616 -0.15121551 -0.12769261 -0.06968074 0.014155616 0.14597873
-0.0547745 0.02076905 -0.021462321 0.008572341 -0.058688793 0.096363984 0.18275513 0.1974942
0.20370147 -0.02569892 0.27613008 0.115071766 0.2970979 -0.05803994 -0.13581447 0.011783399
-0.029407443 0.13243814 0.05774602 0.07587099 0.083997004 0.15851016 0.13889866 -0.06094181
0.034336645 0.11053201 -0.10450925 0.026492666 -0.017950613 -0.06215722 -0.065061264 0.18824391
-0.019378748 0.13793124 0.17458735 -0.13186444 0.10502782 -0.043641824 0.19102621 0.12449433
0.045159776 0.13016951 0.061084636 0.13793491 -0.015414513 0.0061846003 -0.029675018 0.20055862
-0.08841583 0.14479117 0.013287236 0.019504018 0.10859535 -0.012577525 -0.105366886 0.044857517
0.029254923 -0.024916453 -0.081984736 -0.041591577 0.026917648 0.015831286 0.013023814 -0.058265846
-0.010247289 0.23581854 0.120350495 0.11457254 0.2611273 0.10408309 0.04076926 0.1710494
0.18883967 0.14290608 0.0012189096 0.11954529 0.0024014658 0.10366003 0.27976444 0.09683605
0.030811721 0.060888637 0.11824147 0.053009816 0.11709427 0.094771735 0.04838965 0.1622117
0.09404215 -0.06576856 -0.012712095 0.19997504 0.23480538 0.10253065 0.040424842 0.16013809
0.13947593 0.16898727 0.061838027 0.084149525 0.04827296 0.12876473 -0.02327323 0.17101894
-0.0035480852 -0.063712716 0.062652364 0.1562907 0.047819994 -0.07524069 0.12379866 0.06068598
0.058734156 0.08610229 0.13544394 0.052751068 0.100217625 0.035706688 -0.05191843 0.16247861
0.048501268 -0.09459718 0.0071066963 0.031200333 0.04297507 0.08903852 0.034607146 0.07582134
0.10421228 0.07056293 -0.0034506454 0.014449303 0.027726665 0.16177255 0.14946596 0.10017562
0.17204891 0.1725472 0.20410566 -0.08261873 0.19539262 0.082218654 0.13180135 0.031279366
0.21866906 0.0754254 0.06864353 0.005246552 0.04205032 0.05897866 0.13263322 0.04742055
0.247297 -0.018573144 0.0141165815 -0.009722403 -0.15335172 0.0677692 -0.036990706 0.11259893
-0.055655405 0.1212098 0.29411244 -0.114228755 0.039361812 0.17390071 0.16112345 -0.090466045
0.20189525 0.16744559 -0.053721696 -0.0643258 0.14644398 -0.16236578 0.030058352 -0.014891716
-0.16721852 0.050042145 0.17682205 0.10417972 0.25526512 0.1116822 -0.024128893 -0.014610956
0.028414989 -0.05648071 -0.120192 -0.01987432 0.10227313 0.12087322 -0.0021408524 0.02266508
-0.0041473657 -0.08375914 0.07511185 0.06171771 -0.0270215 -0.03834288 -0.12123466 0.07539498
00000000: 6794 63bd 8a3e 713c 71f4 ef3d 78e3 9f3d
00000010: 7259 5d3e 1743 edbd 9954 86bd b28c 843d
00000020: 31e2 25bd 3127 4a3e 243b 20bc d3ad 2d3d
00000030: 892e f93d c3af f23d 5827 9e3e 62b6 5abd
00000040: cb06 9c3d 9227 153d a136 963d d38c 693e
00000050: a59e 45be ce78 32be e28a 82bd 2a70 08be
00000060: e735 2fbd 46ed 24be 0358 68be dd01 733e
00000070: a959 0c3d 0e62 3e39 593c ec3d 226f 5cbe
00000080: 6a4d b83d d8ed e03d 9fac 663a 4261 aabe
00000090: 5218 16be 202c 953c f3d1 bd3c 5970 0fbc
000000a0: 22b3 803d 87bd c8bd 710a 16bd 679f 363e
000000b0: 0773 3bbd 7dcf a3bd bca9 07be 07fd 253e
000000c0: 5db9 83bd e6c0 0dbd 5c4f a8bd 3dd8 1abe
000000d0: dac1 02be c7b4 8ebd f5ec 673c 737b 153e
000000e0: 3a5b 60bd db23 aa3c c0d1 afbc 0173 0c3c
000000f0: a963 70bd 7b5a c53d 2924 3b3e eb3b 4a3e
00000100: 1e97 503e 8b86 d2bc ec60 8d3e bfaa eb3d
00000110: 371d 983e 4abb 6dbd f312 0bbe 280f 413c
00000120: e1e7 f0bc dd9d 073e 1787 6c3d 4062 9b3d
00000130: 9f06 ac3d 7d50 223e 733b 0e3e 1f9e 79bd
00000140: 95a4 0c3d 9b5e e23d f208 d6bd 2607 d93c
00000150: 2a0d 93bc 9298 7ebd d73e 85bd 03c3 403e
00000160: 2ec0 9ebc d93d 0d3e 07c7 323e 7907 07be
00000170: d318 d73d c5c1 32bd 609c 433e e2f6 fe3d
00000180: 75f9 383d 284b 053e e233 7a3d cf3e 0d3e
00000190: 278d 7cbc 30a8 ca3b 0619 f3bc 3d5f 4d3e
000001a0: 5c13 b5bd 2344 143e b5b2 593c e4c6 9f3c
000001b0: 3d67 de3d f711 4ebc 98ca d7bd 84bc 373d
000001c0: 05a8 ef3c 971d ccbc 9de7 a7bd ee5b 2abd
000001d0: 6682 dc3c 9db0 813c d661 553c 2ba8 6ebd
000001e0: 3fe4 27bc 6a7a 713e 527a f63d 02a5 ea3d
000001f0: 7ab2 853e 8429 d53d abfd 263d 9327 2f3e
00000200: 305f 413e f955 123e d2c3 9f3a 29d4 f43d
00000210: e961 1d3b b64b d43d 493d 8f3e fb51 c63d
00000220: dd68 fc3c 5d66 793d 9528 f23d d220 593d
00000230: 1fcf ef3d af17 c23d 3a34 463d d31a 263e
00000240: 2c99 c03d abb1 86bd 6446 50bc 42c6 4c3e
00000250: d270 703e 97fb d13d 8594 253d 3dfb 233e
00000260: c7d2 0e3e 000b 2d3e df49 7d3d 9656 ac3d
00000270: deb9 453d e7da 033e 80a7 bebc 971f 2f3e
00000280: fe86 68bb d07b 82bd e24f 803d ab0a 203e
00000290: e6de 433d ca17 9abd 278a fd3d dd91 783d
000002a0: 3a93 703d 6656 b03d d1b1 0a3e 8111 583d
000002b0: e63e cd3d 2d41 123d 6ba8 54bd cb60 263e
000002c0: 44a9 463d 2bbc c1bd 4adf e83b d797 ff3c
000002d0: a106 303d d459 b63d 39c0 0d3d 3848 9b3d
000002e0: 3f6d d53d 4c83 903d 3924 62bb c5bc 6c3c
000002f0: 0823 e33c b4a7 253e 9b0d 193e e028 cd3d
00000300: 972d 303e 37b0 303e 1301 513e 0234 a9bd
00000310: 0115 483e 4162 a83d eff6 063e cb1e 003d
00000320: c8ea 5f3e a278 9a3d fb94 8c3d 45eb ab3b
00000330: f53c 2c3d 9b93 713d 01d1 073e 0d3c 423d
00000340: 6d3b 7d3e b526 98bc 3c49 673c b74a 1fbc
00000350: 3c08 1dbe 94ca 8a3d 9183 17bd 459a e63d
00000360: ecf6 63bd d83c f83d e895 963e c4f0 e9bd
00000370: da39 213d 0713 323e 8cfd 243e 4346 b9bd
00000380: a1bd 4e3e db76 2b3e 480b 5cbd 3fbd 83bd
00000390: 69f5 153e 3743 26be ef3c f63c 62fc 73bc
000003a0: 553b 2bbe fef8 4c3d d710 353e 2d5c d53d
000003b0: 1cb2 823e a3b9 e43d f5a9 c5bc cb62 6fbc
000003c0: 8dc6 e83c 5158 67bd 3927 f6bd 78cf a2bc
000003d0: 9374 d13d 618c f73d 8b4d 0cbb 1eac b93c
000003e0: a0e6 87bb e989 abbd 3ed4 993d b6cb 7c3d
000003f0: 315c ddbc 6c0d 1dbd e149 f8bd af68 9a3d
