results/fold_1/checkpoint/my_netTCR_model_fold_1.tflite (tflite, 406736 bytes, 73 tensors)

model/conv1d_10/BiasAdd/ReadVariableOp f4 [16]
00000000: 969d 74be 453a c7be 02e9 27be e9a0 8ebd
00000010: 2e89 943d a5f8 1fbd 5061 12be 5729 0ebe
00000020: c9c8 cebd 2203 26be 3d8e 29bd 70d6 55be
00000030: 0ee8 34be 0ddd 21be b340 89bd aa49 dcbd
-0.2388824 -0.38911644 -0.16397479 -0.06964285 0.072527274 -0.039055485 -0.14294934 -0.13882957
-0.100968905 -0.16212133 -0.041395415 -0.20882583 -0.17666647 -0.1580698 -0.067017935 -0.10756238

model/conv1d_11/BiasAdd/ReadVariableOp f4 [16]
00000000: d3ea 91be 8638 30be 2a3b 3cbe ff08 02be
00000010: e036 83be be5e 80be c213 6abe bac2 7fbe
00000020: 7670 62be e370 82bd 540e 9dbe 039d 88be
00000030: e211 98be 5375 65be 8a42 31be 7371 7dbe
-0.2849947 -0.17209062 -0.18381944 -0.12698744 -0.25627804 -0.25072283 -0.228591 -0.24976626
-0.22113213 -0.06369188 -0.30674994 -0.2668229 -0.29701144 -0.22408037 -0.17310539 -0.24750309

model/conv1d_12/BiasAdd/ReadVariableOp f4 [16]
00000000: 2b8b 82be 90cd 85be acdd 84be 4f6d 42be
00000010: aedf 53be 4fc9 9abd 6853 3bbe 591d 9fbd
00000020: 2485 87be ea5a 36be 9d2e 30be 9550 71be
00000030: d9b8 80bd a4fb 7bbe b679 78bd 7bee 96be
-0.25496802 -0.26133394 -0.25950372 -0.1898701 -0.20690796 -0.07557928 -0.18293536 -0.077692695
-0.26468766 -0.17808118 -0.17205282 -0.23565896 -0.06285257 -0.24607712 -0.060662948 -0.2947882

model/conv1d_13/BiasAdd/ReadVariableOp f4 [16]
00000000: 1762 03be e069 33be f17f 37be c390 48be
00000010: eb88 22be 8fa6 37be 2cd9 dcbd c48d b1bd
00000020: 58df d0bc 5985 97bd 4d70 38be 5027 38be
00000030: 3a5e d2bd 5f68 2ebe 04dc 59be 5363 63be
-0.12830387 -0.17520857 -0.179199 -0.19586472 -0.15872543 -0.17934631 -0.1078361 -0.08669618
-0.025497124 -0.07398481 -0.1801159 -0.17983747 -0.102718785 -0.17032002 -0.21275336 -0.22205858

model/conv1d_14/BiasAdd/ReadVariableOp f4 [16]
00000000: 8c3b 01be cc71 abbd a77c 33be 7ab9 34be
00000010: 1e00 42bd 911f debd e00b 40be 8c34 89be
00000020: 1d8e d3bd d3cf 38be cc44 02be 2bd6 1dbe
00000030: b86f 8dbe c78e 7ebd 2833 5fbe 8cfe f2bd
-0.12620372 -0.083713144 -0.1752802 -0.17648879 -0.047363393 -0.108458646 -0.1875453 -0.26797903
-0.1032984 -0.18048029 -0.12721556 -0.1541373 -0.27624297 -0.06214788 -0.21796858 -0.11864957

model/conv1d_15/BiasAdd/ReadVariableOp f4 [16]
00000000: 8672 4dbe dc8f 1abe 6ca1 d3bd cdfe 9bbe
00000010: b882 50be 6a90 6abe 5833 dbbd ac06 7fbe
00000020: 0f81 59be 535b 99be 8334 f7bd b99b 8dbe
00000030: f151 23be a6a4 51bd ea38 64be 378b 93bd
-0.20063218 -0.1509394 -0.10333523 -0.30467835 -0.20362365 -0.22906652 -0.107031524 -0.24904889
-0.21240638 -0.29952487 -0.12070563 -0.2765787 -0.15949227 -0.05118241 -0.22287336 -0.072042875

model/conv1d_16/BiasAdd/ReadVariableOp f4 [16]
00000000: 2db6 94be a8cf 4abe c7ab e1bd 53ab 5dbe
00000010: 738c 61be d8fb 94be dbca 89be 646c 60be
00000020: 768f 97be 2ecd d5bd 329a 05be 0cc7 59be
00000030: d806 96be 6ffe 60be b59b 57be 849d 0fbe
-0.2904524 -0.19805777 -0.11019092 -0.21647386 -0.22026233 -0.29098392 -0.2691258 -0.21916348
-0.2960164 -0.104395255 -0.13047102 -0.21267337 -0.29302096 -0.21972059 -0.21055491 -0.14024931

model/conv1d_17/BiasAdd/ReadVariableOp f4 [16]
00000000: 3d35 26be 134c 5abe 0e0f 25be 88c7 51be
00000010: 8b1a 64be 6c4e 1cbe 7987 7abe 3c70 73be
00000020: d876 b6bd 05ab 2abe 12d6 dabd 1e85 8cbe
00000030: 65ae 4fbe fa2e 61be e23f 03be 9bec 0ebe
-0.16231246 -0.21318083 -0.16119024 -0.20486271 -0.2227575 -0.1526429 -0.24465741 -0.23773283
-0.089093864 -0.16666801 -0.10685362 -0.2744531 -0.2028137 -0.21990576 -0.12817338 -0.13957445

model/conv1d_18/BiasAdd/ReadVariableOp f4 [16]
00000000: cbe7 dcbd b52f 8cbe 2004 4fbe 1d23 95be
00000010: 138c 33be 2ba8 83be 7e8b 4cbe 5d2c 8bbe
00000020: d4d4 83bd f428 4dbe c64b 69be 7eff 45be
00000030: 6a75 1ebe a185 41be d8a8 4bbe dc7f 17be
-0.107863985 -0.27380148 -0.20216417 -0.29128352 -0.17533903 -0.2571424 -0.19975087 -0.27182284
-0.06437078 -0.20035154 -0.22782812 -0.19335744 -0.15474477 -0.18898632 -0.19888628 -0.14794868

model/conv1d_19/BiasAdd/ReadVariableOp f4 [16]
00000000: d731 03be 4bf5 1ebe 5f0e a0bd ff57 3fbd
00000010: c437 14be 32dd 5dbe 858f 2abe de2c 59be
00000020: 67ba 3dbe f0fb 34be ff15 9ebd b538 3bbe
00000030: 835b 88bd 3bd0 11be 3acc 8bbe 24d3 49be
-0.12811981 -0.1552326 -0.07815241 -0.04671478 -0.14474398 -0.2166641 -0.16656311 -0.21208522
-0.18528138 -0.17674232 -0.07719039 -0.18283351 -0.066580795 -0.1423959 -0.2730425 -0.1970945

model/conv1d_20/BiasAdd/ReadVariableOp f4 [16]
00000000: c330 3abe a462 21be 7a4e 31be 432b 2ebe
00000010: 0bc5 02be d4ce 2cbe 0e9d f5bc 8c18 3fbe
00000020: b362 52be 4715 72bd ecaf 2dbe 964e 23be
00000030: f0dc 3dbe 5136 cfbd 4731 55bd 448e a1bd
-0.18182664 -0.15760285 -0.17315093 -0.1700869 -0.12770478 -0.16875774 -0.029982116 -0.18661708
-0.20545463 -0.059102323 -0.1696164 -0.15947947 -0.18541312 -0.10117782 -0.052048948 -0.07888463

model/conv1d_21/BiasAdd/ReadVariableOp f4 [16]
00000000: 370b cebc c9c6 e9bd bb78 abbd ab9f 13be
00000010: 6ed9 f9bd e8d5 7fbe c2b3 36be ec33 29be
00000020: 1cb6 18be 1094 9abd 3a7d aabd c810 00be
00000030: 736e 60be 89bd 74be aedf a4bd 7801 9ebd
-0.025151832 -0.114148684 -0.08372637 -0.14416377 -0.121996745 -0.24983943 -0.1784201 -0.16523713
-0.14913219 -0.07547772 -0.08324666 -0.12506402 -0.21917133 -0.23900427 -0.08050476 -0.07715124

model/conv1d_22/BiasAdd/ReadVariableOp f4 [16]
00000000: 58d4 a3bd 5adf d0bd f3d7 89be cddd c8bd
00000010: b05d 32be af3e b4bd e90a 13be b498 13be
00000020: cf3a cfbd 5c9b 0dbe f3f6 05bd 615a 08be
00000030: 0c03 1fbe 4853 30bc 13a6 1bbd b51a 13be
-0.07999486 -0.10198851 -0.2692257 -0.0980793 -0.17418551 -0.088010184 -0.1435963 -0.1441372
-0.10118639 -0.13828796 -0.032706212 -0.13315727 -0.15528506 -0.010762043 -0.038000178 -0.14365657

model/conv1d_23/BiasAdd/ReadVariableOp f4 [16]
00000000: d5db 03be 98c1 11be 1c4b e7bd 097e 5ebe
00000010: d740 e1bd 574a debd da01 1dbe 3301 23be
00000020: 53c5 3abe 4f79 1dbe cf1a 5dbe 1ba1 d6bc
00000030: c29b efbd ac11 8abd 0048 26bd ef84 40be
-0.12876828 -0.14234006 -0.11293623 -0.21727766 -0.10998695 -0.10854023 -0.15332738 -0.15918426
-0.18239336 -0.15378307 -0.21592258 -0.026199868 -0.1169963 -0.06741652 -0.04059601 -0.1880071

model/conv1d_24/BiasAdd/ReadVariableOp f4 [16]
00000000: fb44 b8bd 6b50 2ebe fdb6 1bbe 3b90 0abe
00000010: 0b85 d7bc ec8e 05be 0f18 eebd ec5b 07be
00000020: 2d61 68bd db6b f8bd 46f2 0abe 4dfa 54bd
00000030: 35e1 9bbd 99eb 31be 02e1 03be 391b 2fbe
-0.08997532 -0.17022865 -0.15206523 -0.13531582 -0.026308557 -0.13042802 -0.116256826 -0.13218659
-0.0567333 -0.12129947 -0.13568982 -0.051996518 -0.07611314 -0.1737503 -0.12878802 -0.17100228

model/conv1d_25/BiasAdd/ReadVariableOp f4 [16]
00000000: 6cee 3fbe 4cb7 22be bed8 27be fc24 f1bd
00000010: bc86 8fbd f64f d7bd 70ae d9bd a05d dabd
00000020: 827e e3bd 5068 14bd d5a7 59be b1af 44be
00000030: 6cf8 62be 90c4 01be 0ad7 03be ac1f 75be
-0.18743294 -0.15890235 -0.16391274 -0.11774632 -0.070081204 -0.10513298 -0.106289744 -0.10662389
-0.11108114 -0.036232293 -0.21255429 -0.19207646 -0.22165078 -0.12672639 -0.12875 -0.23937863

model/conv1d_26/BiasAdd/ReadVariableOp f4 [16]
00000000: d6b9 e6bc 37a6 1ebe 7c2b 17be 84eb 2ebe
00000010: 7ff5 07be 9cec 3ebe 8cf5 50be 14b8 5cbe
00000020: d32f 4abe 743f 2dbe 67d9 9bbe a99e 85be
00000030: e8e4 44be 71e1 90bd 746e 78be 1da1 22be
-0.028164785 -0.15493093 -0.14762682 -0.1708203 -0.13277243 -0.18644947 -0.20406169 -0.21554595
-0.19744806 -0.16918737 -0.30439302 -0.2609761 -0.19227946 -0.070742495 -0.24260885 -0.15881772

model/conv1d_27/BiasAdd/ReadVariableOp f4 [16]
00000000: 06e2 26be ed59 69be cf98 3fbe 816a 9fbe
00000010: 23a9 5cbe f45f 8cbe 4efa 58be e5fb 05be
00000020: 828e 53be 4983 4bbe 24f8 40be 45ea 78bd
00000030: 6194 2cbd 7418 6dbe cea1 8bbd 1e59 33be
-0.16297159 -0.2278821 -0.18710636 -0.31135944 -0.21548896 -0.27416956 -0.21189234 -0.13084371
-0.20659831 -0.198743 -0.18844658 -0.06077029 -0.042133693 -0.2315386 -0.06817971 -0.17514464

model/conv1d_28/BiasAdd/ReadVariableOp f4 [16]
00000000: acb0 f7bd ea10 79be 9e26 3ebe 246f 23be
00000010: 0382 34be a4a3 6bbe 375d 5dbd 2979 3fbe
00000020: dd07 3fbe e1af 45be adc7 24be dac5 53be
00000030: 44b7 2ebe 0ea6 23be 454b 5bbe bb57 17bd
-0.12094244 -0.24322858 -0.18569419 -0.15960366 -0.1762772 -0.23011643 -0.054043975 -0.18698563
-0.18655343 -0.19305374 -0.16091795 -0.20680943 -0.17062098 -0.15981314 -0.21415432 -0.0369489

model/conv1d_29/BiasAdd/ReadVariableOp f4 [16]
00000000: 280c 22be 3d1c 77be 80a6 7ebe 17de 72be
00000010: e8f9 0dbe 093b fdbd c6d0 5ebe 5a6c 4fbe
00000020: 247a 43be ab71 40be b02f 4ebe d2a6 4fbe
00000030: f3de 14be b0a4 88be ea6d f8bd 6a2d cabd
-0.1582495 -0.24131866 -0.24868202 -0.23717533 -0.13864863 -0.12364776 -0.21759328 -0.20256177
-0.19089562 -0.18793361 -0.20135379 -0.2027848 -0.14538173 -0.26688147 -0.121303394 -0.09871943

model/conv1d_30/BiasAdd/ReadVariableOp f4 [16]
00000000: 3e19 77be 5be4 86be 9af7 8abe 6229 55be
00000010: 65ad 58be e215 d9bd c6e0 52bd bb4f 70be
00000020: 109e 0abe 87da 71be 2499 c6bd fcf4 79be
00000030: 5185 f2bd 6779 aebd 0000 0000 63a5 45be
-0.24130723 -0.26346096 -0.2714203 -0.20816568 -0.21159895 -0.10599877 -0.051483892 -0.23467915
-0.13536859 -0.23618518 -0.09697178 -0.2440986 -0.11841834 -0.085192494 0.0 -0.19301371

model/conv1d_31/BiasAdd/ReadVariableOp f4 [16]
00000000: 781b cdbd 8d39 9abe 561e a8be 1ad0 cebe
00000010: 5526 1cbe 82ab 8cbe 3257 8abe a5ab dbbd
00000020: c744 3abe 0d97 e3bd bb60 7fbe b12f 35be
00000030: 1566 c0be a43d a1be e870 99be 0181 f3bd
-0.10015005 -0.30122033 -0.32835644 -0.40393144 -0.15248998 -0.274746 -0.2701965 -0.10726098
-0.18190299 -0.11112795 -0.24939243 -0.17693974 -0.37577882 -0.3149234 -0.29968953 -0.1188984

model/conv1d_32/BiasAdd/ReadVariableOp f4 [16]
00000000: 33fb 47be 4b38 47be 79f1 b0bd ea24 95be
00000010: c76f 94bd 1fd9 5dbe 13fb 76bd 5497 babd
00000020: 27e2 3bbe 148e a4bd 0246 c2bd def5 66be
00000030: b112 0ebe 19a0 9abe 2d15 74be d39d 4bbe
-0.19529419 -0.19455068 -0.08639807 -0.29129726 -0.07247882 -0.21664856 -0.060298037 -0.09110895
-0.18347989 -0.08034912 -0.09486009 -0.22554728 -0.13874318 -0.3020027 -0.23836203 -0.19884424

model/conv1d_33/BiasAdd/ReadVariableOp f4 [16]
00000000: a1de 43be 563e 47be 6118 43be 4058 d6bd
00000010: 37cf 69be 0776 87be 5190 60be 3c9d 6abe
00000020: 60be a3be c294 78be 3600 78be 1e60 e0bd
00000030: 4e75 5bbe 08fa 0ebe 2162 33be 13b8 59be
-0.19127895 -0.19457373 -0.19052269 -0.10466051 -0.22832952 -0.26457235 -0.21930052 -0.22911543
-0.31981182 -0.24275497 -0.2421883 -0.10955833 -0.21431467 -0.13962567 -0.17517902 -0.21261625

model/conv1d_34/BiasAdd/ReadVariableOp f4 [16]
00000000: f2d0 6ebe 9d96 2fbe 0fbf 50be 5964 eabd
00000010: 004f edbd 9195 3ebe d50e 16be 2cee 53be
00000020: 229d 4dbe 3c1d 1abe 0a3c 80be 43ae 72be
00000030: 2605 54be 3862 9ebe a60a 40be a77f 6abe
-0.23321894 -0.17147298 -0.20385383 -0.11444921 -0.11587334 -0.18611743 -0.14654095 -0.20696324
-0.20079473 -0.15050215 -0.25045806 -0.23699288 -0.20705089 -0.3093431 -0.18754062 -0.22900258

model/conv1d_5/BiasAdd/ReadVariableOp f4 [16]
00000000: cf92 80bd ef5e c9bd 69b9 f1bd bd50 70bd
00000010: 46ea 1bbe e61f b9bd 1811 1bbe 9a10 31be
00000020: bb72 20be 011d 13be 59c1 98bc efac 08be
00000030: ebf1 26be bb06 aabe d9ba 2ebe 509e bbbd
-0.062780015 -0.0983256 -0.11802942 -0.058670748 -0.15226087 -0.09039287 -0.1514324 -0.17291489
-0.15668766 -0.14366533 -0.018646883 -0.13347219 -0.16303222 -0.3320826 -0.17063464 -0.09161055

model/conv1d_6/BiasAdd/ReadVariableOp f4 [16]
00000000: 1a8c 1cbe c672 ecbd 0d1d dabd 475d 27be
00000010: 6bda 58be 0486 86be 7242 82be 9622 1fbe
00000020: e78c 5cbe 584c 62be 12c1 50be 220d 80be
00000030: 29c3 54be eb2b e1bd 0bb9 3dbe c07d bebd
-0.1528782 -0.11545329 -0.10650072 -0.16344176 -0.2117707 -0.2627412 -0.2544132 -0.15540537
-0.21538125 -0.22099435 -0.2038615 -0.2501002 -0.20777573 -0.10994705 -0.1852762 -0.09301329

model/conv1d_7/BiasAdd/ReadVariableOp f4 [16]
00000000: 7fcb 6bbe 4e20 1dbe 6202 0bbe 5ea8 32be
00000010: 3fca 93bd b3b5 003d 138a 65be 05d4 88be
00000020: 1eec 54bd bc82 08be f7b7 29be 44b6 afbc
00000030: f96a f9bd 0ff9 1bbe acb6 3fbd 4421 31be
-0.23026846 -0.15344355 -0.13575128 -0.1744704 -0.0721631 0.031423282 -0.22415952 -0.26724258
-0.05198299 -0.13331121 -0.16574083 -0.021449216 -0.121786065 -0.15231727 -0.04680507 -0.17297846

model/conv1d_8/BiasAdd/ReadVariableOp f4 [16]
00000000: 0536 4bbe ade0 67be 6d00 e7bd b641 ffbc
00000010: b8d2 05bd 2f47 1fbe 962b 08be 4963 31be
00000020: 1470 d2bd 0593 61be d894 4bbd b7e2 17be
00000030: 15e2 56be 94b0 56bd ac75 53be e8f5 83bd
-0.19844826 -0.22644301 -0.11279378 -0.031159263 -0.03267166 -0.15554498 -0.13297877 -0.1732303
-0.102752835 -0.2202874 -0.049702495 -0.14832579 -0.20984681 -0.05241449 -0.20650357 -0.06443387

model/conv1d_9/BiasAdd/ReadVariableOp f4 [16]
00000000: fec6 2fbe 443b 8cbe 8f06 05bc b25c 8cbe
00000010: 71fa 40be 3445 3dbe e8c0 27be b0f6 52be
00000020: 2181 f2bd 3e66 6bbe d3ea 86bd abf1 22be
00000030: 7f1e 93be 286b e8bd fff2 51be 5fc2 0ebe
-0.17165753 -0.27388966 -0.0081192395 -0.2741447 -0.18845536 -0.1848343 -0.16382182 -0.20601916
-0.11841036 -0.22988221 -0.06587758 -0.15912502 -0.28734204 -0.113485634 -0.20502852 -0.13941334

model/conv1d/BiasAdd/ReadVariableOp f4 [16]
00000000: 6ca2 debd 956b 5abe 61c1 35be 82bb b7bd
00000010: dd7e 53bc 3d66 50be f3bb 16be 9008 4fbe
00000020: d869 b7be 9896 32be 431a 4abe a90a 38be
00000030: c73e 42be d4ea d0bd fde9 22be c2d7 46be
-0.10870823 -0.21330102 -0.1774955 -0.08971311 -0.0129086645 -0.20351501 -0.14720134 -0.2021811
-0.3582294 -0.1744026 -0.1973658 -0.17972817 -0.1896926 -0.1020104 -0.15909572 -0.19418243

model/conv1d_1/BiasAdd/ReadVariableOp f4 [16]
00000000: aa92 4ebc e96d 93bd 2521 b9be a572 1bbe
00000010: 4ac6 43be 588a a5be cd00 82be 201a 18be
00000020: 37c8 82be 2cd7 58be 4cc7 c1be be2e 79be
00000030: 741a 5ebe 3d1b 09be 5b01 c8be 23bf c1bd
-0.01260821 -0.07198698 -0.361581 -0.15180452 -0.1911861 -0.3233211 -0.25391236 -0.14853716
-0.25543377 -0.21175832 -0.37847364 -0.24334237 -0.21689779 -0.13389297 -0.39063534 -0.094602846

model/conv1d_2/BiasAdd/ReadVariableOp f4 [16]
00000000: 3085 77be 19b1 f0bd 3317 70be 39e2 9ebe
00000010: 7653 9abd 2ed8 91be 277e 5cbd 298c 5abe
00000020: 9516 dcbd 869f 64be 84cd 98be 8562 7ebe
00000030: 63c1 aebe cfa2 69be 9d27 35be d769 8fbe
-0.24171901 -0.11752529 -0.2344635 -0.3103197 -0.0753545 -0.28485245 -0.053831246 -0.2134253
-0.10746495 -0.22326478 -0.29844296 -0.2484227 -0.34131917 -0.22816013 -0.17690893 -0.28010437

model/conv1d_3/BiasAdd/ReadVariableOp f4 [16]
00000000: 9a0f aabd 2081 35be 4a8a 3bbd f3cc 3abe
00000010: 737d 93be 2a46 66be b6ad 08be 0349 2abe
00000020: d2b6 53be acd3 09bd 4343 5dbe 5004 4fbe
00000030: 4495 4abe e655 06be cf27 4ebe cef9 8bbe
-0.08303757 -0.17725039 -0.04578618 -0.18242244 -0.28806648 -0.22487703 -0.13347515 -0.16629414
-0.20675209 -0.03364913 -0.2160769 -0.20216489 -0.19783503 -0.13118705 -0.20132373 -0.27339023

model/conv1d_4/BiasAdd/ReadVariableOp f4 [16]
00000000: 87f7 33bd 704b f9bd 8b99 12be e152 23be
00000010: b88c 45be fabc 9bbe 7a64 57be 7674 13be
00000020: 3d65 7bbe b922 debd 0acc 1dbe 6655 39be
00000030: d4b4 61be 9000 80bd 1617 87be 88c1 40be
-0.043937232 -0.12172592 -0.14316384 -0.15949585 -0.19291961 -0.30417615 -0.21034423 -0.14399895
-0.24550338 -0.108464666 -0.15409866 -0.18098983 -0.22041637 -0.06250107 -0.263848 -0.18823826

model/conv1d_10/Conv1D f4 [16, 1, 1, 20]
00000000: a005 b13e 2a63 143e 20f7 1b3e bc7f 9f3e
00000010: f77e 353e 5a77 613e 2cde 5bbe 305c 28be
00000020: 7575 363c 3b63 2ebc 8c1d a33e 20fd 2dbe
00000030: a9a2 65bc 457f c63d de7f 033e ab6e 34be
00000040: fd7f 903d fbb0 1bbe 7d0a 01be f165 3bbe
00000050: 872c d9bd c429 24bd aea4 003e e1b7 6abe
00000060: 0aa8 5e3d 6691 283e a588 b33d e0f2 203d
00000070: 7050 603f 8ccb ae3d 1f98 843e 9209 263e
00000080: 1196 11be 0eef 0c3e 3241 373d c900 c23e
00000090: b7c5 b1be e6fd ddbe 62e2 203e ba15 d7bc
000000a0: c903 9dbe 7525 8b3e 5f1e 213e 5eaa b9be
000000b0: 7f9e bf3e a01a c3be 7a5f 323e ad07 713e
000000c0: 275a 85be c441 a6be 9613 bf3e 7b0f bcbe
000000d0: a4dd 85be d5c7 253f 2f53 5a3e aa3a 28be
000000e0: 7238 943e eafa 023f 3ef4 87be d3fc 25be
000000f0: 1f33 17be 9bf3 abbe 43ca 2c3e a1d9 9a3e
00000100: cd82 723e 249e a5be 5e46 65be e90e 753e
00000110: ffc3 263c 5863 cd3e dd3f 9c3e acb0 4dbd
00000120: bb21 583d 1724 563d 8580 b03e b566 343e
00000130: 1bc6 a03e 6ae1 00be d5ca d03e 2afe bbbe
00000140: 4b80 46be 167b 5b3e 740c 15be e8c7 8abe
00000150: bac5 f5bd 02d4 05bc 024e a3be 3c72 293b
00000160: 8171 77bd f7ce 3e3e 3baf 99be 31a5 0a3f
00000170: 4882 493f 0f7d ccbe 0e06 133f f65a ebbb
00000180: 84da f43d 06c3 d53e f31e 24be 2249 63be
00000190: 81db 38be 9607 a03e 890e 333d b60a 793e
000001a0: f79c bd3e fe54 27bd 0d19 3dbe 9b5c 823d
000001b0: b90e 4b3d 6462 99be 932a babe e631 de3d
000001c0: ebb5 7a3e 9a05 1a3e e979 ad3e cf8e 913e
000001d0: 5e56 febd 9848 a53d b632 5f3e 9877 433e
000001e0: b83c e6bd dcab 06be 4520 69be 5233 a7bc
000001f0: 1b16 9abd 85f6 83be 4bf4 883e 5ccc 2c3e
00000200: 0213 81be 25ad 263d 2d14 c5bb 6f8a f8bc
00000210: 8286 1bbe dc41 ec3d 44db 553f 8597 44be
00000220: dbe3 563e b3f1 cebc 84a5 8c3d 29ca 18bd
00000230: 8b28 0d3e 2927 f73a 2ad4 9a3e 3c21 c4bd
00000240: 7f5b 383b 133b 4e3c 155c 2f3e 377d f23d
00000250: 3b47 42bd e441 eabe 59ef 413e 8f8b 153d
00000260: 8395 943d 7c98 41be 9420 be3e ee1c e43d
00000270: 126b 8a3e 12cd 003f 1aea e43e c301 a63d
00000280: 5b7e aebd cc24 463e c847 46be d3a2 e63d
00000290: 0f92 fd3c bedc 3ebd 281c 963e 89ca 8b3e
000002a0: 1260 883e 121c 333e bf28 babd 8b3b 3a3e
000002b0: 25ba 903e a90c 7ebd 9d9c 2e3e 5163 41be
000002c0: 155f a2be a6eb e43e 0914 0e3f 2a36 e93e
000002d0: e8b7 073e 44bf cebd c45c 243e cc03 84be
000002e0: c65f 6f3e f723 d03e db1c e43d 7877 473e
000002f0: 0956 653e 3eda 563b 72d2 70bd 08d4 51be
00000300: d342 243e 6f2d 0ebe 3b1d 1b3e ae1a b63d
00000310: cf37 36be 55c8 c13e 1813 f93e 9c40 b33e
00000320: 23ec 94be 16f9 2b3e 1a4f 573d a8f2 6cbe
00000330: afbc ae3d 210e 3c3e a671 8a3e 8850 c23e
00000340: 439e 24be 2aa3 3e3e 7d0a 7abe 3c9a 9f3d
00000350: 0c6c 9dbb 26d0 a2bc 89f4 343e bf58 3bbe
00000360: 0b60 3a3e 657a 363e 9309 57be 68ce 903e
00000370: 8b83 6c3e e90a c83e 01d0 5fbe 0dc5 cf3e
00000380: d40e b7bd 952a a9bc 14d6 9cba 71cf 793e
00000390: 89ba 35be dedf 1dbe dff0 67bd c9c7 ad3d
000003a0: c57f 6cbe fcbd 063f ff98 cd3e d372 b33e
000003b0: 06d2 863c 6b10 3dbe eddf c23c bd43 043f
000003c0: fb2d a93e b44b ca3e 9e71 6b3e c206 8e3d
000003d0: 95fd 373e 4096 af3d 015a 003f f89d 26be
000003e0: 6f69 22be e49e 83be 0b92 ac3e afad 92be
000003f0: 74ff 953e 2274 d13d 6055 09bc 97c8 df3d
0.34574604 0.14490953 0.1523099 0.3115214 0.17724214 0.22018185 -0.2147147 -0.16441417
0.011136402 -0.010643776 0.3185848 -0.16991091 -0.014015832 0.096922435 0.12841746 -0.17620341
0.07055662 -0.15204231 -0.12601657 -0.18300606 -0.10604196 -0.040078893 0.1256282 -0.22921707
0.054359473 0.16461715 0.08766297 0.039294124 0.8762274 0.08534917 0.2589731 0.16214588
-0.14217402 0.13763067 0.04473991 0.37891224 -0.34721157 -0.43357772 0.15711358 -0.026255477
-0.3066695 0.27177015 0.15734242 -0.36262792 0.3742561 -0.3810625 0.17419234 0.23538084
-0.26045343 -0.3247205 0.3731963 -0.3673056 -0.2614566 0.64758044 0.21320795 -0.16428629
0.28949314 0.51164114 -0.2655353 -0.16209726 -0.14765595 -0.33584294 0.16874032 0.30244163
0.23682709 -0.32347214 -0.22390124 0.23931469 0.010178565 0.40114856 0.30517474 -0.050217316
0.052766543 0.05228051 0.34473053 0.17617305 0.31401142 -0.12585989 0.4077975 -0.3671735
-0.19384877 0.21433672 -0.14555532 -0.2710564 -0.12000604 -0.008168222 -0.31895453 0.0025855443
-0.06041098 0.18633638 -0.30016503 0.5415831 0.7871442 -0.39939162 0.57431114 -0.0071824742
0.11955741 0.41750354 -0.16027431 -0.22195867 -0.18052484 0.31255788 0.043715034 0.24320492
0.37033817 -0.04085254 -0.18466587 0.06365319 0.049574587 -0.2995788 -0.36360607 0.10849361
0.24483459 0.150412 0.33882073 0.28429267 -0.12418817 0.08070487 0.21796688 0.1908859
-0.1124205 -0.13151497 -0.22766216 -0.020410214 -0.075237475 -0.25774017 0.2674888 0.16874832
-0.25209814 0.040692467 -0.006014368 -0.030339448 -0.1518803 0.11535999 0.835377 -0.19198425
0.20985357 -0.025261736 0.06867507 -0.03730217 0.13784997 0.0018856275 0.30239993 -0.095766515
0.0028130708 0.012587327 0.1712497 0.11840289 -0.047431212 -0.45753396 0.1893896 0.036510047
0.072550796 -0.18905824 0.3713423 0.111383304 0.27034813 0.5031291 0.44709855 0.08105805
-0.08520194 0.19349974 -0.1936332 0.11261525 0.030953435 -0.046597235 0.29318357 0.2730296
0.26635796 0.17491177 -0.09089803 0.18186776 0.28267017 -0.062023792 0.1705193 -0.18885542
-0.31713167 0.44711035 0.5549932 0.45549136 0.13253748 -0.10095075 0.16051012 -0.25784147
0.23376378 0.4065244 0.11138316 0.19479167 0.22396101 0.003278389 -0.058794446 -0.2049104
0.16041116 -0.13884519 0.1514787 0.088918075 -0.17794727 0.37848154 0.4864738 0.3501023
-0.29086408 0.16794237 0.05256567 -0.23139441 0.08532082 0.18364765 0.27039832 0.37952065
-0.16075997 0.1861693 -0.24418063 0.0779309 -0.00480414 -0.019874644 0.17671408 -0.18295573
0.182007 0.17820127 -0.20999746 0.28282475 0.23097055 0.39070824 -0.21856691 0.40580025
-0.08938375 -0.020650188 -0.0011965656 0.24395539 -0.17746939 -0.1541743 -0.056626197 0.084853716
-0.23095615 0.52633643 0.4015579 0.3504854 0.016457569 -0.18463294 0.023788417 0.5166586
0.33042893 0.39510882 0.2299256 0.06934883 0.17967828 0.0857358 0.50137335 -0.16271198
-0.15860532 -0.2570716 0.33705172 -0.28648135 0.29296458 0.10227229 -0.008382171 0.10926931

model/conv1d_11/Conv1D f4 [16, 1, 3, 20]
00000000: d752 7d3e 349c e33c 18e1 523d 5ad4 a3bd
00000010: 2d17 463e 7e41 a93e 18d7 543c 3ae0 22ba
00000020: ba8e 793e d9c4 fa3e e4bc a63e 57c0 093e
00000030: 02cb f53e dc53 bf3e 7da8 a1bc 68b8 43be
00000040: 9046 cf3d bfc5 713e 185a 0f3f 076e f83e
00000050: d5bb a1bd e425 db3d 8cad 963e 66e3 e03e
00000060: b73b 6fbc 3a89 ecbc 4eb1 5c3b 7018 1f3f
00000070: 28f4 9abe 9009 42be 4dfb 44be 8248 8bbe
00000080: fa28 143e 89f2 65bc d1d4 593e 5ca7 e63d
00000090: 4a42 80be b32d 9a3d b624 23bd 4f07 06be
000000a0: 8bfc edbd 9d6a 58bd 6ddc a3bd 2e5d 76be
000000b0: 0018 d13d 00c7 563e 2515 28be 02e6 293e
000000c0: bb85 ed3d 5124 be3e 8bac 9a3e 2006 61be
000000d0: d0f5 103f 9c71 c73e 36bf 0d3d dc4f 593e
000000e0: f2b4 793e bf1f af3e f54a ae3e fb4a aa3e
000000f0: b651 91bd 795d b63d bd84 783e 383a 9abe
00000100: f54d 463e 47ee 5dbe 37c7 22be 48ca c1bd
00000110: 0ef1 743e e1de 293e 8b11 133e f2e0 8dbd
00000120: 8ea0 65be 4fad 343e a776 e93d 9eb8 563e
00000130: 2adb e43d 06b5 643e daf5 adbd b677 99bd
00000140: cb5b ce3e f683 3c3e d893 ad3e 6bc5 69bc
00000150: 2606 da3e 4c66 4dbd 51a1 8e3d 8a17 223e
00000160: 176b 693e 5376 ab3e 28db 86bd 7571 443d
00000170: 959a 8f3e 7fa8 f9bd 67ee 563e c54a f13d
00000180: ca76 453d 14a5 7cbd f6c0 753e d890 00bd
00000190: f68f 013e 131c 6bbd 2f49 61be db7f 573e
000001a0: e858 3f3e 95f1 933d ff88 973e 2c14 993d
000001b0: 76cb 133e 513f 643e 196f 483e e94e 28be
000001c0: 5e3b b23e cb6d 8fbc 4343 9f3d c596 ec3c
000001d0: 60bf 593e e7e9 4e3e a6fc 9e3d 9bde e1bc
000001e0: 1037 07be fa11 51bb d769 c3bd 1f41 24be
000001f0: d396 9a3b fe2b 233e 8b5b 9abd 79b6 c8bd
00000200: 6ec8 473e 7e34 8b3e 7ee7 563e 1773 95bd
00000210: 48c4 43bc f6fa 0a3e c39a 52bd 547e 583e
00000220: b017 383f 5dc1 ef3d ec85 9cbb d3b1 313d
00000230: deb6 03be 8ae0 26be cd35 163e 6b0e ab3c
00000240: 25fe 3bbc e2ac 213e c818 7dbd 9353 98bd
00000250: 3963 78be c4dc 953e 1b1d 003f bbfc 7d3e
00000260: d8fb 633e a119 c03e decc 823e 4b5e 7cbe
00000270: 38e9 533e 8870 6d3d 96b2 02be bf39 3d3e
00000280: dacc 073f 7029 833d c41f 223f 4d54 b2bd
00000290: 2fd3 053e e125 e93e e3eb a2bd 1b28 b33e
000002a0: a9bf bc3e 49e0 603c 85f9 19be 5f25 803e
000002b0: 803f 61be 7940 453e f2dd 0fbd a483 9d3e
000002c0: 8310 2bbe 7cac 743e 6eea 2e3e fe02 153e
000002d0: 8474 ae3d eecd 363d 36b9 46bd 716c 963e
000002e0: 9e4d 9a3e 33fd 17bd 935b 38be 6812 8a3d
000002f0: 7b30 593d 238b cbbc a470 d93a 072f 01bc
00000300: dce2 c2bd cedc cb3d 671e 963d 35be 26bd
00000310: 9b77 09be 70a2 023e 0365 21be ed15 b2bd
00000320: 0bd5 4fbe e229 893e 04e3 d83d d2ab 8c3e
00000330: e992 883e b798 cfbd 9f3a 25bd 21a1 f13d
00000340: bc44 883e f45b 283e 2974 b0bd 45df 483e
00000350: 22bc 333e 8673 81bd 9d15 6a3e 49d3 2ebe
00000360: fe0b 053e 3871 123e e7c8 033e 16a6 d83c
00000370: f557 abbd 18cd 3a3e d8a7 0c3e 3da4 253e
00000380: 0527 903e c643 e6bd f58b 3dbe b46c 0ebe
00000390: 66f5 24be 240e 993c e200 7ebc 78ab 123e
000003a0: b8f1 673d c584 793e 1871 833e 7b7c a03d
000003b0: 7b94 2d3e 3128 d6bd ec64 a13b b27f 793e
000003c0: ebda 59be 4caa 0b3e 3946 fe3e 97e3 053f
000003d0: e6aa a23c cb21 0e3e f39a e53d dab1 9f3a
000003e0: f0bc d23e 1148 8abd 8843 4dbd d86c cb3d
000003f0: 1182 0dbd 2857 533e 28fd a03e d28e 88bd
0.24738632 0.027784444 0.051484197 -0.07999487 0.19344778 0.3305778 0.0129907355 -0.0006213222
0.24370852 0.48978308 0.32565987 0.13452278 0.48006445 0.37368667 -0.019733662 -0.19113314
0.101208806 0.2361059 0.5599685 0.48521444 -0.07897154 0.107005864 0.2942928 0.4392349
-0.0146016395 -0.028874028 0.0033675018 0.62146664 -0.302644 -0.1894896 -0.19236489 -0.27203757
0.14468756 -0.014034876 0.2127259 0.1126239 -0.25050575 0.07528248 -0.039829932 -0.13088726
-0.116204344 -0.05283605 -0.08001027 -0.24058983 0.10209656 0.2097435 -0.16414316 0.16591647
0.11597773 0.37137082 0.30209765 -0.21974993 0.5662508 0.38953865 0.03460618 0.2122187
0.24385431 0.34203908 0.34041563 0.3326033 -0.07095663 0.08904547 0.24269386 -0.30122542
0.19365676 -0.21672927 -0.15896307 -0.0946241 0.2392008 0.16588928 0.14362161 -0.069276705
-0.22424528 0.17644237 0.11399584 0.20968863 0.11174615 0.2233468 -0.08494158 -0.07493536
0.40304407 0.18409714 0.33901858 -0.0142682595 0.42582816 -0.050146386 0.069643624 0.15829292
0.22794758 0.33488712 -0.065847695 0.047959764 0.28047624 -0.12190341 0.20989381 0.11781839
0.04820899 -0.06168087 0.2399939 -0.031388134 0.12652573 -0.05739982 -0.22000574 0.21044867
0.18686259 0.072238125 0.29596707 0.074745506 0.14433083 0.22289778 0.1957363 -0.16436352
0.3481092 -0.017508408 0.07776501 0.028880486 0.2126441 0.20206414 0.077630326 -0.027571967
-0.13204598 -0.0031901584 -0.09541672 -0.16040467 0.0047176867 0.1593475 -0.07536992 -0.09800429
0.19510052 0.27188486 0.20986745 -0.07297342 -0.011948653 0.13572297 -0.051417124 0.2114194
0.71911144 0.11706803 -0.004776707 0.043382477 -0.12862727 -0.16296592 0.14668961 0.020880898
-0.011474167 0.15788606 -0.06179121 -0.074378155 -0.242566 0.29269993 0.5004441 0.2480344
0.2226404 0.37519553 0.25546926 -0.24645345 0.20694435 0.057968646 -0.12763438 0.1847906
0.53046954 0.06404388 0.6332972 -0.08707485 0.13068841 0.45536712 -0.07955148 0.34991536
0.36864975 0.013725349 -0.1503659 0.25028512 -0.2199688 0.19262876 -0.035123773 0.30764496
-0.16705517 0.23893923 0.17081615 0.14551923 0.08518317 0.044629984 -0.048516475 0.2937961
0.30137342 -0.037106704 -0.18003683 0.06741792 0.05302475 -0.024846619 0.0016589356 -0.007884747
-0.09515926 0.099542245 0.073300175 -0.04070874 -0.13424532 0.12757277 -0.15761189 -0.08695588
-0.20296113 0.26789767 0.10590175 0.27474838 0.26674584 -0.1013655 -0.04033911 0.11798311
0.2661494 0.16441327 -0.08615906 0.1961642 0.17552236 -0.063208625 0.22859807 -0.17072786
0.12992856 0.14301002 0.12869607 0.026446383 -0.08366386 0.182423 0.13735902 0.16175933
0.2815477 -0.112433955 -0.1851042 -0.13908654 -0.16109237 0.0186835 -0.01550314 0.14323223
0.056627005 0.24367054 0.2567222 0.07836243 0.16951172 -0.10456885 0.004925361 0.24365118
-0.21274917 0.13639182 0.4966295 0.523004 0.019856881 0.13880078 0.11211195 0.0012183741
0.41159773 -0.06752027 -0.05011323 0.0993287 -0.03454787 0.20638716 0.31443143 -0.06667866

model/conv1d_12/Conv1D f4 [16, 1, 5, 20]
00000000: cbeb 903e 5023 5fbe 3b5b edbe 86fb 5ebe
00000010: 2c86 3ebd 05d9 8ebe c715 c2be 1132 433f
00000020: 93f2 03bf 8c5e ee3d 1891 8f3e 9553 bfbe
00000030: 41f1 dd3d cc72 913d f099 80bd f547 bcbe
00000040: e31b f2be fd72 a93e 67ae 06be 51e5 243d
00000050: b4c3 afbd 0177 b13e fcde 133d 93cb bd3d
00000060: 8870 3b3e ed3a b33d 46cb 06be 8f5d 763d
00000070: bfe4 15be 4b56 dd3d 737a 323e baec 9f3d
00000080: 12b8 983d ac34 433d d321 a1bd f081 a2bd
00000090: 3646 e1bd c116 d2bd b38c 173e 8ab9 913d
000000a0: 8695 bbbd c7fd 553e e607 4dbd a053 9b3c
000000b0: 7dc2 2f3e 6c15 ae3c f114 823e 6746 17bd
000000c0: 4a85 2b3f 7542 0fbe a121 0cbe b643 a5bd
000000d0: 2d0c 803d a8be b43e 4628 073f 4e0f c0be
000000e0: 69f3 b0be 9352 db3e 1ca0 f43e 3ff2 763d
000000f0: cbb3 6dbe e414 973e cd96 e5bd 930a 0b3f
00000100: e937 cd3c 6660 f4bd 6a8d df3e 70cf 123e
00000110: ddb4 c83d 7e86 18bd 849c 9abd 989a c63e
00000120: c928 313d f1a8 32bd e381 f03e 63ea 07be
00000130: 15bd 82be 80ec 00bd e84f 1f3c 9723 193d
00000140: 33c6 d03e aac8 dd3e 3fa3 a5be c2be 49bd
00000150: ebd0 343e c0d3 bf3e 0d35 7e3e 83b1 113e
00000160: c898 5fbd 95e2 e33d 8c88 9d3e bbac 493e
00000170: 08ed 613c 5d61 f73c 1a45 df3d 3407 bbbe
00000180: bf09 c4bd 1640 723e e6fe 0e3e 64a2 bd3e
00000190: e74f b83e f243 093e 537c 5dbd 9846 f0bd
000001a0: d0cf 133e d0ed 273e 6bab 25be 9877 9cbd
000001b0: 9512 8abd 04f2 343e b2c1 bd3e 39cb 5bbd
000001c0: 26c6 dc3e 05ad 143d cd5e 3f3e 3ca3 a63e
000001d0: 4579 d93e d89d 243e 4764 b53d 7018 e33e
000001e0: 65a9 5fba 9f45 98bd 2197 b83d 2eec 813e
000001f0: 5681 8d3e cfb8 193d 5d24 2ebe 9c05 dc3e
00000200: 9d2f 0bbd 88cb 85bc c7c8 3e3d 6506 bcbd
00000210: 9c3c 1bbc 9a31 f83c 33ba 933d a1e8 48be
00000220: 6747 e23b 9be6 973c 27b0 89bd 864e 14bc
00000230: 9e10 d43d 07c0 423e 95aa 36bd a78b 473c
00000240: 065d df3d 50a2 b6bd 3d80 e5bb de1f cc3e
00000250: 3a14 fbbd 5239 953b b64c 093d 3dbf 6c3d
00000260: fe26 bebd 8446 54be 9c89 cd3c 142b 4fbe
00000270: bba3 9bbe c955 383e 5b64 13be 846f 61bd
00000280: ca62 12bd e0fc ac3e 77e8 2e3d 9368 e63d
00000290: 8752 483e 64e8 e33e 59a1 ee3e 9883 0cbe
000002a0: 6d14 6f3e 85e6 3c3e b4e0 053e 5fed 4c3e
000002b0: 3a90 0b3d 5032 953d ee26 413d e0ff e9be
000002c0: fd23 0dbe 3e33 c33e d9d1 e23d 967a e43c
000002d0: 8593 f53e 9262 df3d 3ab0 f8bd 7031 4c3e
000002e0: 38b0 ef3d 38da ddbd 8e9c b8bd b91e b03d
000002f0: 87fb ffbd d047 013f c574 18bc 8ca2 debd
00000300: d3a8 0f3e c992 49bd 1d36 233e fe94 713c
00000310: 4b9f 413e 8607 203e 9f32 dc3d e8fe c53e
00000320: e734 f5bd ea7d 11bd a7bd 013f e464 aa3b
00000330: 8889 663d c6c6 99be eee2 7b3e 77d3 f4bd
00000340: d51a 083e 4984 ac3c 3fbe 993d b79d 61be
00000350: ca04 be3d f885 4fbd e22f b33d 35bc 673e
00000360: 16f4 123f 2f1d 803e 0697 71bd b4db 9e3e
00000370: 29e5 08be 5cd0 c73d 3fa1 f63e 8eca aa3e
00000380: f027 e93d a047 efbd 0058 fabd 3805 b63e
00000390: f112 663e 56c4 bfbc e186 93bd b0f0 d5bd
000003a0: 4ed8 15be ff4d 113e 8b20 6a3e c7e8 b7bc
000003b0: 2745 30be ee2f 983e c02b d5bd 86fa b3bc
000003c0: 3601 d63d ae65 2bbe f9c9 19be 2535 b73e
000003d0: 00b4 253e 1bb1 8cbe 7b76 f4bd beca 123f
000003e0: a987 af3c 891c 0a3c 63df 9bbd cadb 283c
000003f0: eda0 d63c 7498 383e a0de 2f3e 94af 31be
0.28304896 -0.21790814 -0.46358666 -0.21775636 -0.046514675 -0.27899948 -0.3790724 0.7624827
-0.51542014 0.11639127 0.28040385 -0.37368456 0.10837031 0.07101974 -0.06279361 -0.3677365
-0.472869 0.33095542 -0.13152467 0.040257756 -0.08582249 0.34661105 0.036101326 0.09267344
0.18304646 0.087514736 -0.1316348 0.06014782 -0.14638041 0.10807475 0.17429523 0.07808824
0.074569836 0.047657654 -0.078677796 -0.0793494 -0.1099972 -0.10258246 0.14799766 0.07115467
-0.09159379 0.2089759 -0.05005636 0.018960774 0.17164035 0.02125045 0.25406602 -0.036932375
0.6700026 -0.13990195 -0.13684703 -0.080695555 0.06252322 0.3530171 0.5279583 -0.37511677
-0.34560707 0.42836437 0.47778404 0.060289618 -0.23213117 0.29508126 -0.112104036 0.5431301
0.025051074 -0.11932449 0.43662578 0.14336944 0.09800122 -0.037237637 -0.07549384 0.3878982
0.043251786 -0.043618146 0.46974096 -0.13273005 -0.25534883 -0.031475544 0.009723641 0.037387457
0.40776214 0.43317157 -0.3235111 -0.049254186 0.17657821 0.3746624 0.24824925 0.14227872
-0.054589063 0.111272015 0.3076824 0.19694798 0.013789423 0.030197794 0.10901852 -0.36528933
-0.095721714 0.2365726 0.13964424 0.37037957 0.3599846 0.13404825 -0.054073643 -0.11732215
0.14434743 0.16399312 -0.16178672 -0.07639998 -0.067418255 0.17670447 0.3706184 -0.053660605
0.43119925 0.036297817 0.18688507 0.32546413 0.42475334 0.16075838 0.08857017 0.44354582
-0.00085320167 -0.07435154 0.090132006 0.25375503 0.27637738 0.037529763 -0.17006059 0.4297303
-0.033980954 -0.016332403 0.046578195 -0.09180907 -0.0094749 0.03029709 0.07213249 -0.19619991
0.0069054845 0.018542578 -0.067230515 -0.009051925 0.10354732 0.19018565 -0.044596273 0.012179292
0.10906415 -0.089176774 -0.0070038126 0.39868063 -0.12259717 0.0045539523 0.033520423 0.057799567
-0.09284781 -0.20730025 0.025090031 -0.20231277 -0.30398354 0.18001474 -0.14393751 -0.05503799
-0.035738744 0.33786678 0.042702165 0.11250415 0.19562732 0.44513237 0.46607473 -0.13722074
0.23347636 0.18447311 0.13073999 0.20012425 0.034073092 0.07284987 0.047156267 -0.4570303
-0.1378326 0.38125032 0.110751815 0.027890485 0.4796411 0.10907473 -0.121429875 0.19940734
0.11703533 -0.108326375 -0.090142354 0.0859961 -0.12499147 0.505002 -0.009305184 -0.10870847
0.14029245 -0.04921225 0.15938611 0.014744995 0.18908422 0.1562787 0.10751843 0.3867104
-0.11972981 -0.03552047 0.5068001 0.0052000154 0.056283504 -0.30034465 0.24598286 -0.11954396
0.13291486 0.021059172 0.0750699 -0.2203282 0.09278257 -0.050664872 0.08749367 0.22630389
0.57403696 0.25022265 -0.058981918 0.31026995 -0.13368668 0.09756538 0.48169896 0.33357662
0.113845706 -0.11683583 -0.12223816 0.35550857 0.22468163 -0.02340905 -0.072034605 -0.10446298
-0.14633295 0.1418991 0.22863977 -0.022449864 -0.1721388 0.29724067 -0.10408735 -0.021970045
0.1044945 -0.16738006 -0.15018453 0.35782734 0.16181946 -0.2747887 -0.11936661 0.5734061
0.021426992 0.008429655 -0.07610967 0.010306308 0.026199782 0.18026906 0.17174768 -0.17352134

model/conv1d_13/Conv1D f4 [16, 1, 7, 20]
00000000: 51e7 a13d 87bb bc3d da3c a53d afd0 24bd
00000010: 356c 31bd 379a 953d e932 b1bb a439 fe3d
00000020: e1c6 3d3d 658d 0d3e a0a7 7ebd de8c 243d
00000030: 24c8 a3bd ea9d 28bd a99d e83d 0c7b 6e3d
00000040: 3ada f73c c98c 263e 595d b93d f652 c43d
00000050: 0274 5ebd 1fad ce3d 1418 fdbd 298e c5bd
00000060: 39c4 e33d 9beb 14be de5b 84bc ee4e d73d
00000070: d303 623d 52e9 5a3e 6c06 db3d 4201 4e3d
00000080: 49fe 143e 862e 2e3e 0a49 f23d ca34 d2bd
00000090: 49fb c73d d789 03bd ef50 a93c ee90 35bd
000000a0: 0b49 753e ac50 54be f626 ff3c 6418 f83d
000000b0: 420d cd3d 74eb 9f3d 2a1b 083d 6603 003c
000000c0: 77cc 833d eb56 693e c512 bdbc 0599 10be
000000d0: 9165 e93d 74f0 bc3d 944d 6d3e d060 b33d
000000e0: 142a 93bd d265 a53e 5dca 683e 8f36 aa3d
000000f0: fc43 2f3e 6bb5 463e 1ec6 39bd b9d8 1f3e
00000100: 9333 b93c a399 363e f3e2 203e 8b04 813d
00000110: 16eb 313d b84f 9f3a 8cdd 203d f79c 283e
00000120: 2552 713e 6305 d13d 83dc 4b3e 680c 943d
00000130: 76fe ebbd 1f7c 343e 8cae b33d a1aa e73d
00000140: c6f8 7c3d f1a2 993b 2484 493e 32cb 703e
00000150: ff67 6a3e e5ed 543d 5bfe 5d3e 9129 ddbc
00000160: 7576 1d3e 89c4 ac3d 67ee a83d 2a49 e73d
00000170: 03ed 3e3e 3c6e 643e ff8c bf3d 3061 7dbe
00000180: 27ad 54bd da7a ca3d b1eb 3abd cbe5 4a3e
00000190: 2c98 af3d 8d31 093e 5441 c43d f4b2 70ba
000001a0: 31f5 78bd b3b5 b6bd 2c53 c73b 88ff 7d3e
000001b0: 108c 113e 5f5b 05bb 7625 bdbd 42cf 063e
000001c0: cfc0 9bbc 7e81 e43d a71b 8f3e 7404 0a3e
000001d0: a287 213a 6102 aa3d 6ca1 4cbd b4ae 28be
000001e0: a47a 453e 9444 0f3e 2435 ec3d 03f7 b33e
000001f0: 5f5f adba b50b 883e 1f7d 283e 572b e83c
00000200: 8587 a13e 8235 3dbc 5083 cc3c f474 2b3e
00000210: 2978 663e 6c34 663e 2d2b 5b3e d6aa da3d
00000220: 56ad 583d a488 133e cae3 f53c 8c5f 5cbd
00000230: a742 54bc 2861 d93c 03b8 253d 8cb1 003e
00000240: fe48 ff3d 09a9 6c3e 79f0 8d3e 8a3e e93d
00000250: 1298 9b3d 9584 b83d e98e 023e f0c7 c03c
00000260: 2e94 2f3e 4cdc 543e 7838 083e 1d93 1a3d
00000270: a991 0f3e e1f9 9c3d b002 723d 1e15 f23c
00000280: f622 223d 95e9 21be b64c 993c 9c9c 323d
00000290: 50ba 4f3e 45d8 b7bc 1f05 983d da43 babd
000002a0: c905 d7bd c9a2 823e dce5 a43e 08e2 03be
000002b0: f8ff bc3e 6ea1 4dbd 1924 7a3d 3bed e5bd
000002c0: a1db 1b3e 8e79 c2bd 9405 04be 15da c23e
000002d0: 160b 3bbd 1df4 fc3e e40a 543e a729 4dbd
000002e0: 932f 163e e875 c43e 177e 9d3e 87f2 3f3e
000002f0: 6809 8f3e 5571 cfbd c20c a5bd 2da7 c33e
00000300: a0e7 1d3c db99 2bbe b2a0 7c3d 27a1 6a3d
00000310: 983c 443e fa24 b9bd 6e96 0c3d f320 a63d
00000320: 9a1f 953e 18e6 00bc c87c aa3d 33f3 a0bc
00000330: 0c34 e53e 1344 313c 42a3 7ebc e694 47bd
00000340: 3ecf e7bd 9fcd 6b3c 5037 823e 26dd 8b3b
00000350: a00f ca3d a85d 7c3d 7420 e7bc 6e35 d03e
00000360: d45a 793e 6c28 e33d 712a 5e3d ac38 1e3e
00000370: 1bbd 463e e73e 6d3e cbdb 9f3e aedc 89be
00000380: 0890 e53e 96a3 313e 5cc0 d1bd ffc7 963d
00000390: 4cfe 733e ed0f cb3d 83c1 583d 2c67 923e
000003a0: ce7d 7a3e 72d8 e33d e4f0 843d eda1 103e
000003b0: add9 493e 4a82 743c 0c42 353e 7908 8a3e
000003c0: bb6a 3d3e 4c5c 6fbd b771 d33d 330d f4bd
000003d0: 589e 2c3e 6707 b93d 85e6 fdbd cba3 9c3c
000003e0: 2f96 85bd 0a88 073f 5469 d23e e974 59bd
000003f0: 898e d43e ab81 0a3e e07c 4f3d ae02 a83d
0.07905448 0.092154555 0.08068247 -0.04023808 -0.043316085 0.07304805 -0.0054076803 0.12413338
0.046332244 0.13823469 -0.06217158 0.040173404 -0.07997158 -0.041166224 0.11358196 0.058222815
0.030255426 0.16264643 0.09051008 0.09586136 -0.054309852 0.10091614 -0.12358108 -0.096462555
0.11121411 -0.14543001 -0.016157087 0.105131015 0.05517943 0.21378067 0.10694584 0.05029417
0.14550127 0.17009935 0.11830337 -0.10263975 0.09764726 -0.032113876 0.020668475 -0.04432767
0.23953645 -0.20733899 0.031146508 0.12114027 0.10012294 0.07808581 0.03322903 0.00781331
0.06435483 0.22787063 -0.02308024 -0.14120872 0.113963254 0.0922555 0.23174125 0.087587
-0.0718576 0.32304245 0.22733445 0.083111875 0.17115778 0.19405143 -0.045354955 0.15610017
0.0226076 0.17832045 0.15711574 0.06299695 0.043437086 0.0012154495 0.039273784 0.16466127
0.23566492 0.102061056 0.19908337 0.07228929 -0.11523144 0.17625473 0.087735265 0.11311842
0.061760686 0.0046886136 0.19679314 0.23515013 0.22891234 0.051984686 0.2167906 -0.02699736
0.15377219 0.084359236 0.08248597 0.11293252 0.186451 0.22307676 0.09353065 -0.24744105
-0.051922943 0.09886713 -0.04563493 0.19814222 0.08573946 0.13397808 0.09582773 -0.00091819395
-0.060780708 -0.08921375 0.006082913 0.24804509 0.14213586 -0.002034865 -0.09235661 0.13165
-0.019012837 0.11157511 0.27950785 0.13478261 0.00061618735 0.08301235 -0.04995863 -0.16472894
0.19285065 0.13991004 0.11533573 0.35149392 -0.0013227275 0.26571432 0.1645398 0.028340979
0.31548706 -0.011548402 0.024964958 0.16743833 0.22506775 0.22480935 0.21403189 0.106771156
0.05289968 0.14407593 0.030015845 -0.053802058 -0.012955344 0.026535586 0.04045869 0.12567729
0.12465094 0.23111357 0.2772253 0.113888815 0.075973645 0.09009663 0.12749828 0.023532838
0.1714637 0.20787162 0.13302791 0.037737954 0.14020409 0.07664848 0.059084594 0.029551085
0.039584123 -0.1581176 0.018713336 0.043606386 0.20285916 -0.022441993 0.07422852 -0.09094973
-0.1049915 0.2551482 0.3220662 -0.12879193 0.3691404 -0.05020278 0.06106958 -0.11226889
0.152205 -0.09495841 -0.12892753 0.38057008 -0.04566487 0.49404994 0.2070728 -0.05008855
0.14666586 0.38371205 0.3076026 0.1874486 0.27936864 -0.10129038 -0.08059074 0.38213482
0.009637743 -0.1675791 0.06167669 0.057282593 0.1916374 -0.09040256 0.03432315 0.08111753
0.29125673 -0.007867359 0.083245814 -0.019647216 0.4476627 0.010819453 -0.015541853 -0.048725985
-0.11318825 0.014392286 0.25432825 0.0042683063 0.098662615 0.061612755 -0.028213717 0.40665764
0.24351054 0.11091694 0.054239694 0.15451306 0.19408076 0.23168527 0.31222376 -0.26926178
0.4483645 0.1734756 -0.10241768 0.07362365 0.23827475 0.09915147 0.052918922 0.2859434
0.24462053 0.11125268 0.06491259 0.1412427 0.19711943 0.014923641 0.17700976 0.2695959
0.18497746 -0.05843763 0.10324424 -0.1191658 0.16857278 0.09034615 -0.12397484 0.019121071
-0.06522786 0.52941954 0.41095984 -0.05309001 0.41514996 0.13526027 0.0506562 0.08203636

model/conv1d_14/Conv1D f4 [16, 1, 9, 20]
00000000: 49cf 98be 2b3b a33d 1061 cf3d 1687 503d
00000010: 0efe 233e 8316 babd a82f cd3d 9032 ffbd
00000020: c406 0dbe 557d 863e 9217 843d e8d3 9c3d
00000030: e24f 373e 989c 4b3d 289c 6d3e e27d 13be
00000040: 85b5 0b3e e049 d2bc 5746 0cbd ab50 9f3e
00000050: aab0 073f 952b 90bd 8418 36be 0513 6bbe
00000060: 9cf0 f83d c5a9 243d 4919 dc3b 07cf da3c
00000070: 63a9 15bc 4ee1 623d 4c7b 313e c105 50bd
00000080: f8f9 823e ad28 e83b 4c4c 003e 578e 22bd
00000090: 5a6e c53d 06af 38bd b4d4 ecbc 2779 333e
000000a0: 274c cd3e 8492 3fbe 61ee 32be 0535 813e
000000b0: 2297 39bd 01f7 b43d 54af a03d 4f94 d83c
000000c0: 1c90 31be 0030 313d 8afc c8bc 44bd 9bbe
000000d0: 749d 87bd d136 d4bd 3fec a43d f07c 98bd
000000e0: fde8 ffbd 0076 363c f6f5 60bd 9ee5 eb3d
000000f0: c89d 0fbc ef3e 933e 2512 b73e 07e4 7c3b
00000100: 7438 763e 7911 b13d cbc2 503e c448 fd3d
00000110: c6ad 093f 3ec5 f03a d2fc aebd e3a5 733e
00000120: 03dc 023e 9667 483e e5a9 02be 13d7 8f3d
00000130: b420 053e d4cf 6d3e 3441 8a3e e4ee 32bc
00000140: bcae 473d f995 2f3e b9f5 90bd 6295 493e
00000150: 2dbc a23c 89ec c33d 9465 913e a2a1 2f3e
00000160: 6a59 c93d 94ac 1f3e 8138 c83e b2f7 a1bd
00000170: eb8a 8f3e 2079 423e dee5 5d3e 0b97 ca3d
00000180: 4c59 583d 2566 663e 98af 273e 0e3b 143e
00000190: 2e36 e03d 03e2 bdbc 6183 c3bd c0a6 1f3e
000001a0: 325e d43c 5503 f83d 6d34 6b3c c1f4 a3bb
000001b0: c66b 633d 642b 893e 69bd e83d d767 b13c
000001c0: 7a47 6e3e 617a e63d ccba 00bd 5336 41bd
000001d0: b12a ff3d 874d b33d 024b d23d 8f76 693e
000001e0: b9ae 1e3d aa66 8b3e 82d3 e73d 5721 0c3e
000001f0: 53fc a43e 43f5 453e b538 9e3d 0a83 643e
00000200: 2a52 613e 4cc0 643e b359 d03d 2c1f 023e
00000210: 3e79 733d c505 3f3e 9e84 ca3e 7f17 f33d
00000220: 7bc9 5f3d 9372 3a3e 132a 393e efcf 003e
00000230: 2fde f33d 4593 e93d c544 913d 1b97 193e
00000240: 16e7 c93d d37e 2dbd 04ae 0cbd de03 0a3e
00000250: f8a4 3d3e c454 003e 4ed7 913d a637 2e3e
00000260: 5f62 463e e904 2e3e 07d8 473d 5fc6 253d
00000270: d088 633d 52fa bf3d 5207 a8bc cb85 3d3e
00000280: 37a3 143d 5343 97bc 551e a33d 1397 333e
00000290: b9d3 b53d 60fa e5bc a9a1 193e b44a 273d
000002a0: 80fa c33d a80f 0b3e e622 153e 0808 c83d
000002b0: 30d3 0a3e 0b9c 5b3d dd77 aaba 477b 403e
000002c0: 6c6b e03d 66d1 41bd f79d 093d 861a c23d
000002d0: 1289 0d3d b939 473d cbc9 1bbe 865d 783d
000002e0: edf8 bf3a df02 d43d 805c b63d ee00 0ebd
000002f0: e5b9 47be d35c db3d 43fb 073e 3cda 673d
00000300: 4cd7 053e 5892 073e c1be 6c3e 676a 67be
00000310: a10c 703d f831 483d e127 5e3d 224d 6bbc
00000320: 5a72 943e 06bd 4f3d 4ddf 8dbc f210 4dbd
00000330: 4b6d 383d 2cf3 253d e2c5 b13d a8ac a63d
00000340: 1ca1 1f3d fc23 0c3e 59eb 203e 4f85 3e3d
00000350: fe96 8cbd 9ec8 5abd e720 a3bc 41e0 023d
00000360: da08 e2bd 6ca7 103b 0b2a 303e d63e 993b
00000370: 0b89 19bc 08da ff3d 2867 623d 560b 13be
00000380: 2ed0 153e 17db 233e 6291 0abe 4201 afbd
00000390: ffb3 433e 2191 83bb 55d1 c83d 3d8e 92bd
000003a0: 3511 ddbc 2390 3b3d cdbc 1e3e 7286 15be
000003b0: 660c 34bd d35a 493e 367c 083e 93ee ec3d
000003c0: cdf4 793d e43e 803d 8bbd febd c8f6 f3bd
000003d0: cfe8 1b3e 8dd3 fa3d df8a 0dbd 801c 8bbb
000003e0: f702 b13d 4e29 71bc f32c e63d 0081 163e
000003f0: 7004 d03c f0c4 0c3d 14fd 35bd ebbe dfbc
-0.29845646 0.0797027 0.10125935 0.050910078 0.16014883 -0.09086325 0.10018855 -0.12460816
-0.13772112 0.26267496 0.06449808 0.076576054 0.17901567 0.049709886 0.232041 -0.14403489
0.13643463 -0.025669992 -0.03424677 0.31116232 0.5300394 -0.070395626 -0.1778279 -0.22956474
0.121552676 0.040200967 0.0067168814 0.026710046 -0.009134623 0.05539065 0.1733219 -0.050786737
0.25581336 0.007084927 0.12529105 -0.039686527 0.096401885 -0.04508879 -0.028910019 0.17526685
0.40097162 -0.18708235 -0.17473747 0.25235763 -0.045310147 0.08836175 0.07845941 0.026437907
-0.1734013 0.043258667 -0.024534483 -0.30417836 -0.06621829 -0.10362018 0.08052873 -0.07445705
-0.12495611 0.011136532 -0.054922067 0.115184054 -0.008765645 0.28758952 0.3575603 0.0038588063
0.24044973 0.08645911 0.20386808 0.123673946 0.5378078 0.001836933 -0.085443154 0.2379375
0.1277924 0.19570765 -0.12760122 0.07023444 0.13000757 0.23223811 0.2700287 -0.010921214
0.048750624 0.17147054 -0.07078118 0.19685891 0.01986512 0.095666 0.2839781 0.17151502
0.098315075 0.15593177 0.3910561 -0.07908572 0.28035673 0.18991518 0.21669719 0.098920904
0.052819535 0.22499903 0.16375577 0.14475653 0.10947834 -0.02317906 -0.09546543 0.15590954
0.025923822 0.121100105 0.014355761 -0.005003542 0.055522703 0.26790917 0.11364252 0.02165596
0.23269454 0.11253811 -0.031428143 -0.04717095 0.124593146 0.087550215 0.10268213 0.22799133
0.038740847 0.27226764 0.11319639 0.13684593 0.32223758 0.19331841 0.0772566 0.22315612
0.22004 0.2233898 0.10173359 0.12707204 0.059441797 0.18654545 0.39554304 0.11869716
0.054635506 0.18207769 0.18082456 0.1257932 0.119076125 0.114050426 0.07093195 0.14999048
0.09858529 -0.042357277 -0.03434564 0.13478038 0.18519962 0.12532336 0.07121144 0.17013416
0.19373463 0.1699406 0.048790004 0.040472385 0.055550396 0.09373917 -0.020511303 0.18508069
0.036288466 -0.01846472 0.0796477 0.17538099 0.088782735 -0.02807349 0.15003075 0.040842727
0.095692635 0.13580191 0.14564094 0.09767157 0.13557124 0.05361561 -0.0013005693 0.18797027
0.10957989 -0.04731884 0.033597913 0.09477715 0.03455455 0.048639033 -0.15213697 0.060636066
0.0014646329 0.1035211 0.08904362 -0.034668855 -0.19504507 0.10711064 0.13279442 0.05660461
0.1307041 0.1323942 0.23119642 -0.22599183 0.058605794 0.04887578 0.05423725 -0.014361652
0.28993493 0.050717376 -0.017318392 -0.05006499 0.045026105 0.04051511 0.08680321 0.081384
0.038972005 0.13685602 0.15714778 0.04651385 -0.06864737 -0.05341398 -0.01991315 0.031952146
-0.110368446 0.0022072447 0.17203538 0.00467668 -0.0093710525 0.12492758 0.05527416 -0.14359793
0.14630195 0.16001545 -0.13532022 -0.08545162 0.19111632 -0.0040151034 0.09805552 -0.07156036
-0.026985744 0.045791756 0.1550171 -0.14602068 -0.043957137 0.19663553 0.13328633 0.11568942
0.061024476 0.062619954 -0.12438496 -0.11912304 0.15225528 0.12247381 -0.034556266 -0.004245341
0.086431436 -0.01471932 0.11239042 0.14697647 0.025392741 0.0343675 -0.044430807 -0.027312716
