results/fold_2/checkpoint/model_1204_fold_2.tflite (tflite, 406736 bytes, 73 tensors)

model/conv1d_10/BiasAdd/ReadVariableOp f4 [16]
00000000: f9e3 74be 2244 9dbe 8e8a 86bd 72de 71bd
00000010: b3c9 30bd e783 8ebd ae42 36be 6beb c3bd
00000020: 28b2 94bd 2cd4 dfbd fd40 4abd c862 0cbe
00000030: 8e3b c1bd 6cb0 30be 2b0f 00bd c01a 11be
-0.2391509 -0.30716044 -0.06569396 -0.05905003 -0.043161105 -0.06958752 -0.17798874 -0.09566387
-0.07260543 -0.109291404 -0.049378384 -0.13709557 -0.09435187 -0.172548 -0.031264465 -0.1417036

model/conv1d_11/BiasAdd/ReadVariableOp f4 [16]
00000000: 7a90 51be aab5 eebd 3ef8 11be c863 55be
00000010: 6019 eebd 74d0 75be 8f97 12be edba 15be
00000020: cdc0 b6bd 16ef febd 1467 39be ee55 f8bd
00000030: 1177 18be 3069 3cbe 302b ddbd b93e 0ebe
-0.2046527 -0.116557434 -0.14254853 -0.20838845 -0.11625934 -0.240053 -0.14315628 -0.14622088
-0.089234926 -0.12447946 -0.18105727 -0.12125765 -0.1488917 -0.18399501 -0.10799253 -0.13891114

model/conv1d_12/BiasAdd/ReadVariableOp f4 [16]
00000000: 99e3 33be 8ac4 48be 8faa 76bd e6d2 dcbd
00000010: ae06 3abe 189e 17be a536 e9bd 1979 b7bd
00000020: 26c5 e5bd aa51 1abe 197f 26be b61c f9bd
00000030: 2d64 12be 03d8 0dbe 69a1 38be bfab f5bd
-0.1756729 -0.19606224 -0.06022125 -0.10782413 -0.1816661 -0.14806402 -0.11387376 -0.089586444
-0.11219244 -0.15070215 -0.16259421 -0.12163679 -0.14296027 -0.13851933 -0.18030323 -0.119956486

model/conv1d_13/BiasAdd/ReadVariableOp f4 [16]
00000000: 6f24 f1bd 5ac2 22be bc30 1fbe b0b6 d2bd
00000010: 2ff8 03be 7dce cdbd 9477 fcbd 9623 17be
00000020: a0d8 b9bc 8eec b4bd f0c7 3bbe f506 a7bd
00000030: c34c 67be 0944 46be c8f8 d8bd 7315 16be
-0.11774527 -0.15894452 -0.15545934 -0.10288751 -0.12887643 -0.1004915 -0.12327495 -0.14759669
-0.022686303 -0.08834182 -0.18337989 -0.08155624 -0.22587876 -0.19361891 -0.10594326 -0.1465662

model/conv1d_14/BiasAdd/ReadVariableOp f4 [16]
00000000: cd2e 06be 0e0b bdbd f487 02be 627b 11be
00000010: 92ca 18bd 8630 59bd 630a 2bbe 837a 16be
00000020: 65b8 02be 5322 0bbe 9078 d1bd 87e2 b9bd
00000030: b48b e2bd 9922 84bd 8f0e 19be dc9d f8bd
-0.1310379 -0.09230624 -0.12747175 -0.14207223 -0.03730256 -0.05302479 -0.16703181 -0.14695172
-0.12765653 -0.13587312 -0.102280736 -0.0907641 -0.110618025 -0.064519115 -0.1494696 -0.12139484

model/conv1d_15/BiasAdd/ReadVariableOp f4 [16]
00000000: b489 04be 4847 e6bd 4a7a bdbd eb04 a2be
00000010: b87c d7bd ee86 66be 26b8 d8bd e797 77be
00000020: 0486 20be eefc 47be 76b2 16bd d5bb 4dbe
00000030: 42ba dfbd 23c4 ce3b 4fff d8bd e64d fa3a
-0.12943155 -0.112440646 -0.092518404 -0.31644377 -0.10521835 -0.22512409 -0.105819985 -0.2417904
-0.15676123 -0.19530079 -0.036791287 -0.20091183 -0.10924198 0.0063100024 -0.10595571 0.0019096702

model/conv1d_16/BiasAdd/ReadVariableOp f4 [16]
00000000: b105 15be fd27 09be f466 95be 5945 85be
00000010: e027 64be 54f6 87be b04b 01be 8cc0 d0bd
00000020: 946e 33be af7d 1dbe 80e0 bbbd d0d2 38be
00000030: 7f65 4dbe 100e 19be f27b 39be 8745 5cbe
-0.14552952 -0.1339416 -0.2918011 -0.2602947 -0.22280836 -0.2655512 -0.12626529 -0.101929754
-0.17522651 -0.15379976 -0.09173679 -0.18049169 -0.20058249 -0.1494677 -0.18113688 -0.21510898

model/conv1d_17/BiasAdd/ReadVariableOp f4 [16]
00000000: b688 08be b64f 4dbe 78e4 2abe bc11 01be
00000010: 0538 a6bd 9b79 2fbe 2f24 9abd b40b 11be
00000020: 5e84 69bd ea7a 2bbe 4639 43be 6eaa e4bd
00000030: 66b2 e5bd 05d0 17be f8b1 60be 7e4f 03be
-0.13333401 -0.20049939 -0.16688716 -0.12604421 -0.08116154 -0.17136233 -0.07526433 -0.1416462
-0.057011 -0.16746107 -0.19064817 -0.111653194 -0.112156674 -0.14825447 -0.2194289 -0.12823293

model/conv1d_18/BiasAdd/ReadVariableOp f4 [16]
00000000: 3867 1ebe befa 54be 8b14 0bbe fd24 13be
00000010: 820f 06be f9f2 4fbe 5caa 53be 9db8 20be
00000020: 92da d7bd b10e f9bd 2ec0 19be 89b4 1bbe
00000030: 8238 08be 2690 1ebe b99d 3ebe ffbe e2bd
-0.15469062 -0.20798776 -0.13582055 -0.14369579 -0.13091853 -0.2030753 -0.20670456 -0.15695424
-0.10539736 -0.12161005 -0.15014717 -0.15205587 -0.13302806 -0.15484676 -0.18614854 -0.11071586

model/conv1d_19/BiasAdd/ReadVariableOp f4 [16]
00000000: e9e7 debd bc30 31be 9b4c 81bd c5f3 1cbe
00000010: 2d68 3dbe 6240 f5bd 5858 2fbe 59f8 d6bd
00000020: 35c4 bbbd c619 33be 8a1f 9fbd 5ecd 13be
00000030: 86ce 25be bb1a dfbc a28a 4dbe 4174 13be
-0.10884077 -0.17303747 -0.063134395 -0.15327366 -0.18496771 -0.11975171 -0.17123544 -0.10496587
-0.09168283 -0.174903 -0.077696875 -0.1443381 -0.16192064 -0.027234426 -0.20072415 -0.14399816

model/conv1d_20/BiasAdd/ReadVariableOp f4 [16]
00000000: 7778 bbbd 20ab 04be ec6d 1ebe 48e3 23be
00000010: 004a 92bd 9fb2 c7bd 542c d6bd 9043 11be
00000020: 441f e6bd 3ce3 f9bc b94d 17be 98e8 84bd
00000030: 1cd8 13be 9fec 3abe fbb8 aebd c237 b5bd
-0.09153836 -0.12955904 -0.1547162 -0.1600467 -0.07143021 -0.09750866 -0.10457674 -0.1418593
-0.11236432 -0.030503862 -0.14775743 -0.06489676 -0.14437908 -0.18254326 -0.08531376 -0.088485256

model/conv1d_21/BiasAdd/ReadVariableOp f4 [16]
00000000: 148b 20be 3cb7 20be ae30 1abe a375 8abd
00000010: 232f e5bd 83f5 acbd 4f5f 27bd b737 b6bd
00000020: 19b8 1ebe 06ad dbbd 51ee eabd 8cb1 aebd
00000030: b06e 5abd 234b 60be c7e2 2dbe 3679 edbd
-0.15678054 -0.15694898 -0.15057632 -0.06760719 -0.11190631 -0.08445265 -0.040862378 -0.088973455
-0.15499915 -0.10726361 -0.114712365 -0.08529958 -0.053328216 -0.21903662 -0.1698104 -0.11595385

model/conv1d_22/BiasAdd/ReadVariableOp f4 [16]
00000000: fc7c 4ebd b51b 01be 83ee 18be 859d 16be
00000010: f428 f0bd e477 98bd 2cd0 f3bd 31fd f2bd
00000020: 2a74 e8bd 80ca f2bd f4e2 c8bd 8bef 9fbd
00000030: 6def 08be 66d0 bdbd fd03 fdbd de1f 46bd
-0.050412163 -0.12608226 -0.14934735 -0.14708526 -0.11726561 -0.07444742 -0.1190494 -0.11864699
-0.113502815 -0.1185503 -0.09808913 -0.07809361 -0.13372584 -0.092682645 -0.12354276 -0.048370235

model/conv1d_23/BiasAdd/ReadVariableOp f4 [16]
00000000: dffc 72bd 8b96 c4bd 9b65 2fbd 66c7 e4bd
00000010: 1ef1 0bbe 526b bdbd b532 d1bd ad60 21be
00000020: 3f89 08be 7afd 1fbe 3edb 97bd bf54 ddbd
00000030: 547f 37bd 0373 efbd dba1 1ebd ac50 01be
-0.059323188 -0.09599026 -0.042821508 -0.11170845 -0.13666198 -0.09248985 -0.1021475 -0.15759535
-0.13333605 -0.15624037 -0.07414864 -0.1080718 -0.044799164 -0.116918586 -0.038728576 -0.1262843

model/conv1d_24/BiasAdd/ReadVariableOp f4 [16]
00000000: e705 8bbd aee6 fcbd 1247 d2bd b3c1 18be
00000010: c7c2 65bd 19ee d6bd 5d47 08be bc88 b9bd
00000020: a034 bdbd e6fd 19be 5658 d8bc ef1e 1fbd
00000030: bc41 e0bd 4004 c5bd 8c1c 64bd 5065 03bd
-0.06788235 -0.12348686 -0.10267462 -0.1491764 -0.056093957 -0.10494632 -0.13308473 -0.09059283
-0.09238553 -0.15038261 -0.02640931 -0.03884786 -0.10950038 -0.09619951 -0.055691287 -0.03207904

model/conv1d_25/BiasAdd/ReadVariableOp f4 [16]
00000000: 1d77 36be 6ee9 86be 1c30 0ebe 4b24 1dbe
00000010: 4d4a 29bd 0d7e 2abe 41b4 45be 496d e0bd
00000020: b84b d5bd 9806 15bd 2ba3 48be d669 2ebe
00000030: f64e 4bbe b5c6 f5bd 5c43 1fbe 7503 debd
-0.17818876 -0.26349968 -0.1388554 -0.15345876 -0.041330624 -0.16649647 -0.19307043 -0.109583445
-0.10414833 -0.03638324 -0.19593494 -0.1703256 -0.1985434 -0.12000791 -0.1555304 -0.10840503

model/conv1d_26/BiasAdd/ReadVariableOp f4 [16]
00000000: 98bf cebd 6e0a 0dbe 3ccf 2cbe 8b8d 73be
00000010: d49e 12be 7afa 0cbe 4f64 05be 271b e9bd
00000020: b70c bebd b1a9 57be 7a50 2abe b343 29be
00000030: 7183 43be c3e2 10be 58a9 69be 3dd7 95bd
-0.10095137 -0.1377351 -0.16875929 -0.23784463 -0.143184 -0.13767424 -0.13026546 -0.11382132
-0.09279769 -0.21060826 -0.16632262 -0.16529731 -0.1909311 -0.14149003 -0.22818506 -0.07316444

model/conv1d_27/BiasAdd/ReadVariableOp f4 [16]
00000000: cb42 bbbd e879 12be d6ea 3bbe 4b5e 2dbe
00000010: b7c8 dfbd d2ff 31be c761 18be a293 adbd
00000020: 586a 57be b7d6 27be 05b4 3fbe 705c b2bd
00000030: 9d75 2dbd 84e6 9ebd fc63 2fbd 4933 29be
-0.09143599 -0.14304316 -0.18351302 -0.16930501 -0.10926955 -0.17382744 -0.14881049 -0.08475424
-0.2103666 -0.16390501 -0.18721016 -0.08709037 -0.042348493 -0.07758811 -0.042819962 -0.1652347

model/conv1d_28/BiasAdd/ReadVariableOp f4 [16]
00000000: 9dfd cbbd 71cb f4bd 3e38 22be 839e 0bbe
00000010: 35ec dbbd 83a5 03be 79a2 a5bd 0acd 05be
00000020: 11fe f9bd 0f58 20be 5a66 adbd 2c53 19be
00000030: 1016 fbbd de22 8dbd c732 ecbd 7310 0cbd
-0.09960482 -0.11952866 -0.15841767 -0.13634686 -0.10738412 -0.12856106 -0.0808763 -0.13066497
-0.122066624 -0.15658592 -0.08466788 -0.14973134 -0.122600675 -0.06891416 -0.115331225 -0.034195375

model/conv1d_29/BiasAdd/ReadVariableOp f4 [16]
00000000: c87f 09be 1a09 8ebd 21c0 78bd 38c0 2ebe
00000010: 220c 88bd 3b3f c0bd c0a4 11be 6b5a 42bd
00000020: 45bc 14be 2146 41bd 1d22 00be 3ed1 0bbe
00000030: 5d0c e6bd 55cf e9bd e0b5 edbd 4376 d6bd
-0.13427651 -0.0693533 -0.060730103 -0.17065513 -0.06642939 -0.0938706 -0.14223003 -0.04744951
-0.14524944 -0.04718602 -0.12513013 -0.13654038 -0.11232827 -0.114164986 -0.116069555 -0.104717754

model/conv1d_30/BiasAdd/ReadVariableOp f4 [16]
00000000: 03b3 3bbe eea2 29be 70eb 1abe 7d7d 1abe
00000010: 2c47 08be 365c 5dbd 0cca 31bd e779 23be
00000020: ffc5 16be 17bd d5bc b00b fbbd 4171 80be
00000030: f1ab 01be 306e c6bd 0000 0000 2736 e3bd
-0.18330006 -0.16566059 -0.15128875 -0.15086932 -0.133084 -0.054043017 -0.043405578 -0.15964471
-0.14723967 -0.026091142 -0.122580886 -0.25086406 -0.12663247 -0.09688985 0.0 -0.11094313

model/conv1d_31/BiasAdd/ReadVariableOp f4 [16]
00000000: 33c1 51be fa43 febd b01a febd ef39 8bbe
00000010: 1f49 f0bd 95ad 22be bfdc 80be 9555 54be
00000020: a974 4abe b1ff 32be 0a27 5abe cf00 17be
00000030: 7df1 a4be 4d53 20be 5b7f 83be 2d91 f1bd
-0.20483856 -0.12415309 -0.12407434 -0.27192637 -0.11732697 -0.15886529 -0.25168416 -0.20735772
-0.19771065 -0.17480351 -0.21303955 -0.14746402 -0.3221549 -0.15656777 -0.25683102 -0.11795268

model/conv1d_32/BiasAdd/ReadVariableOp f4 [16]
00000000: 9dfe bcbd e620 dfbd b54d 26be ba0f 55be
00000010: a563 36be f479 0abe aac2 0ebe a2a9 24be
00000020: 26e5 11be 4238 0abe 2451 bfbd f101 b4bd
00000030: 7f7b 22be 7066 2cbe 0881 2dbe f12f 1bbe
-0.09228251 -0.10894947 -0.1624058 -0.2080678 -0.17811449 -0.13523084 -0.13941446 -0.16080335
-0.1424757 -0.13498023 -0.09341648 -0.08789433 -0.15867423 -0.16835952 -0.16943753 -0.15155007

model/conv1d_33/BiasAdd/ReadVariableOp f4 [16]
00000000: 1e4f 75be 494c 55be 5962 03be 7152 76be
00000010: 5bb5 08be 1b0d 19be 6678 23be ad15 87bd
00000020: f92a e7bd 30f4 1ebe 3d57 c9bd f768 03be
00000030: d22c 13be b004 f5bd 7dfa 4cbe ddff 62be
-0.23955962 -0.20829882 -0.12830485 -0.24054886 -0.13350432 -0.14946406 -0.15963897 -0.06595931
-0.11287493 -0.15522838 -0.098310925 -0.1283301 -0.14372566 -0.11963785 -0.20017429 -0.22167917

model/conv1d_34/BiasAdd/ReadVariableOp f4 [16]
00000000: ed13 cbbd 1a6d 12be 8055 06be f83e c7bd
00000010: 3204 a0bd 16f0 07be cefb cfbd 8b59 0abe
00000020: cdf7 22be 3d74 32be c74b 16be 2777 bebd
00000030: 0d62 13be 9771 14be c050 3cbe 11ae fdbd
-0.0991591 -0.14299431 -0.13118553 -0.09728807 -0.078133 -0.1327518 -0.1015545 -0.1351072
-0.15914841 -0.17427154 -0.14677344 -0.0930007 -0.14392872 -0.14496456 -0.18390179 -0.12386716

model/conv1d_5/BiasAdd/ReadVariableOp f4 [16]
00000000: c1e2 cfbd 3e4b c6bd 6951 7cbd e99d b0bd
00000010: e642 abbc ae61 5cbc b6b7 f4bd d9e4 3cbe
00000020: 9765 c8bd c1f8 d4bd 4c02 7bbd f3a2 00be
00000030: 0fde fcbd d6e1 64be 0776 39be dd86 3ebd
-0.10150672 -0.0968232 -0.061601076 -0.08623869 -0.020905923 -0.013451023 -0.119491026 -0.18446673
-0.09785002 -0.103990085 -0.061281487 -0.1256216 -0.12347042 -0.22351775 -0.1811143 -0.046515334

model/conv1d_6/BiasAdd/ReadVariableOp f4 [16]
00000000: b425 f2bd 81ca 55be af00 08be 62de 37be
00000010: 556b 12be e4e2 72be 61b8 20be fd7c 29be
00000020: 898e cdbd c7d4 14be 4798 2cbe 288c afbd
00000030: 9c8e e3bd 53b3 8fbd fade 6cbe 2619 05be
-0.118235976 -0.2087803 -0.13281511 -0.17955926 -0.14298756 -0.23719364 -0.15695335 -0.16551585
-0.10036952 -0.14534293 -0.16854964 -0.085716546 -0.11111185 -0.07016625 -0.23131934 -0.12997875

model/conv1d_7/BiasAdd/ReadVariableOp f4 [16]
00000000: aa75 28be 7f38 51be 519f edbd 7fc2 47be
00000010: f531 35be f399 38bd 757d 9bbd 87ce d6bd
00000020: 1181 c7bd 8da2 ffbd ee46 d0bd 9ba5 9dbd
00000030: 9722 09bd 5d12 eebd c39b 2cbe 608f debd
-0.16451135 -0.20431708 -0.11602653 -0.19507788 -0.17694838 -0.045068692 -0.075922884 -0.10488611
-0.09741414 -0.12482176 -0.10169779 -0.07697602 -0.033480253 -0.11624596 -0.16856293 -0.1086719

model/conv1d_8/BiasAdd/ReadVariableOp f4 [16]
00000000: b1e8 1bbe 50b8 16be c38d 0cbe f72d 2fbd
00000010: 97e6 9fbd c924 42be 8263 5dbd d58d a4bd
00000020: 6440 0bbe 22fc a7bd e50f b5bd 4469 efbd
00000030: b7b2 13be e551 f1bd 704c 0fbe c473 39be
-0.15225483 -0.14718747 -0.13725953 -0.042768445 -0.078076534 -0.18959345 -0.054049976 -0.08034865
-0.13598782 -0.082023874 -0.08840922 -0.1169 -0.14423643 -0.11783198 -0.13994002 -0.18110567

model/conv1d_9/BiasAdd/ReadVariableOp f4 [16]
00000000: 4538 a3bd de5c 38be 918e d7bb 3dc7 d7bd
00000010: 7a0b 16be 2547 2abe 2817 78bd 8f69 25be
00000020: bb5d 20be 74b8 3bbe b9c6 e4bd 20bd 0fbe
00000030: 24fb 38be 5667 52bd 8bd7 0ebe eb2b 15bd
-0.07969717 -0.18004176 -0.0065782745 -0.105360486 -0.14652815 -0.16628702 -0.06056896 -0.16153549
-0.15660755 -0.18332082 -0.11170716 -0.14036989 -0.18064553 -0.05136808 -0.1394941 -0.036418837

model/conv1d/BiasAdd/ReadVariableOp f4 [16]
00000000: b891 d5bd 2dcb f7bd 3714 37be ef2a 9ebd
00000010: 40df 01be 045e 93bd a591 e6bd 3dd9 44be
00000020: 531f 95bd 48ab d1bd 772a 06be dec8 91be
00000030: 8462 abbd d5a3 343c 231a 6fbe 2917 0bbe
-0.10428184 -0.120992996 -0.17878805 -0.07723033 -0.1268282 -0.071956664 -0.11258248 -0.19223495
-0.07281365 -0.102377474 -0.13102137 -0.28473562 -0.083684 0.011025389 -0.23349814 -0.13583054

model/conv1d_1/BiasAdd/ReadVariableOp f4 [16]
00000000: c984 bbbd 630f 17bb 1f3a a0be 6914 3ebe
00000010: c758 a0bd d1eb 02be 754a 22be c78b 07be
00000020: 5ce9 95be 08e2 a9bd cb4c 44be bebb 96be
00000030: 8a8d 3dbe 5c78 8dbd c231 e5bd bb5e cdbd
-0.09156186 -0.0023049943 -0.31294343 -0.18562473 -0.07829433 -0.1278527 -0.15848716 -0.13236915
-0.29279602 -0.08295065 -0.19169919 -0.2944011 -0.18511024 -0.06907722 -0.11191131 -0.10027834

model/conv1d_2/BiasAdd/ReadVariableOp f4 [16]
00000000: 6af0 80bd cab0 66be 840d 54be c75a 3bbe
00000010: 2c1e a73c 08d4 38be 6a7e c03b 8de9 bebc
00000020: d1d5 83be 325d 0abe 5122 e5bd c7c1 44be
00000030: 9398 91be daea 5fbe 0499 c3bd 794e 72be
-0.06295855 -0.22528377 -0.20708281 -0.18296348 0.02040013 -0.18049634 0.0058744447 -0.023304725
-0.25749066 -0.13512114 -0.11188186 -0.19214545 -0.28436717 -0.21866933 -0.0955067 -0.23662747

model/conv1d_3/BiasAdd/ReadVariableOp f4 [16]
00000000: 8074 f5bd 2f96 0abe ec6a 2fbe a179 0bbe
00000010: 8ecf 8bbe 62db 47be dd09 32be 47b6 53be
00000020: 2006 4ebe 141a 89bd db5e 45be ed90 acbd
00000030: e98f 64be cba4 3ebd 3e26 05bf f8c7 4dbe
-0.11985111 -0.13533853 -0.17130631 -0.13620616 -0.2730679 -0.19517282 -0.17386575 -0.20675002
-0.20119524 -0.06694427 -0.19274466 -0.0842608 -0.22320522 -0.046543878 -0.5201148 -0.20095813

model/conv1d_4/BiasAdd/ReadVariableOp f4 [16]
00000000: 3da3 06be 076f c2bd be47 2dbd 9142 24bd
00000010: 6009 70bd c74f 41be 47b9 4abe eec2 5abe
00000020: ca60 38be e5d9 abbc 323e 1dbe f0bd 3abe
00000030: e0d9 57be 72bd cdbd 6f6d 55be 345f a7bd
-0.13148208 -0.09493833 -0.042304747 -0.040102545 -0.05860269 -0.18878089 -0.1979724 -0.21363422
-0.18005672 -0.020977924 -0.15355757 -0.18236518 -0.21079206 -0.100458995 -0.20842527 -0.081724554

model/conv1d_10/Conv1D f4 [16, 1, 1, 20]
00000000: 3f58 8c3e 4928 9f3c 4d6a af3d f22b d63e
00000010: 1eb4 c13d 6f65 283e bae6 20be 68df 4dbe
00000020: a262 38be ebff 13bd efbe 943e d214 9ebe
00000030: 22f1 cabd e39a 563d b1da ca3e fe67 46be
00000040: 5c7b ac3c 5f5f 44be d526 42be 1c8e 67be
00000050: d2be 7ebd e3c3 59bc 9fc7 ca3c 174b 5ebe
00000060: 8a89 90bd cc59 473d 2a68 bd3d ed5d c63d
00000070: 36cd 2b3f 5a5b 653d 6af5 533e 5c7d 553e
00000080: 617b f8bd 19db 803d b8df 03bd 591d bf3e
00000090: 21e2 c1be 7070 94be 907b 743d 721d 8cbd
000000a0: cc78 7abe 8972 943e 3fe3 453e 71ae c0be
000000b0: afe0 8e3e 9a16 a0be 9504 133e 6886 633e
000000c0: 50e6 34be a692 7ebe 275c 8c3e ef61 b5be
000000d0: 5d10 6dbe a689 f63e 74ad 4d3e e8a2 0fbe
000000e0: 025c a83e a4a1 cf3e 742c 77be 4224 ce3c
000000f0: bde2 97be 025a 5abe 46f1 263e 3364 873e
00000100: ba1f a43e 1c2a cbbe 86c6 d9bd 941e bd3d
00000110: a274 06bd b044 aa3e ebb0 b93e 3561 f7bd
00000120: 27fb 873b d289 643d 59be bb3e 2119 553e
00000130: 3b2b 213f 864d d5bd 4ae6 af3e cb7b 9abe
00000140: b922 66be ca24 943d a679 d7bd 4849 963d
00000150: fbb6 aebd 1c86 d33c c0bf 4cbe e70b 223c
00000160: b7d2 aebd abaf 813e 1547 b7be 7ab1 9f3e
00000170: 888c b73e 6026 bcbe 5b65 0a3f a56d aebb
00000180: f3ac 183e e269 e93e ac05 07be f22a a3bd
00000190: 9c14 7dbe 747e 823e 8d68 5e3e f6c6 8d3e
000001a0: 0cb6 d33e 1905 cbbb 798c 57be 5065 8d3e
000001b0: ef54 cd3e d3af 94be 2d43 c7be 6b72 333e
000001c0: 97d9 933e faef ff3d 936c 953e a65b 3c3e
000001d0: 1bfe 3abe f0e1 8f3d c7c8 4a3e 4be2 283e
000001e0: 1615 fabd 154f 1dbd 58bd cabd 0e7b 433d
000001f0: 8b66 d83b cca1 59be b0aa 973e 42e3 5c3e
00000200: 3b99 18be a370 e43d a0b3 af3c 29e8 88bd
00000210: e285 1fbd b7d9 a43d dbe7 593e d38a 5dbe
00000220: 4655 fd3d 5939 ca3d 3fe6 f43d 8ad1 dc3d
00000230: 74b2 833d c763 80be d22b 2e3e 0302 69be
00000240: 43c9 3c3c 7d51 97be 075c a93d 43a5 123d
00000250: d306 81be 4f49 cebe 4162 1c3e 0681 f6bd
00000260: 5a50 80bd 3a13 ffbb 859b e33e 9874 ac3c
00000270: d98d 5d3e c6a5 df3e d78e d63e a167 7b3c
00000280: f5ec 47be 249e 203d 5833 8ebe 4180 703d
00000290: f2a0 893d 7f36 46be 9d13 a43e fa26 4d3e
000002a0: 1088 1a3e 94a7 ca3d 6a4e b03d 135b a13d
000002b0: e1d5 ebbd f6a8 a53b df72 d53d c2cf 8abe
000002c0: a375 abbe 2678 3d3e 946b d23e da18 6b3e
000002d0: df87 7c3d 3b60 94bd 3bef d23d e738 8bbe
000002e0: 938d 463e 8ab5 233f 5188 413e 4741 2c3e
000002f0: 0c5e b53d 84d9 16be f3b7 06bc ca5a d9bd
00000300: cd3b c43d 143a 8cbe 66b5 343e a30f f33d
00000310: 27ae 4dbe b216 5e3e 68f6 973e b12a b33d
00000320: 9322 a9be 0e43 3c3e ef70 a6bb 7cab 78be
00000330: 4223 b63d 06b3 433e db79 923e b52c b63e
00000340: 51cc 22be bc05 453e cc66 71be efc8 993d
00000350: 8f76 64ba c6c8 1abc 744e 1b3e 05f3 74be
00000360: 99d4 433e b729 373e bc41 4ebe c4e7 953e
00000370: 8ed4 9b3e 1bea 933e b2bd 09bf 2721 5a3e
00000380: ba94 44be 75eb 12be 9ed6 b83d 2f00 003e
00000390: e690 a3be 13c9 76be d201 0fbe ed43 46bd
000003a0: 0085 91be e096 f13e c947 243f 1688 1f3d
000003b0: e461 6ebd 4315 34be 43a4 70bd 5e11 ec3e
000003c0: ec59 9e3e f875 a33e 1b7d 803e 00ff 593d
000003d0: c70b 833d 0635 b23d 0247 a73e b366 07be
000003e0: 5f2e 1f3c d74a a2be ed02 073e 2b9c 95be
000003f0: f17c 413e 5006 e83d 3730 41be 0b57 ab3d
0.27411076 0.01942839 0.08565197 0.41830403 0.09458183 0.16444944 -0.15713015 -0.20104754
-0.18006375 -0.036132734 0.2905192 -0.3087526 -0.09909274 0.052393805 0.39619973 -0.19375607
0.021054916 -0.19177006 -0.18960126 -0.22612804 -0.0621937 -0.013291332 0.02475339 -0.21708332
-0.070574835 0.04866962 0.09248383 0.09685884 0.6711 0.055995323 0.20699087 0.20848602
-0.12132908 0.062917896 -0.032195777 0.37327078 -0.37867835 -0.28992033 0.05968815 -0.06841554
-0.24460143 0.28993633 0.19324969 -0.37633088 0.27905795 -0.31267244 0.14357217 0.2221924
-0.17665982 -0.2486063 0.27414057 -0.3542628 -0.23150773 0.48151892 0.20085698 -0.14026988
0.32882696 0.4055301 -0.24138051 0.025163773 -0.29665175 -0.21323398 0.16302976 0.26443633
0.32055455 -0.39680564 -0.106335685 0.09234348 -0.032826073 0.3325553 0.3626779 -0.12079088
0.0041498127 0.0557955 0.3666866 0.20810367 0.6295659 -0.10415177 0.34355384 -0.30172572
-0.22474183 0.072335795 -0.105212495 0.07338196 -0.085309945 0.025820784 -0.19995022 0.009890533
-0.085362844 0.25329337 -0.3579642 0.3119009 0.35849404 -0.36748028 0.54060906 -0.0053231292
0.14909725 0.45588595 -0.13185757 -0.079671755 -0.24714893 0.254871 0.2171957 0.27690858
0.41349828 -0.006195676 -0.2104968 0.27616358 0.40103862 -0.29040393 -0.3891844 0.17524116
0.28876945 0.12496944 0.29184398 0.18394336 -0.18260996 0.07025516 0.19803153 0.16492574
-0.12211053 -0.038405497 -0.09899396 0.047724776 0.006604021 -0.21253127 0.29622412 0.21571067
-0.14902203 0.11154296 0.021447957 -0.06684906 -0.03894604 0.08049338 0.21279852 -0.21634988
0.1236978 0.098742194 0.119579785 0.10782154 0.064305216 -0.25076124 0.17008904 -0.22754674
0.011522594 -0.29554358 0.08269506 0.035802137 -0.2520052 -0.40290305 0.15271856 -0.12036328
-0.06265326 -0.0077842744 0.4445459 0.02105169 0.21636142 0.43681163 0.41905853 0.015344531
-0.19523986 0.039213315 -0.27773547 0.058716062 0.06720151 -0.19356726 0.32046214 0.200344
0.15090966 0.09895244 0.08608706 0.07878699 -0.115154035 0.005055542 0.104223005 -0.27111632
-0.33488187 0.18502864 0.410977 0.22958699 0.061653014 -0.07244917 0.10299536 -0.2719185
0.19389944 0.6394888 0.18899657 0.16821776 0.08855829 -0.14731413 -0.008222568 -0.1061302
0.095817186 -0.2738806 0.17647323 0.11868217 -0.20085965 0.21688345 0.2968018 0.08748377
-0.3303419 0.18384954 -0.0050793807 -0.24284166 0.08893444 0.19111261 0.28608593 0.35580984
-0.15898253 0.19240469 -0.2357437 0.07509028 -0.00087151764 -0.009447282 0.15166646 -0.2392083
0.19124068 0.17887007 -0.20142263 0.29278386 0.30435604 0.28889546 -0.5380508 0.21301709
-0.1919736 -0.14347632 0.0902531 0.1250007 -0.31946486 -0.24100141 -0.13965538 -0.048404623
-0.28421783 0.4718542 0.64172035 0.03894814 -0.058198825 -0.17586236 -0.058750402 0.46107
0.3092798 0.3192594 0.25095448 0.053221703 0.06398731 0.0870152 0.32671362 -0.1322277
0.009715646 -0.31697723 0.1318471 -0.2922071 0.18895318 0.11329329 -0.18866049 0.083662115

model/conv1d_11/Conv1D f4 [16, 1, 3, 20]
00000000: 40b2 ba3e 1799 e9bd 308d 8e3e 5fe8 dbba
00000010: f892 913e 246c b53c 9ff8 a0bb b7c3 2a3e
00000020: fbf6 973d 4811 973e 2d18 8a3d bf87 3c3e
00000030: 4c16 503e 826f 313e 5397 523e aaec 29be
00000040: d623 3f3e 5ff1 99bd c599 233e 0038 7c3e
00000050: f628 59be dfd5 1d3e 0954 4c3e 4eff 0a3f
00000060: 53c9 c0bd ad17 3c3e bd87 823d 7b30 883e
00000070: 61a5 88be d644 0ebe 70c2 22be 4c45 33be
00000080: 9873 113e c667 88bd bbf2 813e cdad ef3d
00000090: 9b6a c5bd d64d a6bc ca3d 9cbd 1d4a a1bd
000000a0: 1638 4fbe f46c 83bd ef63 a93d bf86 16be
000000b0: 208b 833d 7cdf 02bd 638f 75bd 4a9e a03d
000000c0: 1b84 6f3d e213 7b3e 31b1 4c3d 57ca 25be
000000d0: 1eb8 343e 6d95 9f3e 5595 a63c 7b2e 973e
000000e0: 9636 d93e 7a16 0d3e 08a1 1e3e e34f 913e
000000f0: 8a0b bb3d 8608 4c3e 0235 d93b 8eca 1bbe
00000100: 3046 433e 2256 28bb e554 a0bb 1201 6dbd
00000110: c906 52bd 3e5b 3c3e 6e55 1d3e 9b04 f339
00000120: 0e85 6cbe 076f 26be 523f 9f3e 7bdc 943e
00000130: c83b 043f 151e 393e c1ed a1be 0a5d f63d
00000140: 5832 073f 543c b93e 0388 593d d605 67be
00000150: 7645 bc3e 8267 18bd 4108 773d 8452 b6bc
00000160: 984c d93d ef3f 883e f3b1 4abd 8bb2 723e
00000170: 0e7f 553e f0c6 0bbe de88 a33e a283 963e
00000180: 7b05 513e eb25 10be 1de2 1c3e 6cdf 45bd
00000190: 577c 673e 226d 1bbd 7ede c4be 7c31 103e
000001a0: 9401 a13d 0d34 213e e743 853e 40b1 63be
000001b0: e567 3c3d b6d3 223e a3f3 fbbc 62ee a5bd
000001c0: 2692 fabd 4747 81be 3c25 8c3e e8bc 11bd
000001d0: 2b8e 213e f302 8b3d 2f85 a2bc 6526 a4bc
000001e0: 25d9 cf3b 1c38 b23d 1364 d1bc 0800 cdbd
000001f0: 1f22 6d3d 11a6 633e 8408 a43c 71f5 143e
00000200: 480f a33e ccbc c73e 38f7 8bbc 7b24 0abc
00000210: f465 0dbe 7ac1 db3d 8f4c 9c3d 1773 d63c
00000220: 74ef 9a3e 16e7 7d3e 5258 313e 0855 233e
00000230: 8c1d 533e 05d5 0bbe ff54 a63e 58da 8d3d
00000240: eed9 253c e38a 293e 60de 40bd 2f03 8ebd
00000250: 9880 59be f540 b43e ff28 8cbc b474 a93e
00000260: ed16 86bd 2587 2c3e bb67 bd3e a2ad c0bd
00000270: 922b db3e bf4a 2f3d 197e 093c cad0 a13e
00000280: 3102 193e a838 143e 3061 6f3e 2ce3 42be
00000290: 8ed4 fcbc 73b0 2a3e d690 40be 14ab 83bb
000002a0: 67b6 c53d 95b9 a73d 7153 073e ef9a 0fbe
000002b0: 450b 5fbd b4f0 c43e c959 25be a377 39be
000002c0: 693b 55be bb68 9a3e 8328 4f3e 6337 5d3e
000002d0: d2a1 17bd 8d96 013d 0171 4b3e 549f cf3e
000002e0: ab53 9a3e bab2 2cbd 40d3 1dbe e19c f73d
000002f0: dcb0 803e 3284 5abc b091 bebc 4c5f e5bb
00000300: a692 e5bd a9ae ac3d e0de eebc 6a8a 27be
00000310: f5f5 b6be 0d82 003e 1ad1 0fbe fd71 f3bd
00000320: cba0 763c 39f8 ab3e 53af 95bd 2bea 1d3e
00000330: 8565 b13e 4e9a b9bd 40cd ecbd 4cf6 ac3e
00000340: 68b1 fd3d 27e6 f63d 1ae7 f8bd 6297 c83e
00000350: bfff 1d3c 8442 50bd 82d5 b13e 912a 1b3e
00000360: 448f f73d 5d34 583e 9660 b33d e0ce b1bb
00000370: bc86 88be 8b55 103e 0b66 9e3d 04d6 973e
00000380: 8a54 433e c6f9 3abe a789 1cbe 1383 16be
00000390: 79d2 59be 4ad3 18be 4e57 2abe e85b 8f3d
000003a0: 4932 0fbe 3171 143e 5752 453e 7aba 5dbb
000003b0: f9cb c03d 43f9 12be 4d52 debd 3727 9b3d
000003c0: fb5e 463e 93a9 b43e 65df eb3e d952 7b3e
000003d0: 3ff5 6f3c f6d4 28be dc07 4abe 9d7a 283e
000003e0: 5b34 833d 0b63 b9bd f0f1 cdbd 575b a33d
000003f0: a979 90bd f6eb ab3d 75d0 003e 6090 d0bd
0.3646412 -0.11406153 0.27842093 -0.0016777626 0.2843244 0.022146292 -0.0049124504 0.16676222
0.07420155 0.29505372 0.067428924 0.18411158 0.20321006 0.17327693 0.20565538 -0.16594186
0.18666014 -0.07516741 0.15976627 0.24630737 -0.21207032 0.15413617 0.19953932 0.54295814
-0.094133995 0.18368407 0.06373546 0.26599488 -0.26688674 -0.13893446 -0.15894485 -0.17506903
0.14204252 -0.06660418 0.253805 0.11703072 -0.09639474 -0.020300787 -0.07628973 -0.07875464
-0.20236239 -0.064172655 0.08271014 -0.14699839 0.0642302 -0.031951413 -0.059951197 0.07842691
0.058475595 0.24519303 0.04997367 -0.16190468 0.1764836 0.3116869 0.020334879 0.2952765
0.42424458 0.13778105 0.15491116 0.2838126 0.0913306 0.19925126 0.0066286335 -0.15213987
0.19069743 -0.0025686105 -0.0048929327 -0.05786235 -0.051276002 0.18394181 0.1536462 0.00046352003
-0.23097631 -0.16253291 0.31102997 0.29074463 0.5165372 0.18077882 -0.31626704 0.120294645
0.52811193 0.3617884 0.053108227 -0.2256082 0.36771744 -0.037208088 0.060310606 -0.022256143
0.10610312 0.26611277 -0.04948611 0.23700921 0.20849249 -0.13650107 0.3194036 0.29397303
0.20412247 -0.14076965 0.1532063 -0.048308775 0.22606026 -0.037945874 -0.38450998 0.14081377
0.07861629 0.15742512 0.26028368 -0.22235584 0.04599752 0.15901074 -0.030755823 -0.081021085
-0.12234907 -0.25249693 0.27372158 -0.035580546 0.15776889 0.06787672 -0.019838898 -0.02003784
0.0063430243 0.08702108 -0.025560414 -0.100097716 0.05789387 0.22231318 0.020023592 0.14546753
0.31847596 0.39011228 -0.017085657 -0.008431549 -0.13808423 0.10730262 0.0763179 0.026177926
0.30260813 0.24795184 0.17318848 0.15950406 0.2061674 -0.13655479 0.32486722 0.069264114
0.010122759 0.16556887 -0.047087073 -0.06934201 -0.21240461 0.35205808 -0.017109392 0.3309685
-0.065473415 0.16848429 0.36993203 -0.09408118 0.4280668 0.042795893 0.00839188 0.31604606
0.14942242 0.14474738 0.23376918 -0.19031972 -0.030863073 0.16668873 -0.1880525 -0.004018197
0.09653931 0.08189694 0.13215424 -0.14023946 -0.054454107 0.38464892 -0.16147532 -0.18112044
-0.20823444 0.30158028 0.20230298 0.2160316 -0.03701956 0.031637717 0.19867326 0.40551245
0.3014196 -0.042162634 -0.15412617 0.12090469 0.25134933 -0.013337182 -0.023262829 -0.0069998857
-0.112096116 0.08431751 -0.02915901 -0.16361395 -0.35734525 0.1254961 -0.1404461 -0.11886976
0.0150529845 0.33587816 -0.07308831 0.15421359 0.34647766 -0.090626344 -0.11562586 0.3378166
0.12387353 0.12055617 -0.12153454 0.39177996 0.009643494 -0.050844684 0.34733206 0.15152957
0.120878726 0.21113725 0.08758657 -0.0054262727 -0.26665294 0.14095132 0.07734307 0.29655468
0.19075218 -0.18259344 -0.15286885 -0.14698438 -0.21271695 -0.1492435 -0.16634867 0.069999516
-0.13984026 0.14496304 0.19269691 -0.0033833073 0.09413905 -0.14352898 -0.108555414 0.07575839
0.1937217 0.35285625 0.46068874 0.24543323 0.014645874 -0.16487488 -0.1972956 0.16453023
0.064064704 -0.09052094 -0.100559115 0.07976406 -0.07054455 0.08394615 0.1257952 -0.10183787

model/conv1d_12/Conv1D f4 [16, 1, 5, 20]
00000000: acba 2a3d 77cd 62bd 4aeb 823e c696 003f
00000010: cc41 8abd ad2a a73d bc0c dabc 0ae0 a03d
00000020: 0530 8ebc 61f6 503d f6ac 193e 108d 0dbe
00000030: 1429 9cbc 9b75 403d 4485 1b3e 8a72 523d
00000040: 5646 773d c6b0 183e 9ad9 43bd 3791 aebc
00000050: f6fe 07bc f5cf 003f c197 39ba 7657 553d
00000060: fcda 313e ee43 b53d 5eec 65bd e6ea 443e
00000070: 331e c9bd 1d3a 063d 5f7a 8ebd 3ecb ab3e
00000080: 9013 8fbe f2c8 8fbd c6fa 143e e468 b9bd
00000090: 06f1 6e3c d5ad b2bd 03cb a73c 1e21 393c
000000a0: 10c7 a8bc 92fb 753d 9d19 67bd 0de9 82bd
000000b0: ff59 6b3e 1e7e 99bd bea3 0f3e 2eb7 35bd
000000c0: ac6a 9f3c f33e 2ebe 332e 28bc ec01 01bd
000000d0: 6f38 9d3d e233 f93d 9bb7 4b3e 52ce 25be
000000e0: dfef f5bd 15ce b0bd 5f38 07bc 27bc c9bb
000000f0: c358 c43d da58 743e feff 34be b9b9 8a3d
00000100: b833 8a3e b791 0e3d ade4 f33d 5552 823e
00000110: 25d6 1e3e b657 a3bd 3d2a 03bd a6ce 5d3e
00000120: 7d93 553e 5c33 103e b3d5 a63e 9076 173e
00000130: d42b 153c f409 133e 6f0f 183e 3d84 5f3d
00000140: ed05 5e3d d4dc 513e 6329 983c 9440 66bc
00000150: 0f1d e43d fa4b 783e b2fb 11bc 3e40 623e
00000160: e0be 39bc e1dc 2cbd bd17 343e 5d00 193d
00000170: fcc1 e2bc 9c84 8abc 0718 77bd 651a a3bd
00000180: 179c 34bd bf49 703d 3233 1b3d 5f72 2f3e
00000190: 7a5a fb3e 0e20 1e3b 86e7 03be e67d 02be
000001a0: ce2f 383d bba2 4ebc 8ed4 7ebe 5d3f 5b3e
000001b0: 3036 93bd eb25 20bd 5985 c9ba 415a 1abe
000001c0: 665b c13c 951f a43d 43e7 623e d34c 563e
000001d0: 1795 cc3c 8cd7 223e 3fd3 e33d e272 e63d
000001e0: 4b24 0c3e c63d dbbc 5818 8c3e f9c2 643e
000001f0: 96b6 ab3e 9f5d 963b 8816 87be 5b21 913e
00000200: bdf8 283d 7ddd 2b3e 5e1d 423e 271e f0bd
00000210: 03db 003e ab79 113e 0c72 4b3d b528 403a
00000220: a93a 543e 0024 c7bc 2806 a63d cab5 293e
00000230: 4c4c 4c3d d487 223e 3c36 39be 0745 adbd
00000240: 1e5b b33d d783 6abd 4905 be3d 6549 9dbc
00000250: 326b bfbd 7117 af3a bc11 ed3d 4f56 95bd
00000260: 0913 bcbc d8c4 eabd c502 0a3e 0935 31be
00000270: ece9 62be c6ae 173e 24ec 8fbd d904 ebbc
00000280: 9635 cdbb 91dc d23d e50f 153e b922 08be
00000290: 417c 1e3e c8b0 d53d 5b23 813d bdd3 f0bd
000002a0: db6c 073d 8b54 4b3e 83e9 e13b 95d5 c5bd
000002b0: 397a b6bd fc97 cbbd e5ad 12be dd25 2dbe
000002c0: 2283 3d3d 747b 473e 45b5 75bd 1a3d 423d
000002d0: d7d3 673e b395 533e 51d9 343d 637c 2b3e
000002e0: b183 1a3d a5ed e73c 3f7c 0ebe 2381 ab3e
000002f0: be56 983d 4b28 5a3e 96a3 c43c 424c 87bc
00000300: b9fe 2b3e 13f8 523e dffe 3e3e c2e7 463e
00000310: b596 993d 898a 943e 2d71 413e c4e9 f73b
00000320: 3251 9c3e dc25 48be b700 433e 525b 143b
00000330: c0e0 103e 8f96 a1be 0358 f13d 1443 d63d
00000340: a557 973d 0bf3 e7bc 51ca 7a3d 4038 e5be
00000350: 5fd0 e13d 1bd3 0fbd b283 f03d 40a9 9f3e
00000360: 19e2 b93e 5de1 793e 85d6 0bbd 23ff 9c3e
00000370: c7ef aa3e c9b5 503d 7978 b23e c776 db3d
00000380: e6fe 243e 139b 8cbd ffa2 3bbc 66ac b33d
00000390: eb23 6c3e f6da 48b8 92ac 95bd 8a80 09be
000003a0: cfda 15bd a796 8b3d 28e0 663e 6431 b1bc
000003b0: 7d3b 09be 84a3 6c3e 1ae6 dbbd 4f5d 603d
000003c0: 6f17 933e 93fa 5ebe 12df 79be 0bd9 f9bd
000003d0: 6c37 303e b207 78be 28b9 7cbe 19c4 c43e
000003e0: 5a26 34be 378c f93c b81c e6bd 01be 613c
000003f0: b256 cc3d 3e5e 313e 3eb5 31bd 405e af3a
0.04168193 -0.055371728 0.25570136 0.5023006 -0.06750831 0.08162437 -0.0266174 0.07855232
-0.017356882 0.051016215 0.15007386 -0.13823342 -0.019062556 0.046987157 0.15187556 0.051378764
0.060369812 0.14911184 -0.047814943 -0.021309478 -0.0083005335 0.5031732 -0.0007079803 0.052085362
0.17368692 0.08850847 -0.05613362 0.19230232 -0.09820213 0.032770265 -0.06956934 0.335535
-0.27944613 -0.07020749 0.14548787 -0.090532094 0.014583832 -0.08724562 0.020482546 0.0112994
-0.020602733 0.06005437 -0.05642091 -0.06392107 0.2298355 -0.07494758 0.14027306 -0.044364147
0.019460045 -0.170162 -0.010264921 -0.031495973 0.076767795 0.12168099 0.19894259 -0.16191986
-0.120086424 -0.08633057 -0.008253186 -0.0061564627 0.095872425 0.23862019 -0.17675778 0.06773705
0.26992583 0.034806933 0.11908851 0.2545344 0.15511377 -0.07975714 -0.032022703 0.21660861
0.20857044 0.14082092 0.32584915 0.14791322 0.009104688 0.14359266 0.14849637 0.05456947
0.05420487 0.20494395 0.018574422 -0.014053483 0.11138355 0.24247733 -0.0089101065 0.22094819
-0.011337012 -0.042202834 0.1758718 0.037353862 -0.02768039 -0.016908936 -0.06032565 -0.07964019
-0.04409417 0.05866408 0.03789062 0.17133473 0.49092466 0.0024127993 -0.12881288 -0.12743339
0.044967465 -0.01261204 -0.2488577 0.2141089 -0.0718807 -0.03909866 -0.0015374824 -0.15073492
0.023603152 0.08013836 0.22158532 0.20927744 0.024973435 0.15902537 0.11124276 0.11252381
0.1368572 -0.026762854 0.27362323 0.22340001 0.3353774 0.004588797 -0.26384377 0.2834576
0.04125284 0.1678371 0.18956515 -0.11724501 0.12583546 0.14206569 0.04966931 0.00073302846
0.20725502 -0.024309158 0.08106643 0.16573253 0.04987745 0.15872127 -0.18087095 -0.084604315
0.087576136 -0.05725464 0.09278352 -0.019200036 -0.09346618 0.0013358427 0.11575648 -0.07291853
-0.022958295 -0.11463326 0.13477619 -0.17305388 -0.22159547 0.14812765 -0.07027462 -0.028688835
-0.0062624915 0.10295976 0.14556845 -0.13294496 0.15477087 0.10434109 0.06305572 -0.11759136
0.033062797 0.1985647 0.006894292 -0.09659878 -0.08910031 -0.09941098 -0.14324148 -0.16908975
0.046267636 0.19480687 -0.059987325 0.047421552 0.22639404 0.20662574 0.04415256 0.16746669
0.037723247 0.02831156 -0.13914584 0.3349696 0.0743842 0.21304433 0.024003785 -0.016515855
0.16796388 0.20602445 0.18651913 0.19424346 0.07499448 0.29011944 0.1889083 0.007565709
0.30530697 -0.19545692 0.19043241 0.002263744 0.14148235 -0.3156018 0.11784365 0.10462013
0.07389764 -0.028314134 0.0612281 -0.44769478 0.11026072 -0.035113435 0.11743869 0.31183815
0.3630531 0.24402376 -0.03414013 0.30663404 0.3338606 0.050954614 0.34857538 0.10716014
0.16112861 -0.068655156 -0.0114524355 0.08773117 0.23060577 -4.788764e-05 -0.07308306 -0.1342794
-0.036585625 0.06815844 0.22546446 -0.021629997 -0.13401599 0.23109251 -0.10737248 0.054776486
0.28728816 -0.21775274 -0.24401501 -0.12199601 0.17208642 -0.24221686 -0.24680007 0.3843086
-0.17592755 0.030462367 -0.112359464 0.013778211 0.09977473 0.17321107 -0.043385737 0.0013379529

model/conv1d_13/Conv1D f4 [16, 1, 7, 20]
00000000: 569a d33d 82ff 14be daee 913e d7f9 f33d
00000010: e905 1dbd f1d0 87bc ec61 d9bd bb21 913e
00000020: 13f7 b3bc 823d 083c f10e 4dbe e64e 57be
00000030: e16f 57be 5560 2dbe 56b9 e03c e708 403e
00000040: 7d2f f93d 4bb8 cd3c 4157 66bd 0f7b febc
00000050: 3e64 2f3e f3d3 c23e ccd0 a2be f973 0bbe
00000060: 8cae 843d d51d a23d a41c 703e 79de 4ebd
00000070: 3a84 a53e 8512 00bd d145 2abe d1c8 3a3e
00000080: 1664 d9bd 524f 843e 92fa 313e 7450 8f3d
00000090: c305 4a3e 9681 253e 3d11 b93e 00c9 e1bd
000000a0: dd2d 223e 78b4 193e 0c3e 553e 1a11 05bd
000000b0: 1ff2 703d 42db 1f3e 87c2 17be 352a 743e
000000c0: 6822 773d 0310 c53d 9133 90bd d604 213e
000000d0: a712 a13c c445 9d3b 76b2 3e3e f038 b33d
000000e0: 08bb a5be 105a 7d3e 76b1 ff3d cbeb fbbd
000000f0: 09f6 5c3e 5b6b 7dbd fb8f 9abe cb81 c7ba
00000100: 183f 933d 510c f23d ad42 ec3d 10d0 6ebc
00000110: 370d 32be 45bc 2b3e e2c6 e13d 552c 8e3c
00000120: f3d1 893e 50b7 713e bd34 b03e 3fd5 0cbd
00000130: 5814 193e 62c3 923e 86bf 223e 5993 a03e
00000140: a4aa 5f3e b660 8d3e 5cc9 48bd 9f19 6a3e
00000150: fff6 1b3e 2f19 363e 959f ca3e 3f22 fbbd
00000160: d470 3d3e 080a 3bbd 9c96 603d 57be ae3e
00000170: ddfb 083e 337e 693e 2573 643e e434 46be
00000180: f291 9dbd d954 1c3e 9f4d 56bc 60b6 e93d
00000190: 5c2d fcbd f329 8fba 0622 25be 0bcd 29be
000001a0: 0bf2 2cbe 531f 36be df60 97bd 6f37 d6bc
000001b0: 192a 2dbc 97da 693d 467f 30bd e844 57bd
000001c0: eda6 9d3d eade 9f3d e7c8 663e 1406 febd
000001d0: db65 cbbd eac7 063c 18e2 eabd 72a3 f5bd
000001e0: 6002 883d f6b8 dabd 3337 7bbe dd9d 363e
000001f0: f27a eebd 6f4f 80bd 0ab6 d3bd 5c51 05be
00000200: e9b6 d0bc 757b e3bd c425 91bd bc57 0dbe
00000210: 7e0b 953d 59f0 1b3e e369 073e c63d 92bc
00000220: 583d 53bd 05e8 563d bd45 0cbe 1fd0 0fbe
00000230: bb9d c13d 2f34 2cbe d7f1 063d b486 173e
00000240: 2621 183e 617f 463e bb32 403e 499c 483d
00000250: 8e14 90bd fce7 fc3d 0c99 923e 9732 2cbe
00000260: 779f 9a3e f704 223d 68a7 8e3d 1620 0d3d
00000270: b356 2e3e d29e 59bd de43 00be 92ee 003e
00000280: 58a9 1a3e 3beb 84be f365 623e f7fe 1e3e
00000290: ac19 863e 70d9 efbc a749 a23d 7559 903d
000002a0: 46ea 0ebd e1e5 2a3e fb69 ca3d 29a7 5bbe
000002b0: af5d 533e 2c48 9cbc 7732 9c3d 63f0 acba
000002c0: d0cd 153e 315b 83bd cbb7 03bc c5d2 9f3e
000002d0: 91d2 48be 7e8b ca3e c609 b53d ebcb b5bd
000002e0: f22b ad3b 3a68 e13d 0704 b4bd 9b4c b23e
000002f0: a627 163d b4b7 67be 90fb 5ebe b326 6b3e
00000300: 9b08 37be deba 5ebe 0862 20bd c798 42be
00000310: 08f9 3abd 5509 d8bd c391 c43d 1787 97bd
00000320: 5e2b 233e b3b5 a6bc 8e3c e63d dcc6 15be
00000330: e5f2 ad3e 9fff 23bd bdf1 98bc 3b9b c23d
00000340: 7897 97bd 716d 67bd 7eb1 453e 904a 9bbc
00000350: 496f 2a3d c84b fcbc bed7 df3d 2e0a a93e
00000360: e7a6 ca3d fa36 983d 1c9f 94bd 7600 573d
00000370: ce85 313e ae55 8e3e ed65 203e bf4f 47be
00000380: 097a a83e aa3d 823e a96d 693e 0e62 57bd
00000390: 0f05 d43c 6894 a23c 7782 6b3d 4b2a 8e3e
000003a0: d3d6 133e 0644 c83d 9e03 183e 8fe7 373d
000003b0: 5c89 823d 43d0 28bc 58b5 d13d 0681 593e
000003c0: 16d4 19bc 7159 84bd a711 bb3e f4a2 a9bc
000003d0: fe99 203e b57d aebc b0fc f8bd c331 3e3e
000003e0: 174e 233d d066 a33e 7103 503e 1385 54bd
000003f0: 94b6 873e 5af1 573e 818e 2fbe b5f8 943d
0.103321716 -0.14550593 0.28502542 0.119128875 -0.038335714 -0.016579123 -0.1061438 0.28346047
-0.0219684 0.008315446 -0.20025231 -0.21026191 -0.21038772 -0.16931279 0.027432125 0.18753396
0.12167261 0.025112292 -0.056235556 -0.031064538 0.17128083 0.3805233 -0.31799924 -0.13618459
0.06478605 0.07915846 0.23448426 -0.050505135 0.32327443 -0.03126766 -0.16628195 0.18240668
-0.10614793 0.25841767 0.17380741 0.06997767 0.1972876 0.16162714 0.36145964 -0.11024666
0.15837808 0.1501025 0.2082445 -0.032487012 0.058824655 0.15610984 -0.148203 0.23844226
0.060335547 0.096221946 -0.070410855 0.15724501 0.019662214 0.0047995765 0.18622765 0.08751094
-0.32369256 0.24741387 0.1248502 -0.12300833 0.2157823 -0.06186996 -0.30187973 -0.0015221176
0.071897686 0.118187554 0.11536155 -0.014575973 -0.17387854 0.16771038 0.11024262 0.017355124
0.2691799 0.23605084 0.34415236 -0.034383055 0.14949167 0.2866469 0.15893373 0.31362417
0.21842438 0.27612847 -0.049020156 0.22861336 0.1523094 0.17783044 0.39574876 -0.12262391
0.18500072 -0.045663863 0.054831132 0.34129593 0.13377328 0.22802047 0.22309549 -0.19356114
-0.076938525 0.15266742 -0.01308003 0.114117384 -0.12313339 -0.0010922536 -0.1612626 -0.16582124
-0.16889207 -0.17785387 -0.073915236 -0.02614948 -0.010569119 0.05709323 -0.043090127 -0.05255595
0.07697854 0.07806189 0.22537576 -0.12403503 -0.09931537 0.008226374 -0.11468905 -0.11994065
0.06641078 -0.1067981 -0.24532776 0.17833658 -0.11644544 -0.06265151 -0.103374556 -0.13019317
-0.025477843 -0.11107532 -0.07087281 -0.13803 0.072775826 0.15228404 0.13223986 -0.017851721
-0.051572174 0.052467365 -0.13698478 -0.14044236 0.09453913 -0.16816781 0.03294548 0.14797479
0.14856395 0.19384529 0.18769352 0.04897717 -0.070351705 0.12348935 0.2863239 -0.16816173
0.30199787 0.039555516 0.06965524 0.034454428 0.1702526 -0.05312998 -0.1252589 0.12591007
0.15103662 -0.25960717 0.22109203 0.15526949 0.2619146 -0.029278487 0.07924204 0.070483126
-0.03489139 0.16689254 0.098834954 -0.21450485 0.20641206 -0.019077383 0.07626813 -0.00131942
0.14629292 -0.06413878 -0.008039425 0.31215492 -0.19611575 0.3955955 0.08839755 -0.08876785
0.0052847797 0.11006208 -0.08789831 0.3482407 0.036658905 -0.22628671 -0.21775651 0.22963981
-0.17874376 -0.21750972 -0.03915599 -0.19003592 -0.04564765 -0.10548655 0.09598114 -0.07398813
0.15934512 -0.020350313 0.11242019 -0.1462664 0.33974376 -0.0400387 -0.018669957 0.09502264
-0.07401937 -0.056500856 0.19305989 -0.018956453 0.041610036 -0.030797854 0.109298214 0.3301558
0.09895115 0.07432361 -0.0725691 0.052490674 0.17336199 0.27799743 0.15663882 -0.19464014
0.32905605 0.2543767 0.22795738 -0.052583747 0.025881318 0.019846156 0.057497468 0.27766642
0.14437418 0.097785994 0.1484513 0.044898566 0.063738555 -0.01030356 0.10239667 0.21240625
-0.009388944 -0.06462372 0.36536905 -0.020707585 0.15683743 -0.021300176 -0.12157571 0.1857367
0.039869394 0.31914377 0.20313813 -0.051884722 0.26506484 0.21088162 -0.17144205 0.072739996

model/conv1d_14/Conv1D f4 [16, 1, 9, 20]
00000000: bed5 4dbd 276d bfbd 6371 023e 13ab 603d
00000010: eb43 1f3e e2f0 03be 274a e8bd 3968 073c
00000020: 63e6 a4bd e60c 813e 0c08 94bc 11ef 803b
00000030: 231e 0e3e a450 473d aba7 133e 0180 9fbd
00000040: 159e d8bd 0f78 bebd d93c 00bd c234 883e
00000050: f314 a23c caa9 713e ff20 65bc ba9a 31bd
00000060: 7928 b8bd cdff 8a3e 22a0 d03c 0216 40bc
00000070: 5137 763d 0477 e93c 7fbe a43d b2ad 2b3e
00000080: 9d92 613e d89e 83be c6ad 913d d26a 5fbe
00000090: 6edd fd3c ebd8 2ebe bc54 d8bd 4a09 2f3e
000000a0: cc13 083e a9a2 283e bf82 8abd e777 993d
000000b0: 5387 483c 8e9a 083e 41c3 b83c 1ca1 1dbc
000000c0: dab6 bebb 8b9c 633c a20b 08bd 87f1 dd3d
000000d0: 26e1 26bd 1333 81bd 5716 f5bc 05f7 b03d
000000e0: d551 a03d 5a87 4e3d eeb7 a53c 5f4c c63d
000000f0: d0bc 95be 0c92 0d3a c858 1c3e b988 fc3d
00000100: 0f95 f23d 6dc9 48be a156 b83d b3d0 c53e
00000110: 6dc4 8d3e 3b9a e7bd 7026 1bbe 55f4 68be
00000120: bc00 04bd 5046 ce3d 68b2 53bd 09fd 54be
00000130: 916f 81be ebae 433e 93be 8d3d 8831 2abe
00000140: 177e 923d d637 843d d153 8d3c cdaf 613d
00000150: 2398 3a3c d14d c4bd b505 f0bd 0939 bf3e
00000160: 2196 913d 2689 9d3d 29ea 233e f08f 70be
00000170: ad7e 3c3e 8723 46bd 56f4 1f3e 2ad7 543e
00000180: 5adf 1b3d 5fc4 3f3e 9299 b03d 1b9d 7e3d
00000190: dece 44bd 710d cdbd 613a cc3d e349 fa3e
000001a0: 9116 4abd 4bea a73e c3d4 b33e 11c9 603b
000001b0: a747 5b3e 99ed 8a3d 85a2 f5bc c618 c03d
000001c0: fab3 473d 5ca8 993c 8b5e f33d d700 1abd
000001d0: bbd1 b33d c565 2e3d 5df6 363d d620 493c
000001e0: 81ec cfbd e427 a93e 44ce b13d 1148 023c
000001f0: d018 3a3e 2c8a db3d fddf 24be e393 223e
00000200: 10c1 f43d 350e a73d a7cb 16be 4821 9c3e
00000210: 1f17 62be ab18 9ebd 3859 283e 56bf f03d
00000220: 984e 4dbc aaf6 06bd 80cf fabc c9f5 24bc
00000230: 87e7 7dbc c344 543a baa1 e9bb 2002 8a3d
00000240: 8936 19bb 320a 18be ad32 e4bd 1e37 ff3d
00000250: cca2 153e 40c8 233c c863 09bd 066d 843d
00000260: 83ae 793d 8db1 ca3d 64d0 30bd 4234 dfbb
00000270: 02be 97bd 852a 483d 9e69 f6bd 8236 823d
00000280: 44ce aab9 b0f5 58bd 1959 d43d 1e7b 503e
00000290: a09a b83d 1e23 8cbc 233d 113e 597e d23d
000002a0: 9792 783d a2d0 d63d 4b52 1e3e ef5e 513d
000002b0: f470 0d3e 34df b73d 753a 783c 1ea9 143e
000002c0: bb0a 853c 3e81 423c 5016 5f3d ecd6 4b3d
000002d0: ffc4 1b3c d330 243e 1b97 bf3b 383b 823c
000002e0: 3dc9 803d 2106 193e 297d a23d c2e4 9abd
000002f0: dad0 1e3e ba86 7d3d 797f 593c 29e3 7a3d
00000300: 9365 b73d 5063 7f3e c23d 1e3e 0734 8cbd
00000310: de88 f53d 68ca 193e df2a 833e 1822 99bc
00000320: ca85 503d 551d 4f3e 2b3f 9d3d d503 1ebb
00000330: b490 3d3c c24c 013e a1f6 bd3d 9a26 a83e
00000340: a057 b63d bf2b 4a3d ade0 b63d 80a6 483e
00000350: c0d6 3dbe ada7 d7bd 471d 023c 0616 9abd
00000360: 2ded 6ebe c7cb 853c 1521 043e 5367 f6bd
00000370: 4bf1 1a3e 8737 e33d ca01 2a3b 60b5 3dbe
00000380: 0d82 933e f307 0d3e eaf5 47be 283b 88be
00000390: 014a b1bd e769 893e 921e 7e3e 629b 0ebd
000003a0: 470e c73d 7808 393d f75d a33e 32cc 5fbd
000003b0: e2e9 de3e 955f 153e d55b 4ebd 8da0 e23e
000003c0: 7ba6 983d f169 983e 98ed e6bd d326 513d
000003d0: 2760 4d3e e2a6 9a3e d2d5 b33e 9b11 37be
000003e0: 0c9b 483e b10d 283d 8c86 463e 98d0 d73e
000003f0: 2923 8b3d c664 9b3d 6a32 163e 8a58 32bd
-0.05025267 -0.09346991 0.12738566 0.05485065 0.15553252 -0.12884858 -0.113422684 0.008264595
-0.08051755 0.25205153 -0.018070243 0.003934749 0.13878684 0.04866089 0.14419429 -0.07788087
-0.10577027 -0.09300243 -0.03130803 0.2660275 0.01978538 0.23599926 -0.013984918 -0.04336045
-0.089920945 0.27148286 0.025466982 -0.011723997 0.060111348 0.028499134 0.08044147 0.16765478
0.22028585 -0.25707126 0.07113223 -0.21818092 0.030989375 -0.17074935 -0.10563037 0.17093387
0.13288802 0.164683 -0.06763219 0.07493573 0.012239295 0.13340208 0.022554042 -0.009620931
-0.0058201374 0.013892303 -0.03321422 0.10837083 -0.040742062 -0.0630857 -0.029917879 0.08640865
0.07828108 0.05042205 0.020229306 0.096825354 -0.29245615 0.0005400486 0.15268242 0.12330765
0.11844837 -0.19608088 0.09000898 0.38635787 0.27688923 -0.11308714 -0.15151381 -0.22749455
-0.032227263 0.10072005 -0.051683813 -0.2079965 -0.2528043 0.19109695 0.06921115 -0.16620457
0.07152956 0.06455962 0.01725188 0.055099297 0.011388811 -0.09585155 -0.117198385 0.37348202
0.07108713 0.076921746 0.16007294 -0.23492408 0.18407698 -0.048373725 0.1562055 0.20785204
0.0380548 0.18727253 0.08623041 0.062161546 -0.048048846 -0.10012329 0.099720724 0.48884496
-0.049337927 0.3279594 0.35123262 0.0034299532 0.21414052 0.067835994 -0.029984722 0.09379725
0.048755623 0.018757038 0.11883267 -0.037598457 0.08780237 0.042577524 0.044668544 0.012275895
-0.101525314 0.33038247 0.0868192 0.007951752 0.18173528 0.107197136 -0.1610107 0.15876727
0.11950886 0.08157007 -0.14726125 0.30494142 -0.22079132 -0.07719549 0.16440284 0.117552444
-0.012530945 -0.03295008 -0.030616522 -0.010068365 -0.015497095 0.00080974045 -0.007129875 0.067386866
-0.0023378453 -0.14847639 -0.11142478 0.12461685 0.14612883 0.009996474 -0.033542424 0.06466107
0.060957443 0.098971464 -0.043167487 -0.0068116495 -0.07409288 0.048868675 -0.12031864 0.06358053
-0.00032578607 -0.05296868 0.103685565 0.20359465 0.090138674 -0.017106589 0.14183478 0.10278005
0.060686674 0.10489012 0.1546108 0.051115926 0.1381262 0.089781195 0.015150656 0.14517638
0.016240468 0.011871634 0.05446464 0.049765512 0.009507417 0.1603425 0.0058468706 0.015897378
0.06288383 0.14943744 0.07934029 -0.07563163 0.15509358 0.061896063 0.013275021 0.061251793
0.089549206 0.24940228 0.15453246 -0.06845861 0.11988996 0.15018618 0.25618646 -0.018693015
0.05090884 0.20226033 0.07678064 -0.002411117 0.011570144 0.12626937 0.09275556 0.3284195
0.08903432 0.049358126 0.08929572 0.19594765 -0.18538952 -0.105300285 0.007941551 -0.07523732
-0.23332663 0.01633252 0.12903245 -0.12031426 0.15131108 0.110945754 0.0025941008 -0.1852622
0.28810158 0.13772564 -0.19527403 -0.26607633 -0.08656693 0.2683861 0.24816349 -0.034816153
0.0971952 0.045174092 0.31907627 -0.054638095 0.43537813 0.14587243 -0.050380547 0.44263116
0.07453629 0.29768327 -0.11275786 0.051062416 0.2005621 0.30205446 0.3512407 -0.1787781
0.19590396 0.041028682 0.19387263 0.42151332 0.06793816 0.075875804 0.14667669 -0.04354147
