results/fold_2/checkpoint/my_netTCR_model_fold_2.tflite (tflite, 406736 bytes, 73 tensors)

model/conv1d_10/BiasAdd/ReadVariableOp f4 [16]
000000 bc 10 37 be 3c 66 91 be 2a 70 9e bd 61 10 95 bd
       -0.17877477 -0.2839831 -0.07736237 -0.07278515
000010 b5 7b 69 bc 09 82 5d bd 3e aa cf bd 46 4c 18 be
       -0.014250685 -0.05407909 -0.10139893 -0.14872846
000020 6a 52 72 be 14 21 5d be df 9c 2c bc c0 ec d1 bd
       -0.23664251 -0.2159465 -0.010535448 -0.102502346
000030 d6 bb fb bd e0 bf b2 be c9 71 02 be 80 57 c2 bd
       -0.12291686 -0.34912014 -0.12738718 -0.094893456

model/conv1d_11/BiasAdd/ReadVariableOp f4 [16]
000000 ed 9f 47 be 6f d5 4e be b3 a3 88 be 7a be b1 be
       -0.194946 -0.20198606 -0.26687393 -0.34715635
000010 39 77 26 be fe 03 9d be 43 17 46 be ff 22 98 be
       -0.16256417 -0.30667108 -0.19344811 -0.297142
000020 40 40 05 be 00 55 69 bd 31 cb 1a be b7 7a 22 be
       -0.1301279 -0.056965828 -0.15116574 -0.15867124
000030 66 cf 56 bd 79 4b 2d be bb 12 28 be 93 7c 22 be
       -0.052443884 -0.16923322 -0.16413395 -0.15867834

model/conv1d_12/BiasAdd/ReadVariableOp f4 [16]
000000 20 47 0e be 9e 01 a6 bd 9b a2 92 bd 2b 3a f3 bd
       -0.1389432 -0.08105777 -0.07159921 -0.11876329
000010 6b 42 6a be e5 2d 64 be 3e 60 4a be 87 c9 01 be
       -0.22876899 -0.22283132 -0.19763276 -0.12674533
000020 7a c5 85 be 9c a4 2e be c8 64 2e be f9 fd 20 be
       -0.26127225 -0.17054981 -0.17030632 -0.15721883
000030 8a c5 65 bd 95 6d fe bd 08 b6 04 be a0 a1 5c be
       -0.05609659 -0.12423245 -0.12960064 -0.2154603

model/conv1d_13/BiasAdd/ReadVariableOp f4 [16]
000000 1a 9d bd bc cc bb 97 be 57 c8 b9 bd 6e 66 2d be
       -0.0231462 -0.29635465 -0.09071415 -0.16933605
000010 10 dc 39 be a4 56 0d be d6 c6 5a be 0c e8 cd bd
       -0.18150353 -0.13802582 -0.21364912 -0.10054025
000020 b5 78 0e bd 49 65 de bd e0 58 4a be 1f e0 42 be
       -0.034783084 -0.10859162 -0.19760466 -0.19030808
000030 c4 0e 6b be 9a 81 45 be e2 4a 2c be 87 1b f9 bc
       -0.22954851 -0.1928772 -0.1682544 -0.030408634

model/conv1d_14/BiasAdd/ReadVariableOp f4 [16]
000000 b5 77 14 be a7 a3 6a bd 3d b0 1a be 21 51 54 be
       -0.1449879 -0.057284977 -0.15106292 -0.20734073
000010 99 42 34 be 9e c5 f6 bd 5c 59 46 be 64 36 72 be
       -0.1760353 -0.12049411 -0.19370025 -0.23653561
000020 8b 53 1d bd 73 f4 b3 bd ea c7 65 be b0 78 dd bd
       -0.03840975 -0.08786859 -0.22439542 -0.10814035
000030 88 fe 1f be 44 84 4f bd 75 54 19 be fe 51 8c bd
       -0.1562444 -0.050663248 -0.14973624 -0.06851576

model/conv1d_15/BiasAdd/ReadVariableOp f4 [16]
000000 91 46 45 be 4d 80 75 be 91 f3 63 be 00 c7 54 be
       -0.192652 -0.23974724 -0.22260882 -0.20779037
000010 0d 23 72 be fb 61 38 be d2 11 79 be 94 6c 2c be
       -0.23646183 -0.18006127 -0.24323204 -0.16838294
000020 dd d5 7f be f5 3b 83 be 67 a6 4a bc df c4 7d be
       -0.24983926 -0.2563168 -0.012368775 -0.24782132
000030 51 12 80 be 48 84 02 be 2a db 4b be d4 05 15 be
       -0.25013974 -0.12745774 -0.19907823 -0.14553005

model/conv1d_16/BiasAdd/ReadVariableOp f4 [16]
000000 b9 32 dc bd f7 c7 db bd b3 5e 94 be a9 2c 81 be
       -0.10751862 -0.107315 -0.289785 -0.25229385
000010 02 53 34 be cb cc 3d be 1c c6 73 be a9 fe 5f be
       -0.1760979 -0.18535154 -0.23806041 -0.21874489
000020 0a 80 60 be 25 e7 7f be a4 e8 29 be 22 b9 66 be
       -0.21923843 -0.24990518 -0.16592652 -0.2253156
000030 35 27 92 be 5b 84 b8 bd c7 42 32 be 0f ca 3b be
       -0.28545538 -0.0900962 -0.17408286 -0.18338798

model/conv1d_17/BiasAdd/ReadVariableOp f4 [16]
000000 58 34 98 be 66 e8 a8 be 07 fa 87 be 2f 63 6b be
       -0.29727435 -0.32989806 -0.26557943 -0.22987054
000010 9d 50 f5 bd a8 74 4f be ea 82 09 be d9 9e 69 be
       -0.119782664 -0.20259345 -0.13428846 -0.22814502
000020 3c b6 50 be 2f 9a 3f be d7 90 68 be 7b b5 8a be
       -0.20382017 -0.1871116 -0.22711502 -0.27091584
000030 65 09 0f be 64 02 5b be ee 4c 34 be 66 14 2c be
       -0.13968427 -0.2138763 -0.17607471 -0.16804656

model/conv1d_18/BiasAdd/ReadVariableOp f4 [16]
000000 a0 46 bc bd 8f 42 91 be f6 08 4b be 5a 3a f2 bd
       -0.09193158 -0.28371093 -0.19827637 -0.11827536
000010 af fd 11 be 56 5e 9b be 14 cc d7 bd 0e 7a 0a be
       -0.14256929 -0.3034541 -0.10536972 -0.13523123
000020 3b 5d 81 be 4f b8 90 be 45 ac 2c be 8d b7 1e be
       -0.25266442 -0.28265616 -0.1686259 -0.15499707
000030 61 0c 0d be 98 e8 4f be 50 d2 3f be 7e 2b 35 be
       -0.13774253 -0.20303571 -0.18732572 -0.17692372

model/conv1d_19/BiasAdd/ReadVariableOp f4 [16]
000000 01 55 88 be f0 bf 37 be 96 fa de bc b6 20 e1 bd
       -0.26627353 -0.17944312 -0.027219098 -0.10992567
000010 4f 94 94 be ed 44 d7 bd d8 f1 84 be 35 93 45 be
       -0.290194 -0.105111934 -0.25965762 -0.19294436
000020 66 cf 83 be 2b d5 54 be 04 93 37 be 8f 98 0b be
       -0.2574417 -0.20784442 -0.17927176 -0.13632415
000030 03 ca 74 be 54 7f 41 be 58 9b 48 be f2 7b 11 be
       -0.23905186 -0.18896228 -0.19590509 -0.14207438

model/conv1d_20/BiasAdd/ReadVariableOp f4 [16]
000000 88 3c d6 bd ad 86 ce bd 35 a2 0e be 60 bf 8d be
       -0.10460764 -0.10084281 -0.13929065 -0.2768507
000010 26 9a 29 be a6 60 11 be e1 43 f2 bd 08 f9 54 be
       -0.16562709 -0.14197025 -0.11829353 -0.20798123
000020 13 8d 20 be 13 ab 96 3c 67 c3 30 be 87 0b 93 bd
       -0.15678816 0.018392121 -0.1726204 -0.07179933
000030 31 25 dd bd af 57 41 bd 18 f9 4f bd 1e 92 e6 bd
       -0.10798109 -0.047202762 -0.050774664 -0.112583384

model/conv1d_21/BiasAdd/ReadVariableOp f4 [16]
000000 72 5c 41 be c5 4e 58 be df 08 e6 bd 70 e2 d4 bd
       -0.18882921 -0.21123798 -0.11232161 -0.10394752
000010 86 af 82 bc 65 45 5c be 1f 05 be bd 86 09 9c bd
       -0.015952837 -0.21510847 -0.092783205 -0.07619004
000020 0e cb 26 be 76 32 92 bd 25 28 05 be 97 b5 43 bd
       -0.16288397 -0.07138531 -0.13003595 -0.0477806
000030 fc 1a 37 be bb 72 67 be a8 92 80 be 9a ec 0d be
       -0.17881387 -0.2260236 -0.2511189 -0.13859788

model/conv1d_22/BiasAdd/ReadVariableOp f4 [16]
000000 a1 14 7f bd 80 19 8d be 77 1c 72 be 2d 86 74 be
       -0.062275533 -0.27558517 -0.23643671 -0.23879309
000010 bb 70 48 be d7 4b 07 be a6 8c 3d be be 5f 26 be
       -0.19574253 -0.13212524 -0.18510684 -0.1624746
000020 9c cb 0e be aa 60 3a be 6c 4d 1b be d5 7b df bd
       -0.13944858 -0.18200937 -0.15166253 -0.10912291
000030 58 ff 2c be 27 29 f8 bb 14 d0 e3 bd 48 d8 18 be
       -0.16894281 -0.007573265 -0.11123672 -0.14926255

model/conv1d_23/BiasAdd/ReadVariableOp f4 [16]
000000 8a 56 06 be a0 88 b0 bd c8 66 4f bd dc c4 58 bd
       -0.1311895 -0.08619809 -0.05063513 -0.052922115
000010 b5 8f b7 bd 8a f5 21 be c3 13 2b be 04 b1 bd bd
       -0.08962957 -0.15816322 -0.16706757 -0.09262279
000020 15 93 a2 bd 98 44 e6 bd f5 34 3a be f0 a3 75 bd
       -0.0793821 -0.11243552 -0.18184264 -0.059970796
000030 02 37 47 bd 7c 13 c6 bd 8d 91 3a be 3e 81 01 bd
       -0.048636444 -0.09671685 -0.18219586 -0.031617396

model/conv1d_24/BiasAdd/ReadVariableOp f4 [16]
000000 ff 52 0f be 29 19 e9 bd 10 fc 94 bd 1f ff d6 bd
       -0.13996504 -0.11381752 -0.072746396 -0.10497879
000010 d1 bb cb bd 84 4f e4 bd c9 34 fb bd 55 d8 cc bd
       -0.099479325 -0.11147979 -0.12265927 -0.100021996
000020 54 46 26 be 67 72 fb bd 24 9c da bd 2b 60 b7 bd
       -0.16237766 -0.1227768 -0.10674313 -0.089538895
000030 63 44 33 be e0 4e 24 be e5 22 50 bd b8 79 0c be
       -0.17506556 -0.16045713 -0.050814528 -0.13718307

model/conv1d_25/BiasAdd/ReadVariableOp f4 [16]
000000 05 e9 fb bd 60 8a 32 be d4 62 6a be 74 18 29 be
       -0.12300304 -0.17435598 -0.22889262 -0.16513234
000010 74 ea c0 bd 02 0b c5 bd 4c 13 20 be 95 44 a4 bd
       -0.094197184 -0.0962124 -0.15632361 -0.080208935
000020 e9 be 62 be 95 98 5c bd 8d 7e 51 be bf 2f 2e be
       -0.22143139 -0.05385645 -0.20458432 -0.17010401
000030 aa 56 3a be af 95 e7 bd bb 94 1a be 9c 45 2b be
       -0.18197122 -0.11307847 -0.15095799 -0.16725773

model/conv1d_26/BiasAdd/ReadVariableOp f4 [16]
000000 2a a5 e9 bd fa 8c 28 be 4b d4 24 be 9a 8e 77 be
       -0.11408456 -0.16460028 -0.16096608 -0.24175492
000010 fa 56 3a be 0d 5c 11 be b1 30 59 be 43 fd b7 be
       -0.18197241 -0.14195271 -0.2120998 -0.3593541
000020 b9 f7 29 be d3 47 e2 bd 76 bd 2a be ed b7 5c be
       -0.16598405 -0.11048856 -0.16673836 -0.21554537
000030 94 1c 61 be be 31 d6 bd 3d ef 3d be d0 fe 57 be
       -0.21983558 -0.10458706 -0.18548293 -0.21093297

model/conv1d_27/BiasAdd/ReadVariableOp f4 [16]
000000 0c d9 0a be b8 aa 8b be de fe 02 be 3e 65 aa be
       -0.1355936 -0.27278686 -0.12792537 -0.33280367
000010 1e 97 39 be 79 e7 23 be 4c 2f 72 be 45 ad dc bd
       -0.18124053 -0.16006269 -0.23650855 -0.10775236
000020 a6 70 09 be bb 5c 5f be ff 41 6b be bb 71 1f be
       -0.13421878 -0.21812718 -0.22974394 -0.15570728
000030 0f 02 50 be a1 68 84 be df 2c 05 be 57 63 4e be
       -0.20313285 -0.25861076 -0.13005398 -0.20155083

model/conv1d_28/BiasAdd/ReadVariableOp f4 [16]
000000 f0 2e 10 be 2e b3 ce bd c6 93 7f be 02 9f 5a be
       -0.14080405 -0.100927696 -0.24958715 -0.21349719
000010 81 f8 3c be d6 94 32 be e1 d8 37 be 6f cc 42 be
       -0.18454172 -0.17439589 -0.17953826 -0.19023298
000020 07 b7 31 be e4 09 57 be d1 2a 8c bd bb d3 57 be
       -0.17354976 -0.20999867 -0.06844104 -0.21076863
000030 e2 92 56 be 5b d5 4b be 19 79 5b be d8 80 ba bc
       -0.20954469 -0.19905607 -0.21432914 -0.022766516

model/conv1d_29/BiasAdd/ReadVariableOp f4 [16]
000000 0c 87 1f be 4c f0 79 be 1f c9 3c be 72 58 42 be
       -0.1557886 -0.24408072 -0.18436097 -0.18979052
000010 96 ef 2e bd fb ce 31 be d1 08 27 be 5e 41 3c be
       -0.042708956 -0.17364113 -0.16311957 -0.1838431
000020 92 86 ab bd 5b 02 4b be 61 54 6b be c7 0e 06 be
       -0.083752766 -0.19825117 -0.22981407 -0.13091575
000030 a6 fa 46 be d6 5d 35 be b2 14 ff bd f4 35 2c be
       -0.19431552 -0.17711577 -0.12455119 -0.16817456

model/conv1d_30/BiasAdd/ReadVariableOp f4 [16]
000000 17 e9 63 be 66 89 69 be c0 f5 b1 be 17 6c 4b be
       -0.22256885 -0.2280632 -0.34757805 -0.19865452
000010 ba bb 3e be de 84 62 bd 06 a9 7d bd 6b 07 68 be
       -0.186263 -0.055302493 -0.06192877 -0.2265908
000020 46 c2 41 be 32 ea 9a bd 13 c0 4a be 6b c2 8c be
       -0.18921766 -0.075642005 -0.19799833 -0.2749208
000030 6c 54 25 be bc 71 ab bd 00 00 00 00 67 6f 05 bd
       -0.16145486 -0.083713025 0.0 -0.032576945

model/conv1d_31/BiasAdd/ReadVariableOp f4 [16]
000000 57 87 86 be 98 51 22 be 8e 0e 8f bd d8 5d 68 be
       -0.2627513 -0.15851438 -0.06985198 -0.22692049
000010 33 9c b2 bd 63 d5 f1 bd 46 ca 6a be 11 22 12 be
       -0.08721199 -0.118082784 -0.22928724 -0.14270808
000020 f3 68 3a be 46 d7 df bd f6 18 69 be 5c 79 2c be
       -0.18204097 -0.10929732 -0.22763428 -0.1684317
000030 9e e1 8d be 23 63 88 be c5 ba 66 be 96 38 2a be
       -0.27711195 -0.26638135 -0.22532184 -0.16623148

model/conv1d_32/BiasAdd/ReadVariableOp f4 [16]
000000 c7 6f 40 be ff 4b e3 bd 6a 97 c2 bd 0f 5e 4f be
       -0.1879264 -0.110984795 -0.09501536 -0.20250724
000010 78 80 1b be 2d 8d 7e be dc 1c a1 bd 5f 8a b6 bd
       -0.15185726 -0.24858542 -0.078668326 -0.08913111
000020 51 73 b6 be 10 aa d7 bd 54 8e 44 be e0 c6 49 be
       -0.35634854 -0.10530484 -0.19194919 -0.19704771
000030 1f 1a 9d be 04 d0 3f be c8 e1 1e be 0c 41 46 be
       -0.3068399 -0.18731695 -0.15515816 -0.19360751

model/conv1d_33/BiasAdd/ReadVariableOp f4 [16]
000000 ee 09 45 be c4 d9 66 be 30 8e 93 be 49 77 1a be
       -0.19242069 -0.22544008 -0.28819418 -0.15084566
000010 34 09 64 be 78 77 3b be 1e 49 61 be 4a 5a 2a be
       -0.22269136 -0.18307292 -0.22000548 -0.16636005
000020 c1 67 41 be c3 e2 9e be 6c ca 7b be 0b a2 1e be
       -0.18887235 -0.3103238 -0.24588937 -0.15491502
000030 f2 2b 05 be ba f3 56 be 92 8b 3e be 7c 77 50 be
       -0.13005045 -0.20991412 -0.1860793 -0.2035808

model/conv1d_34/BiasAdd/ReadVariableOp f4 [16]
000000 fa 69 3c be b2 0b 25 be bb d7 4e be 1f 31 7c bd
       -0.18399802 -0.16117743 -0.20199482 -0.061570283
000010 69 4b f5 bc 72 3c 67 be 1e dd 10 be 87 a2 8c be
       -0.029943185 -0.22581652 -0.1414685 -0.2746775
000020 76 d6 89 be 36 6c 99 be 6b 83 1b be 54 3b 16 be
       -0.26921433 -0.2996537 -0.1518685 -0.1467107
000030 81 48 ff bd 83 fd be bd 1c 51 60 be e1 0f 31 be
       -0.12465001 -0.09325697 -0.21905941 -0.17291214

model/conv1d_5/BiasAdd/ReadVariableOp f4 [16]
000000 26 7e 0e be b9 53 ae bc 73 e6 2d be 33 9b e1 3c
       -0.1391531 -0.021280156 -0.1698244 0.027539825
000010 a6 c1 3a bd b3 30 c7 bd 21 34 8c bc 7c f2 17 be
       -0.045594834 -0.097260855 -0.0171147 -0.14838594
000020 35 25 2f be 8c d2 35 be 8a f8 aa bd c1 c7 cf bd
       -0.17104037 -0.17756099 -0.08348186 -0.10145522
000030 e7 78 11 be fb 3b 92 be be e7 77 be 7f 88 9f bd
       -0.14206277 -0.28561386 -0.24209496 -0.077897064

model/conv1d_6/BiasAdd/ReadVariableOp f4 [16]
000000 16 8c 62 be 67 fe 7b be 0f 43 25 be 56 d8 90 be
       -0.22123751 -0.24608766 -0.16138862 -0.2829005
000010 fe 5f ac bd ba 05 f9 bd 89 64 7d be 59 bc f6 bd
       -0.084167466 -0.121592954 -0.24745382 -0.12047643
000020 5a 30 1f be 77 80 8c be 80 63 47 be 57 f9 aa bd
       -0.15545788 -0.2744176 -0.1947155 -0.08348339
000030 73 09 62 be 22 f8 98 bd 7e 6b 8e be db 83 25 bd
       -0.22073917 -0.074692026 -0.27816385 -0.04040895

model/conv1d_7/BiasAdd/ReadVariableOp f4 [16]
000000 f1 27 58 be a4 c1 44 be b9 41 06 be 20 f1 34 be
       -0.21108986 -0.19214493 -0.13111009 -0.17670107
000010 ea c0 6e be 51 9a 0d be 04 80 74 be ac 0e c2 bd
       -0.23315778 -0.13828398 -0.23876959 -0.09475455
000020 45 70 02 be 12 62 b0 bd 7f 1d 20 be 7c e3 26 be
       -0.1273814 -0.086124554 -0.15636252 -0.16297716
000030 86 66 23 be 37 53 51 be a3 28 6a bd 04 d2 4c be
       -0.15957078 -0.204419 -0.05716766 -0.2000199

model/conv1d_8/BiasAdd/ReadVariableOp f4 [16]
000000 83 82 2f be 4f 45 40 be 08 35 14 be c1 b2 13 bd
       -0.1713963 -0.18776439 -0.14473355 -0.036059145
000010 86 11 4c be bb f2 aa bd 8d 9f 57 be ee 10 29 be
       -0.1992856 -0.083470784 -0.21056958 -0.16510364
000020 97 93 85 be 67 ca d3 bd 2a b9 21 be 14 8a 45 be
       -0.26089165 -0.103413396 -0.1579329 -0.19290954
000030 fe 6d ea bd b8 27 f1 3c a1 12 4c be 09 66 ae bd
       -0.114467606 0.029437885 -0.19928981 -0.085155554

model/conv1d_9/BiasAdd/ReadVariableOp f4 [16]
000000 8b 0b 3f bd 57 a9 63 be 27 bf 37 be 82 db 4e bd
       -0.046641868 -0.22232567 -0.17944013 -0.050502308
000010 8c 73 1e be 8e 7f a2 be 4d 81 89 be f7 74 0c be
       -0.15473765 -0.31737942 -0.2685646 -0.13716494
000020 db e2 47 be 0d a8 89 bd 97 7e 19 be 4d 5f 42 be
       -0.19520132 -0.06721506 -0.14989696 -0.18981667
000030 59 51 6a be e1 dc 4b bd 06 d1 59 be a5 d2 42 be
       -0.22882594 -0.049771193 -0.21271142 -0.19025667

model/conv1d/BiasAdd/ReadVariableOp f4 [16]
000000 49 8a 3c be c1 83 08 bd dd 3b 5e be 99 04 67 bd
       -0.18412127 -0.033328775 -0.21702524 -0.05640087
000010 99 a5 d1 bd f2 4e c7 bd 1a 74 15 be a3 eb 43 be
       -0.10236663 -0.097318545 -0.1459507 -0.19132857
000020 6a d6 85 be 05 c3 da bc d1 f9 28 be f2 c2 1e be
       -0.26140147 -0.02670432 -0.16501547 -0.15504053
000030 3e 44 1f be 85 49 36 be ce 8a a2 be 94 3a a2 be
       -0.15553376 -0.17801483 -0.31746525 -0.31685317

model/conv1d_1/BiasAdd/ReadVariableOp f4 [16]
000000 01 2e 6b 3d 6d 16 4f be 68 dc 28 be 09 be 60 be
       0.05741692 -0.20223399 -0.16490328 -0.21947493
000010 b4 d6 24 be ea b1 43 be 1b 1e 8f be 3f 2f 68 be
       -0.16097528 -0.19110838 -0.27952656 -0.22674273
000020 91 9d 94 be 99 62 60 be 3d e0 2e be ef 2f 7b be
       -0.29026464 -0.21912612 -0.17077728 -0.24530004
000030 39 8b c1 be a6 39 89 be d8 8b 0a be db 1d 35 be
       -0.3780153 -0.26801795 -0.13529909 -0.1768717

model/conv1d_2/BiasAdd/ReadVariableOp f4 [16]
000000 ed bd a7 be 38 f8 01 bd 11 75 9a be 9b e8 08 be
       -0.3276209 -0.03173086 -0.3016744 -0.13369982
000010 75 e8 87 be c2 33 58 be 37 1a 41 be be ff 6f be
       -0.26544538 -0.21113494 -0.18857656 -0.23437402
000020 62 3c d8 be 42 3a 65 be d7 14 b3 be 2b 80 8f be
       -0.42233568 -0.22385505 -0.34976837 -0.28027472
000030 90 cd 8f be 3a 44 9a be f0 99 5a bd fd 1b 94 be
       -0.2808652 -0.30130178 -0.053369462 -0.28927603

model/conv1d_3/BiasAdd/ReadVariableOp f4 [16]
000000 0b ed 45 bd 22 8b 11 be 5d df 0f be 86 f4 e7 bd
       -0.048321765 -0.14213231 -0.1405005 -0.11325936
000010 9b 22 3c be 99 ba 8c be 90 38 c0 bc 8f 20 13 be
       -0.18372576 -0.27486113 -0.023464471 -0.14367889
000020 02 ff 6c be de 82 51 be 36 0a eb be 12 83 8e be
       -0.23144153 -0.20460078 -0.45906228 -0.27834374
000030 77 6c 71 be 1b 97 68 be 21 49 64 be e1 a6 87 be
       -0.23576532 -0.22713892 -0.22293521 -0.26494506

model/conv1d_4/BiasAdd/ReadVariableOp f4 [16]
000000 3a 6e 25 be 81 88 15 be be 51 36 be ef 7d 5c be
       -0.1615533 -0.14602853 -0.1780462 -0.21532415
000010 af ad 8a be 4d 06 65 be f1 1b 6d be 36 21 97 be
       -0.27085635 -0.22365685 -0.2315519 -0.29517525
000020 82 67 84 be 92 31 64 be f8 e4 16 be e9 c3 3e be
       -0.2586022 -0.22284535 -0.14735782 -0.18629421
000030 78 9b 82 be e3 62 18 be f5 bc 40 be bb 59 94 be
       -0.25509238 -0.14881472 -0.18822081 -0.2897471

model/conv1d_10/Conv1D f4 [16, 1, 1, 20]
000000 f4 4b b7 3e f7 75 23 3e f3 7b 55 3e a5 c7 19 3e
       0.35800135 0.15962969 0.20848064 0.15017565
000010 7a ce 5d 3e df 43 8b 3e 99 2e 87 be ae 4b 4d be
       0.21660796 0.2720022 -0.2640274 -0.20048401
000020 2e e8 24 39 c4 73 2b bd 7d 1e 8f 3e 2d 95 c6 bd
       0.00015726752 -0.04185845 0.27952948 -0.09696422
000030 f4 74 4c 3c d9 05 bc 3d 78 6d 1b 3e 17 ca d7 bc
       0.012479056 0.09180803 0.15178478 -0.026341481
000040 72 3e 04 3e ab 18 32 be c3 ab 15 be 56 db 3f be
       0.12914446 -0.17392223 -0.14616303 -0.18736014
000050 8c c0 2e bd 48 2c 8f 3a 28 d5 94 3d cc e0 91 be
       -0.042664096 0.0010923231 0.07267219 -0.2849182
000060 a7 03 b4 bb 6f b3 46 3b 90 c5 85 3d 1a 54 c2 3d
       -0.0054935995 0.0030319353 0.06531823 0.09488697
000070 a1 f4 7f 3f 64 a4 08 3e dc fd 84 3e bd 34 a7 3e
       0.9998265 0.1334396 0.2597493 0.32657424
000080 ac 9a 17 be d6 b1 b0 3d dd cf 5c 3b 19 b4 b1 3e
       -0.14805096 0.086276695 0.0033693232 0.34707716
000090 43 97 b7 be 60 77 af be 83 29 05 3e f8 63 c6 bc
       -0.3585759 -0.34270763 0.13004117 -0.02421759
0000a0 40 a8 52 be b5 52 ac 3e a4 80 71 3e c7 c7 9e be
       -0.20571995 0.3365685 0.23584229 -0.31011793
0000b0 98 98 59 3e d4 bc 33 be 79 fc 17 3e 90 ee 6b 3e
       0.21249616 -0.17552501 0.14842404 0.23040223
0000c0 c4 7f e0 bd b8 52 95 be 98 c7 48 3e f0 8a 92 be
       -0.10961869 -0.29164672 0.19607389 -0.28621626
0000d0 d5 0f 1b be 2e f1 71 3e fd 76 5b 3e 4c 06 1b be
       -0.15142758 0.23627159 0.21432109 -0.15139121
0000e0 a0 2c 8e 3e 39 39 97 3e 31 96 b3 be 11 32 ad 3d
       0.2776842 0.29535845 -0.35075524 0.08456815
0000f0 a2 25 29 be 28 ee aa be 49 5d 2d 3e 59 e2 9a 3e
       -0.16518262 -0.33384824 0.16930117 0.30250815
000100 d9 e9 77 3e 74 1b aa be ed 4f 5c be db d3 72 3e
       0.242103 -0.3322407 -0.21514864 0.23713629
000110 98 81 bc 3b ee 1c c2 3e e0 50 a1 3e 0c 87 63 bd
       0.0057527535 0.37912697 0.31507015 -0.055548713
000120 51 23 2f 3d 3a 55 97 3d a1 5c b3 3e 2f f1 35 3e
       0.04275829 0.073893026 0.35031608 0.17767785
000130 90 f8 ac 3e 65 59 f7 bd b3 ce c6 3e 31 fe c7 be
       0.33783388 -0.120775975 0.38829574 -0.3906112
000140 40 47 af be 93 db bd 3e ca 6a 6f be db 32 ec bc
       -0.34234047 0.37081584 -0.2338058 -0.028832844
000150 07 a7 0a be 06 b1 d8 3d fa 5a 94 3d ca d9 19 bd
       -0.13540278 0.105806395 0.07243915 -0.037561215
000160 d4 61 58 3d 52 87 32 3e 0d 7f be be 02 c0 cb 3e
       0.05282767 0.17434433 -0.37206307 0.39794928
000170 58 9c 9f 3e b9 bf ad be 92 ad 87 3e 5a 89 37 be
       0.31173968 -0.33935335 0.2649961 -0.17923489
000180 07 9c ff 3d 26 71 e4 3e fa 12 ae bd 70 f8 d1 bd
       0.12480932 0.44617575 -0.08499713 -0.10252464
000190 cc 03 31 be a7 57 9a 3e 55 47 36 3e 01 4b 8e 3e
       -0.17286605 0.30144998 0.17800649 0.27791598
0001a0 2d de bc 3e fe 6d 61 bc 7f 16 8a be 6f 18 a9 3d
       0.36888257 -0.013759134 -0.26970288 0.082566135
0001b0 f9 65 c1 3d b2 77 24 be 8e 4b a0 be a8 37 24 3e
       0.09443278 -0.16061285 -0.31307644 0.16036856
0001c0 fd 2c ce 3e 66 78 10 3e d9 9e a7 3e 9d b5 8f 3e
       0.40268698 0.14108428 0.3273838 0.28068247
0001d0 cc dc 45 be 17 d9 26 3e 9c 1b 93 3e c3 17 a9 3e
       -0.19322509 0.1629375 0.28732002 0.3302594
0001e0 6a 5e dd bd 7e 85 9b bd 85 b3 2b be 5a 20 ff 39
       -0.10809024 -0.07593821 -0.167677 0.00048661494
0001f0 89 83 d5 bd 43 1b 48 be 21 99 85 3e e7 b2 19 3e
       -0.10425479 -0.1954165 0.2609339 0.15009652
000200 f1 99 03 be ca 58 c7 3d ca c9 13 bd f2 b3 12 bd
       -0.12851693 0.09733732 -0.036081113 -0.03581614
000210 4b a2 26 bd 3f 22 b6 3b 9b 1c 34 3f d8 39 72 be
       -0.04068212 0.0055582817 0.7035615 -0.23654878
000220 50 01 26 3e d4 e4 8a 3c f4 25 1e 3e 8f 97 88 3d
       0.16211438 0.016954817 0.15444165 0.066695325
000230 8f 2f 01 3e e6 52 b3 bd 4a 3d 8c 3e 4b d3 0d be
       0.12615798 -0.08756046 0.2739051 -0.13850133
000240 ca 2a 5b 3d 77 60 fa bd a3 d5 24 3e 0f 7f e3 3d
       0.053507604 -0.122254305 0.16097121 0.11108219
000250 51 80 3b be 50 99 cd be 97 a3 65 3e bd a8 a1 bc
       -0.18310668 -0.4015603 0.22425686 -0.019733781
000260 ac 70 b2 3d b9 45 f1 bd fa d7 b9 3e 95 1e ea 3d
       0.08712897 -0.11780877 0.3629759 0.11431614
000270 06 a3 a0 3e b4 57 e9 3e 5c b8 d3 3e 9a df a7 3d
       0.31374377 0.45574725 0.41351593 0.081969455
000280 af 0f d4 3b 3e f2 4d 3e f5 68 ae bc 1b 3e 33 3e
       0.006471596 0.2011194 -0.021290282 0.1750416
000290 fc 9a 54 3e 2a 17 2e bb 5b ee a6 3e c9 71 d1 3e
       0.20762247 -0.00265641 0.32603726 0.40907124
0002a0 93 d2 ca 3e a1 ac f0 3d dd 8a 92 3d 3a c0 59 3e
       0.3961378 0.11751676 0.07155392 0.21264735
0002b0 bf 13 11 be 52 80 06 be f4 c6 9f 3e 34 8f c2 bd
       -0.14167689 -0.13134888 0.31206477 -0.0949997
0002c0 92 c8 3e be 6a 47 bf 3d 19 a6 b7 3e 2f 52 92 3e
       -0.18631199 0.09339793 0.3586891 0.28578326
0002d0 cc b3 35 3e 79 51 2d bd 79 23 67 3e 08 3a 5c be
       0.17744368 -0.042314027 0.22572125 -0.21506512
0002e0 5b 54 91 3e e8 be ce 3e 9d 3e 36 3e c7 e7 95 3e
       0.2838467 0.40380025 0.17797323 0.29278395
0002f0 79 81 99 3e b8 67 31 bb be 89 12 bc 5a f4 20 be
       0.29981592 -0.0027069878 -0.008943973 -0.15718213
000300 ef 03 99 bd 0e aa 51 be 19 5f 4d 3e db b0 f1 3d
       -0.074714534 -0.20475027 0.20055808 0.11801311
000310 0c 95 14 be 8b 6f 7d 3e 9a d7 eb 3e fe 6e a0 3e
       -0.14509982 0.24749582 0.46062928 0.3133468
000320 4b df ab be 6d 22 c7 3e 6a d0 4e be 6b b7 1a be
       -0.33568797 0.38893452 -0.20196691 -0.15109031
000330 15 c9 a6 3d 2c 4c b1 3e 6a 5b 27 3f 8c a0 6f 3e
       0.08143822 0.34628427 0.6537386 0.23401088
000340 6f 9c 90 3c 30 6d 05 3e 7a 89 78 be 52 b1 3c 3e
       0.017652718 0.13029933 -0.24271193 0.18427017
000350 18 d1 5d 3c 1e 55 17 3d 71 ea 84 3d 67 c5 08 bf
       0.013538621 0.03694641 0.06490029 -0.5342621
000360 cf 77 57 3e 16 a5 2f 3e 82 34 42 be d6 5d 96 3e
       0.21041797 0.17152819 -0.18965343 0.29368466
000370 c4 a2 45 3f a6 fc 83 3e f9 e0 40 bf e2 ad 38 3e
       0.77201486 0.25778693 -0.7534328 0.18035081
000380 c5 b4 1c be 9a 7b ab bc cf 3a a8 3e a0 bf 31 3c
       -0.15303333 -0.020932961 0.32857367 0.01084891
000390 a0 d3 94 be 12 ac 7f be f9 2c f3 bd 15 8b 9a bb
       -0.29067707 -0.24967983 -0.11873812 -0.004716287
0003a0 5b bd 59 be a6 a8 f1 3e e8 2b 0d 3f 56 f8 77 bc
       -0.2126364 0.4719898 0.5514512 -0.0151348915
0003b0 64 3a 41 be b5 65 1d be 4b 4f 84 bd c7 0d fc 3e
       -0.1886993 -0.1537083 -0.064604364 0.4922926
0003c0 b7 c6 c0 3e 7e bc 9f 3e b0 ea a3 3e dc 4b 8d 3d
       0.37651607 0.31198496 0.3201499 0.06899235
0003d0 ef 88 84 3d 65 1a f9 3d 53 71 a7 3e 72 1b 86 bd
       0.064714305 0.121632375 0.32703647 -0.065482035
0003e0 91 b0 d4 3d 7c 7a 8b be 22 14 ae 3d 37 ed 92 be
       0.1038524 -0.27241886 0.08499934 -0.28696606
0003f0 a8 a0 40 3e 7a 3e a7 3d 3a de 43 be 4a fc 2a 3e
       0.18811285 0.08166213 -0.19127741 0.16697803

model/conv1d_11/Conv1D f4 [16, 1, 3, 20]
000000 d5 86 51 3d ec 90 04 3e 0d 44 45 3e 53 4c 09 3e
       0.051153976 0.12945908 0.1926424 0.13408022
000010 4d dd fa 3e 08 b6 4d 3e c8 1d 94 bc 69 b6 8f 3c
       0.48996964 0.2008897 -0.018080607 0.017543035
000020 cc fd 46 3e 49 b8 bd 3e bb e0 8a 3e 32 9b 65 3e
       0.19432753 0.3705466 0.2712458 0.22422484
000030 01 de c7 3e d1 bd df 3e d6 f3 a3 3d 7f de dc 3d
       0.39036563 0.43699506 0.080054924 0.10784625
000040 7b a3 00 3f 46 9e b8 3b 1f 39 ef 3e 32 d4 a4 3e
       0.5024945 0.005634102 0.46723267 0.32193142
000050 45 af ba be 65 2b 12 3e 6d 01 15 3f 0a ce ce 3e
       -0.36461845 0.14274366 0.582053 0.4039157
000060 fc 3a 8a 3b 63 87 b8 3d e5 60 d3 3a 4a de 54 3e
       0.0042184573 0.09010198 0.0016126899 0.20787922
000070 ff 94 c2 bd 7d 9d f3 bd be 52 f8 bd cc 39 34 be
       -0.09501075 -0.11895273 -0.12125157 -0.17600173
000080 8f de 9d 3e d3 a9 c6 3c 90 b5 e3 bc 24 86 28 3d
       0.3083386 0.0242509 -0.027796537 0.04114355
000090 46 ee fd bc c0 71 ff 3c 30 6d 82 3d 67 a3 e5 bd
       -0.030997407 0.03118217 0.06368482 -0.11212807
0000a0 9a fc 89 be 86 8e 1a be bd e2 52 bd 6f cf 56 be
       -0.26950532 -0.15093431 -0.051485766 -0.20977567
0000b0 60 c7 23 3a 9f 6a 7e 3d bd f7 53 bd 8c 5e 54 3d
       0.0006247666 0.0621134 -0.051749934 0.05184798
0000c0 da 13 0e be 1b 0b cf 3e 48 1d d8 3e 73 1f 3d be
       -0.1387476 0.4043816 0.4220984 -0.18469028
0000d0 05 67 0a 3f 3c 4d 7a 3e 94 43 a2 bd 1c 64 fc 3c
       0.54063445 0.24443525 -0.07923046 0.030809455
0000e0 12 74 ca 3d 6c 8d 44 3c 54 71 d4 bd 19 ba a7 3e
       0.0988542 0.011996608 -0.10373178 0.3275917
0000f0 59 0b fc bc 0c f0 bd 3c a1 57 c8 3e 60 52 ce be
       -0.03076713 0.023185752 0.39129356 -0.40297222
000100 60 e2 f3 3d 77 d9 1c bd 37 85 b0 be c6 82 bd 3d
       0.11908412 -0.038293328 -0.34476635 0.09253459
000110 a5 2d a0 3e c5 da 93 3e 88 70 7f 3e eb 3a 1d bd
       0.31284824 0.28877845 0.24945271 -0.038386267
000120 2c 1a ad 3d a6 3e 88 3c f3 65 84 bd 34 be 46 3e
       0.084522575 0.016631436 -0.06464758 0.19408494
000130 71 79 20 3e 92 c7 5f 3e c2 2d 19 be fe 7e 05 3d
       0.15671326 0.21853474 -0.14958861 0.032591812
000140 4a f1 2d 3f bc 59 0a 3e e5 f6 c9 3e a5 85 1a bb
       0.679463 0.13510793 0.39446178 -0.0023578194
000150 3b c5 ca 3e 2f dc d5 bd 51 be 3f be c9 b5 26 3f
       0.396036 -0.10442387 -0.18724944 0.6512113
000160 c5 fc df 3c ff 62 08 3e c3 94 42 be 71 d7 83 3c
       0.02734221 0.13319014 -0.1900206 0.016093941
000170 4d e0 ce 3d a9 3a 77 be 57 97 04 3e f7 99 95 3e
       0.10101376 -0.24143471 0.12948357 0.29219028
000180 e9 d5 85 bd c8 d3 99 bb 4e ff 96 3d 3b c2 90 be
       -0.06534941 -0.0046944357 0.07372914 -0.28273186
000190 f5 15 9b 3d 76 97 0f be 1f b3 b7 be 74 72 32 3d
       0.07572547 -0.14022622 -0.35878846 0.043566182
0001a0 bd cc b0 3e 20 1a 2e be 5b ef 47 3e cd 7b 06 be
       0.34531203 -0.17002153 0.195249 -0.13133164
0001b0 5f 55 bd bd 47 ab ca 3e dc 25 a7 3e aa d4 9c be
       -0.09244799 0.395838 0.32646072 -0.30631
0001c0 e9 9a 8f 3e 20 4f 25 3e 90 03 53 bc 0b 52 7d bd
       0.28047875 0.16143465 -0.012879267 -0.06184582
0001d0 46 80 b0 3e f1 42 cc 3d ec a0 d2 bc 5b 6f 46 3e
       0.34472865 0.099737056 -0.0257115 0.19378416
0001e0 86 99 2f 3e 0d 05 27 be f4 5a 64 be 66 0f b6 be
       0.17148408 -0.1631052 -0.22300321 -0.35558623
0001f0 d0 ab bc bd c6 42 dd bd ee 95 9f be c2 1b 0d 3f
       -0.09212458 -0.10803752 -0.31169075 0.5512048
000200 43 8d a6 3d 63 13 2f 3e 80 7e 32 be 77 9c 87 be
       0.08132412 0.17097239 -0.17431068 -0.2648656
000210 e0 2f b7 be 5b 6a ca 3c 5d 4f e2 bb 8e 68 8a 3e
       -0.35778713 0.024708917 -0.0069064335 0.27032894
000220 ff 86 a9 3d 25 14 2d 3e 30 ac c8 3c 64 8e 85 bd
       0.082777016 0.16902216 0.024496168 -0.065212995
000230 1f e6 c4 bd b2 b4 3d be d2 7c 63 3e 8b 70 d9 3c
       -0.096142046 -0.18525961 0.22215584 0.026542922
000240 8d f3 12 bd ab 4c 2a 3e d1 95 45 be f9 b0 6e 3e
       -0.0358768 0.16630809 -0.19295432 0.23309697
000250 60 cc 1c be af 77 9c 3e 3e 19 fb 3d 26 6f ad 3e
       -0.15312338 0.3056006 0.12260674 0.33873862
000260 38 04 3c 3d 52 28 c2 3e b0 54 9e 3e 61 0e 06 be
       0.04590246 0.37921387 0.30923986 -0.13091423
000270 b5 d5 c2 be 45 dc 0a 3e 26 fd 83 3d d6 d7 10 3e
       -0.3805367 0.13560589 0.064447686 0.14144835
000280 36 20 7f 3e 65 bd bd bc 9b 3b 8e 3e e7 ac a8 bd
       0.24914631 -0.0231616 0.2777985 -0.082361035
000290 08 40 6e 3d 31 e7 b0 3e d2 92 19 be 5e 05 22 3e
       0.058166534 0.34551385 -0.14997414 0.1582236
0002a0 04 f3 dd 3e ba e8 18 3e 30 5d 95 3d a4 24 d4 bd
       0.4334947 0.14932528 0.07293165 -0.10358551
0002b0 43 57 8f 3d a0 ac d8 3e 95 32 45 3c 45 ca c9 bd
       0.06999066 0.42319202 0.0120359855 -0.09853033
0002c0 d3 a2 8f be 3d e6 2f 3f 7b d7 c0 3e b8 32 67 3e
       -0.28053913 0.6871069 0.376644 0.22577941
0002d0 e0 e9 3a 3e 83 f6 33 3d 0b b5 24 bd 13 25 e7 3d
       0.18253279 0.043936264 -0.04021172 0.11286368
0002e0 50 d0 a3 3e 91 44 b5 be db 8a c3 be ac f1 c1 3e
       0.31994867 -0.35403875 -0.38191876 0.37879694
0002f0 52 07 27 bd a5 10 8d bd c9 20 92 bc 9e d4 08 be
       -0.040778466 -0.0688794 -0.017837899 -0.13362357
000300 c4 b2 09 be a9 9d d2 3d 9a 04 a0 be 4f 3a 14 be
       -0.134471 0.102839775 -0.3125351 -0.14475368
000310 ba 9f bd be 8e d6 41 3e fb 9f 6b be 2b 94 14 be
       -0.37035924 0.18929502 -0.23010246 -0.14509647
000320 92 d9 d9 3b 4e d6 cf 3e cf 61 c2 3c c4 46 f6 3e
       0.006648251 0.4059319 0.02372828 0.48100865
000330 c5 b4 d1 3e ae 4b 1c 3e 05 1e 97 3e dc 32 e3 3d
       0.4095823 0.15263245 0.2951509 0.11093685
000340 30 91 27 3f 9f 1d 35 3e 8d 05 54 bc bb d5 a9 3e
       0.65455914 0.17687081 -0.012940777 0.33170876
000350 2d a0 15 3e fa 96 3d bd 41 d6 05 3f 68 9d bc be
       0.14611883 -0.04628656 0.5228005 -0.3683884
000360 5d ea 87 bd 61 9b 32 3e 36 9c c1 3c 38 33 96 3d
       -0.06636498 0.17442085 0.023634057 0.07333988
000370 ae a3 6b be 7c 5a 0d 3e 9f 70 14 3c ef d9 b6 3d
       -0.23011658 0.13804048 0.009060054 0.08928286
000380 2c 77 7f 3e d6 a9 94 be 52 fa bc be 2a ea 08 be
       0.24947804 -0.29035825 -0.3690973 -0.13370577
000390 c4 61 83 be e6 bd 05 3e 9c c9 ad 3d f1 c8 08 3d
       -0.25660527 0.13060722 0.084857196 0.033394758
0003a0 46 f2 22 3d de 3e 7a 3e 5d 31 4e 3c 1e 1b ed bd
       0.03978183 0.24438044 0.012585011 -0.11577438
0003b0 70 bf c5 bd cd 2d db bd 24 0e cb bd 4c e9 99 3e
       -0.096556544 -0.10702095 -0.099148065 0.30060804
0003c0 79 4f e5 3c cf e0 42 3f 26 b2 4e 3e ee d6 37 3c
       0.027991997 0.7612428 0.20185146 0.011220677
0003d0 db 07 82 bd 94 2f 4c be 58 55 36 be 5e db b2 3b
       -0.063491546 -0.19940025 -0.17805994 0.0054582795
0003e0 47 8d cf bd a8 75 31 be 6b ed 02 be b0 0d 8b 3e
       -0.101343684 -0.17330039 -0.1278588 0.2715888
0003f0 ce 86 64 be 9b b4 c9 3d 71 59 c4 bb c1 a3 d0 bd
       -0.22317049 0.09848901 -0.0059921076 -0.101874836

model/conv1d_12/Conv1D f4 [16, 1, 5, 20]
000000 16 63 f5 3e 50 2a cc bd 6a cb d5 be 27 98 63 bd
       0.4792716 -0.09969008 -0.41756755 -0.055565026
000010 09 38 13 be 4c f7 4d bd b4 49 8c bd 02 52 0f 3f
       -0.14376844 -0.05028467 -0.06849995 0.5598451
000020 56 6f fe be da e4 21 be 58 c9 e3 3c 9e 52 d9 bd
       -0.49694318 -0.15809956 0.02780597 -0.10611461
000030 15 01 07 be 8d 55 0f bd 6e e1 7e bd 68 19 20 bd
       -0.13184007 -0.034993697 -0.062226705 -0.03908673
000040 8e fe 9e bc 38 2e f2 3d fa 5a 7a be 4f d9 15 be
       -0.01940849 0.11825222 -0.24448767 -0.14633678
000050 29 b4 0e 3f cc 74 7d 3e b8 98 4b be 68 4d 94 bd
       0.5574365 0.24751586 -0.19882476 -0.072413266
000060 37 5d c5 3e 84 ff 48 3e 07 37 07 be 44 41 75 3e
       0.3854768 0.19628721 -0.13204585 0.23950678
000070 2a 18 a1 be c7 8c d6 3c 7b 2c fe bc d4 fa c3 3d
       -0.31463748 0.026190175 -0.03102707 0.09569326
000080 b0 68 1a be 5e 1b f8 bb d1 62 8f 3e 5a bf b5 3e
       -0.15078998 -0.007571622 0.28005078 0.35497552
000090 4b fe 75 3e b3 c2 81 bd 17 96 e6 3d 0a 31 01 3e
       0.24022786 -0.06335964 0.11259096 0.12616363
0000a0 fa d7 6b 3e 90 bc 50 3e 1a 03 05 3d 3f 94 e1 bd
       0.23031607 0.20384431 0.03247366 -0.11014604
0000b0 3f e1 8f 3e ce 5c 81 3e e5 c5 a4 3d 26 35 00 bc
       0.28101537 0.25266117 0.08045558 -0.007825172
0000c0 d7 c9 8a 3e b2 eb 40 3d 86 91 98 bc 3e 10 16 3e
       0.27107117 0.047099777 -0.018624078 0.14654633
0000d0 85 d8 75 3e e0 58 dd 3c 61 7c 7c 3e d4 ad 37 bd
       0.24008377 0.027019918 0.24656822 -0.04484351
0000e0 86 a0 06 3b 41 8f b0 3d 3a 1c 46 3e 45 ba 84 3e
       0.0020542457 0.086210735 0.19346705 0.25923362
0000f0 8f 75 b2 bd 15 22 80 3e 55 b9 26 3d 93 f3 76 3d
       -0.08713829 0.25026003 0.04070409 0.060290884
000100 9d 49 c1 3d 29 5f f0 3c 98 7f 74 3e c8 73 6e 3d
       0.09437869 0.02934225 0.23876798 0.058215886
000110 94 59 3e 3e 2a a8 e4 bc d5 af 81 bd 25 0f ca 3e
       0.18588859 -0.027912218 -0.063323654 0.3946468
000120 73 55 52 3e 86 01 d6 bc e6 16 ec 3d 50 5f 2a be
       0.20540409 -0.026123773 0.11527805 -0.16637921
000130 0c 6c 23 be 59 fe be bc 41 be 9c bc 23 b4 8b 3d
       -0.15959185 -0.023314642 -0.019133689 0.06821468
000140 e1 21 6d be 9a 61 c0 3d ac 3e a8 3e 27 32 a7 3e
       -0.23157455 0.09393616 0.32860315 0.3265545
000150 9f bb 1f 3d bd 9b 29 3f 18 2f 9b 3a b1 7b 69 3e
       0.03899729 0.6625326 0.0011839597 0.22801091
000160 56 0d ef 3e 62 74 cb 3d 04 28 a9 3e a5 df 16 be
       0.46689862 0.09934308 0.33038342 -0.14733751
000170 a6 ce 99 3e 9b 00 23 bd 0a ea d8 bd af bf 2b be
       0.30040473 -0.0397955 -0.105915144 -0.1677234
000180 94 39 5b bd 1a e7 42 3e 59 6e 8f 3e 27 21 6b 3e
       -0.053521708 0.19033471 0.28013876 0.22961865
000190 4d c5 c7 3d 67 bf 54 3e 01 a1 db 3d 9a b4 2a 3e
       0.09754429 0.20776139 0.107240684 0.16670457
0001a0 88 c7 01 bd 61 e4 25 3e b3 d9 2c bd 84 87 46 3e
       -0.03168443 0.16200401 -0.0421998 0.19387633
0001b0 fb 34 ae bc 32 a0 0b bd 66 f3 56 3d 48 6b 0a 3d
       -0.021265497 -0.03408832 0.052478217 0.033793718
0001c0 fd 4c 45 3d 10 4a 6c bd 5e fd bb 3e 35 94 26 3e
       0.048169125 -0.05768782 0.3671674 0.16267474
0001d0 25 7e c3 3e 1a 4e d2 3d 87 d2 b5 3c 38 48 07 3e
       0.38182178 0.10268803 0.022195114 0.13211143
0001e0 8e 06 19 3f 87 c4 95 bd e5 65 25 be f0 48 9f 3e
       0.59775627 -0.07312875 -0.16152151 0.31110334
0001f0 2d 61 d5 3e f5 cc 7c 3e 1d 2e 98 3c 38 65 f2 3d
       0.41675702 0.2468756 0.018576676 0.11835712
000200 d9 14 20 be c2 43 21 3e 3f 8f 62 3e c5 b1 90 bd
       -0.15632953 0.15748504 0.22124957 -0.07065157
000210 a5 12 11 3e 35 09 37 3e 20 c6 af 3e 68 2e d6 3d
       0.14167269 0.17874606 0.34330845 0.1045807
000220 f5 19 aa 3e 02 34 9b 3d c6 6c e5 3d bb f5 6a 3e
       0.3322293 0.07578279 0.112023875 0.22945301
000230 e0 ff cf 3e c2 b7 60 3e 85 e9 e5 bb 53 1c cf 3d
       0.40624905 0.21945098 -0.007016363 0.10112824
000240 ec 88 4e 3d 92 d4 99 3e 64 3a cb 3e 25 9b a0 3d
       0.050423548 0.3004499 0.39692986 0.078420915
000250 29 1e 13 3e 75 1b f3 3b 9c fc 26 3d b4 e1 45 3e
       0.14366974 0.0074190446 0.04076825 0.1932438
000260 dc 7c f1 3d 11 48 59 be 44 34 df 3e 8b 75 c5 bd
       0.11791393 -0.21218897 0.43594563 -0.0964156
000270 77 19 8f be e4 4e 87 3e 84 c7 48 3d b6 6e 84 3a
       -0.27949116 0.26427376 0.049018398 0.0010103795
000280 58 9a d9 bd 34 f1 f8 3d d2 50 a7 3e 2d ef ce 3c
       -0.10625142 0.12155381 0.32678849 0.025260532
000290 c2 8a ed 3d 7f 3f 9a 3e d9 34 d7 3e 1d 08 4d be
       0.115987316 0.3012657 0.42032507 -0.20022626
0002a0 82 37 46 3e 30 46 26 3e 04 c3 24 3d 87 33 66 ba
       0.19357112 0.16237712 0.040225044 -0.0008781482
0002b0 16 b8 24 bc b9 56 86 bd 19 86 54 be 9e 12 bb be
       -0.010053655 -0.0655951 -0.20754279 -0.3653764
0002c0 03 b7 c6 bd 51 69 3a 3e 85 6f 06 bd 1c 85 a7 3c
       -0.097028755 0.18204238 -0.032821197 0.020449214
0002d0 97 94 20 3f 53 0d 7e 3d 6e 83 71 be 08 c7 a5 3d
       0.6272673 0.062024426 -0.23585293 0.08094603
0002e0 d2 4c b3 bd 42 b9 17 3c 94 33 1e be cb 5e 20 3e
       -0.08754887 0.0092604775 -0.15449363 0.1566116
0002f0 e9 14 10 be a0 2e 9b 3e f2 7d cd 3d 34 7c 98 bd
       -0.14070477 0.3030901 0.10033788 -0.07445565
000300 a3 4d 16 3e 3f e4 7e 3d e8 5c 0c 3e 09 99 6b 3e
       0.14678054 0.06222939 0.13707316 0.23007597
000310 7b 5d be 3d 6f c3 08 3e 0b cb 83 3c e2 4d 62 3e
       0.09295174 0.13355802 0.01608803 0.22100022
000320 4d f7 7a 3c 78 e4 3a bb 13 c2 33 3e de 9e 97 bd
       0.01531775 -0.0028517526 0.17554502 -0.074033484
000330 e4 7d e8 bd e5 7a ef bd 37 46 51 3e 73 63 40 3c
       -0.11352137 -0.11693362 0.20436941 0.011742461
000340 47 ea 1f 3e aa 50 62 bd 9e bb 32 3b 49 c6 a1 bd
       0.15616713 -0.05525271 0.0027272473 -0.07899148
000350 08 fd b7 3d d3 c5 d0 bd 93 b8 9e bc 0e 30 1f 3e
       0.08983809 -0.10193982 -0.019375121 0.15545675
000360 08 fa a3 3d 10 e7 68 3e e8 13 d6 bc 7a f1 0a 3e
       0.08006674 0.22744393 -0.026132539 0.13568678
000370 4c 21 01 3e 66 3c 2d 3d 28 67 97 3d fc 2b ff 3c
       0.12610358 0.04229393 0.07392722 0.031148903
000380 74 8e 9d 3d b6 82 8b bd d4 36 bd bd 4f bb d1 3c
       0.076931864 -0.068120405 -0.09238973 0.025602011
000390 00 4f bb 3d 8a 1d 12 bd e2 15 76 bd 98 70 27 be
       0.091459274 -0.035672702 -0.060079463 -0.16351545
0003a0 6c 21 b8 bd 95 25 eb 3d 24 69 66 3e 2f a7 4e 3d
       -0.0899075 0.114817776 0.22501045 0.050452407
0003b0 2c 2e 5a bd 38 fd 36 3e 62 7a 12 be 85 27 57 3c
       -0.05326669 0.17870033 -0.14304498 0.013131981
0003c0 39 0e 9d 3d d3 31 ec bd ce d1 a6 bd 7e 9b ed 3d
       0.076687284 -0.11532941 -0.08145486 0.116019234
0003d0 61 f0 17 3e 68 6e 2b bc 64 49 80 bd e6 46 e8 3d
       0.14837791 -0.010463335 -0.06263998 0.11341648
0003e0 9d 70 fd 3b 9d a7 e7 bc 20 15 dd bd 89 23 12 3e
       0.007734372 -0.028278166 -0.10795045 0.14271368
0003f0 bc 31 ef 3d 59 da 4c 3e cc 4d fd bc 8c 0f 15 3e
       0.11679408 0.20005168 -0.030920886 0.14556712

model/conv1d_13/Conv1D f4 [16, 1, 7, 20]
000000 0a e7 94 bc 5f 25 e8 3c 28 5a aa 3d bd e9 81 bd
       -0.018176574 0.028338132 0.08317977 -0.0634341
000010 e5 57 fc bd ce ac 87 3d 11 ec f5 bc 74 5e 37 3d
       -0.12321452 0.06624757 -0.030019792 0.044767812
000020 51 28 b4 bb a9 40 f3 3d f0 50 e5 bd 4d b1 78 3c
       -0.00549797 0.11877567 -0.11197078 0.015178991
000030 62 28 ed bd d3 29 eb bd 57 55 a0 3b 8d 45 55 3c
       -0.11579968 -0.11482587 0.004892986 0.0130170705
000040 27 d3 3f 3c 8e bc 8c 3d 9e 5a d1 3c 08 5e 97 3d
       0.0117080575 0.068719015 0.025555905 0.07390982
000050 93 1b 7d bd d9 ec 2a 3e 8c 95 e3 bd 6a f9 cc bd
       -0.061793875 0.16691913 -0.11112508 -0.100085095
000060 cb 87 6b 3d 1c 83 f5 bd 7a 87 af 3c 33 ae d4 3d
       0.05750255 -0.11987898 0.021426905 0.10384788
000070 64 48 ed 3d 12 a5 8e 3d 3b 57 55 3c 73 ac 83 3d
       0.11586073 0.069650784 0.013021286 0.064293765
000080 c8 04 bb 3c d1 b1 0c 3e 66 7f ae 3d bc 04 5c bd
       0.022829428 0.13739707 0.08520393 -0.053715453
000090 91 7e 30 3e 7a 09 16 bc b4 6d ab 3d 25 71 21 be
       0.17235781 -0.009157533 0.083705336 -0.15765817
0000a0 04 1a 23 3e 5c 4a 91 3a 1e a5 16 3d 0b 71 b7 3d
       0.15927893 0.0011084783 0.03677856 0.08957108
0000b0 65 49 69 3c 66 1e 0f 3e f4 e0 aa 3d ac 6e ef bc
       0.01423869 0.1397644 0.08343688 -0.029227577
0000c0 87 27 8f bb a3 dd 73 3d 33 55 46 bd 29 76 75 bc
       -0.0043687257 0.05953754 -0.048421096 -0.014981785
0000d0 ad da d0 3c 27 e5 9c 3c 96 e3 30 3e 87 17 b3 3d
       0.025494898 0.019152237 0.17274317 0.08744722
0000e0 b0 6c a5 bd 89 3f 29 3e fc 2a d9 3d f5 a0 cf bd
       -0.08077371 0.16528143 0.10603902 -0.10138122
0000f0 5f 2d 07 3e 6c 6d cf bc d8 2f 33 bd e6 f0 9b 3d
       0.13200901 -0.025320731 -0.0437468 0.07614307
000100 86 e3 24 bd 6c 08 1e bd f1 47 f8 ba a2 de b5 3d
       -0.040256046 -0.03858225 -0.0018942339 0.088803545
000110 40 2a a9 bd 3c 16 4b bd 28 36 1e bd f2 d6 ae 3b
       -0.08260012 -0.04958175 -0.038625866 0.005335682
000120 23 e7 0b 3e 64 54 11 3e 72 d2 2d 3e 66 1a b5 3d
       0.1366239 0.14192349 0.1697481 0.08842926
000130 87 a7 73 bd c3 ba e5 3d ad 2c a4 3d 45 c1 6a 3d
       -0.05948594 0.112172626 0.08016334 0.057313222
000140 96 81 02 3e 09 b7 c1 bc d0 54 9e 3d 03 33 d4 3d
       0.12744746 -0.023646848 0.077310205 0.10361292
000150 d6 7b e2 3d b5 43 c0 3c 05 96 ce 3d 5f a6 60 3d
       0.11058776 0.023469785 0.10087208 0.054846164
000160 14 75 88 bc 84 42 51 bd f6 5d 06 bc 9b 42 09 3e
       -0.01665739 -0.051088825 -0.008201113 0.13404314
000170 4e 5a 5b 3d 24 6a 21 3e 2f 28 c9 3c 5a 62 db bd
       0.053552918 0.15763146 0.024555294 -0.107121184
000180 f8 17 89 bd be d4 a1 3c 27 0a eb bd a3 32 96 3d
       -0.06694025 0.019754764 -0.11476546 0.07333877
000190 c7 b6 8e 3b 49 84 ab 3d 23 b3 a9 bd 16 28 ef bd
       0.004355285 0.08374841 -0.08286121 -0.11677568
0001a0 f3 0e 08 be 50 08 b5 bd f3 e8 31 bc 6c a7 66 3d
       -0.13286953 -0.08839476 -0.010858762 0.05631201
0001b0 60 d3 45 3d aa 14 93 3d 48 0d c1 bc 87 fb 95 3d
       0.048297286 0.07181676 -0.023565903 0.07323366
0001c0 23 c9 02 3e 66 27 af 3d 7b de fd 3d 94 7d b9 3c
       0.1277204 0.085524365 0.123959504 0.022642888
0001d0 b9 32 78 bc 50 e0 aa bb a9 2e 9e bd 2d bd b5 bd
       -0.015148812 -0.0052147284 -0.077237435 -0.08873973
0001e0 aa b5 1e 3e 13 ff 95 bd e4 19 1b 3d 74 84 eb 3d
       0.15498987 -0.07324042 0.037866488 0.11499873
0001f0 3d f5 89 bd 83 54 a9 bc 3b b7 ed bd 60 54 1e 3d
       -0.067362286 -0.020670181 -0.11607214 0.038654685
000200 3e 93 b4 3d 6d c0 b1 bd d8 50 a4 bd 6f 84 97 bd
       0.08817147 -0.086792804 -0.08023232 -0.073983066
000210 a8 8a 12 3e 9e 6f 1c 3e e9 fd e1 3d 74 5d 55 3d
       0.14310706 0.15276954 0.11034758 0.052091077
000220 50 ee 35 3b 54 05 79 3d 4d 5d dd bd c9 1e f8 bd
       0.0027760454 0.060796097 -0.10808811 -0.12115247
000230 29 7c fb bd 74 2d 91 3e f2 df 91 bd cd d0 89 bd
       -0.12279541 0.2835499 -0.07122792 -0.06729279
000240 eb 78 8a 3e 07 b4 a4 3e 36 1d 9f 3e c3 e1 21 be
       0.27045378 0.321686 0.31076974 -0.15808778
000250 90 3a b1 3e 79 1a 2d 3e ab 8c 9f 3e d3 4b 1c 3e
       0.34614992 0.1690463 0.3116201 0.152633
000260 c6 63 b5 3e 34 6d f0 3e 3e 85 09 3e dc 29 c9 bc
       0.35427684 0.46958315 0.13429734 -0.024556093
000270 5d 38 1f 3e 30 5c 80 3e f8 da 84 3e 2d fb e6 3d
       0.15548845 0.25070333 0.2594831 0.11278377
000280 5b d2 14 3e c8 bc f7 3d 47 0e 34 3e 76 84 08 3e
       0.14533369 0.12096554 0.17583571 0.1333178
000290 ea 43 98 3e b2 c8 c9 3e 3e 5f a6 3e 95 25 16 3d
       0.29739314 0.3941093 0.3249454 0.036656935
0002a0 cf c2 9e 3e 2c 45 cd 3c a3 17 bb 3d 4c 42 16 3e
       0.31008002 0.025057398 0.09135368 0.14673728
0002b0 05 b9 5e 3e aa 9b 25 3c 77 5f b1 3e 86 38 20 3d
       0.21750267 0.010107914 0.34643146 0.039116405
0002c0 c1 87 95 3d e6 fd 39 3d 12 f8 a8 3d 1b 7a 0d 3e
       0.07301284 0.045408152 0.08250441 0.13816111
0002d0 3b a7 5c be 92 6e df 3d bb 74 41 3d 2d b1 ac be
       -0.21548168 0.109097615 0.047230463 -0.33728924
0002e0 36 15 7c 3e e0 ad 2a be bd 0f 91 be e8 7f 77 3c
       0.24617466 -0.1666789 -0.2833232 0.015106179
0002f0 42 5e a5 bd 51 26 16 3e 32 ef 92 3d e3 7d e7 bd
       -0.08074619 0.14663054 0.07174529 -0.11303308
000300 8b 6d 43 3e 09 95 6b 3d 86 df 3b bd b6 94 33 be
       0.19084756 0.057515178 -0.045867465 -0.17537197
000310 01 58 c6 3d 23 bd 08 bd 3d 42 5f 3e 6e e6 90 3e
       0.09684754 -0.0333835 0.21802612 0.28300804
000320 c8 de 3e 3e 3c db 83 be c3 93 e3 bd 6b 4f 24 be
       0.18639672 -0.257532 -0.11112168 -0.1604592
000330 18 52 e7 3e ef 1d 3f be 15 5d d3 3d 54 4d 4a bd
       0.4517982 -0.18663763 0.10320488 -0.049390152
000340 fd 0c 3a 3c 2d 21 9d 3b a6 7a cf 3e cb df 92 be
       0.011355636 0.0047952146 0.4052326 -0.28686365
000350 fc 06 4d 3e a9 a3 cc 3e c0 51 55 3e b1 51 e8 3d
       0.20022196 0.39968613 0.20831966 0.113437064
000360 53 df 0e bd 0e ba 01 3f 2b f9 9f 3e 32 17 ca 3c
       -0.034880947 0.5067452 0.31244788 0.024669264
000370 73 3c e1 3b 05 4d 9a 3d 3d 97 8e bd 8e 52 17 be
       0.006873661 0.075342216 -0.0696244 -0.14777586
000380 22 69 72 3e 52 38 9f 3d 28 77 f0 3d 08 5c 82 3d
       0.23672917 0.07774414 0.11741477 0.0636521
000390 7c 43 39 bd fb b9 14 3d 63 19 0d 3e 82 a5 2e 3d
       -0.045230374 0.036310177 0.13779216 0.04263831
0003a0 c0 23 fd 3d 22 68 e3 3d 4d 1b d6 3d ba 44 6c be
       0.123603344 0.11103846 0.10454426 -0.23073092
0003b0 07 f8 28 be a9 84 e8 3c 26 e3 13 3d e4 6b 2e 3e
       -0.16500865 0.02838357 0.036105298 0.17033345
0003c0 d1 6e ba bd 15 c2 76 bd b6 f1 12 3e d0 7d ce 3c
       -0.09103168 -0.060243685 0.14350018 0.025206476
0003d0 6a f2 c3 3d f4 63 9b bd 41 28 be 3c 51 82 bf 3d
       0.09567721 -0.07587424 0.023212554 0.09351028
0003e0 31 59 af bc ee cb 56 3e cf 67 e2 3d 3c 64 5c bd
       -0.021404834 0.2097623 0.11054956 -0.05380653
0003f0 a8 61 13 3d 82 52 53 3e 72 65 bb 3d 6b 89 55 bd
       0.035981804 0.20636943 0.091502085 -0.052133005

model/conv1d_14/Conv1D f4 [16, 1, 9, 20]
000000 d4 da 96 be fe 84 98 3c ec bb 4b 3e bf 3a dc ba
       -0.29463828 0.018618103 0.19895905 -0.0016802176
000010 ad 01 16 3e 26 cc e3 bd 92 95 8b bd 96 37 fe 3c
       0.14649077 -0.111229226 -0.06815638 0.031032365
000020 c2 45 c7 3d af 91 37 3e 1f c3 9c 3d 10 d3 04 3d
       0.09730102 0.17926668 0.07654404 0.032427847
000030 30 57 85 3e 53 91 80 3e 93 3d 07 3e 59 08 53 be
       0.2604308 0.25110874 0.13207082 -0.20608653
000040 8e c3 aa be 3b c9 22 3e 72 bc 61 3e 58 c9 62 3d
       -0.3335232 0.15897076 0.22044542 0.055367798
000050 9b 54 0e 3e fe 3d 30 bd 38 02 2d be 03 81 0a be
       0.13899462 -0.04302787 -0.16895378 -0.13525777
000060 6f b4 5b 3e 1e 9e dd 3c e0 15 70 bd 31 eb 80 3d
       0.21455549 0.027052935 -0.05861461 0.06294859
000070 da 10 9b bd da c5 79 3d 25 62 7c 3e cf 1f 06 be
       -0.075715736 0.0609797 0.24646814 -0.13098072
000080 46 c7 50 3e bf 50 d0 3c 54 74 21 3e d5 0a 82 bd
       0.20388517 0.025429128 0.15767032 -0.06349722
000090 3c db 90 3e 74 ad 2a bd 43 62 c2 bd 7c 43 37 3e
       0.28292263 -0.041669324 -0.09491398 0.17896837
0000a0 65 41 4b 3e 80 32 1a be b6 07 1f be cb d4 9c 3d
       0.19849165 -0.15058327 -0.15530285 0.076577745
0000b0 2f d0 35 3d 86 9a 06 be 14 68 4f be dd 64 a7 3e
       0.044387992 -0.13144884 -0.20254546 0.3269414
0000c0 95 f9 c0 bd bb fe ef bc b4 bc 35 bd aa 07 ab be
       -0.09422604 -0.02929627 -0.044369414 -0.33404285
0000d0 54 f8 7b bd 10 69 e5 3b 2c e5 16 3d 84 70 d1 3d
       -0.06151612 0.00700105 0.03683965 0.10226539
0000e0 56 d1 1c be 76 e7 17 3e 17 0f 0a 3d 7c cf 67 3c
       -0.1531423 0.14834389 0.033705797 0.014148589
0000f0 81 16 05 be bb 23 0a 3e c4 9e ab 3e 4e 36 9f 3e
       -0.12996866 0.13490193 0.33519566 0.3109612
000100 83 16 8b 3e 4d 0c c9 3d be 15 f1 3e 8c dd df ba
       0.27165613 0.09816799 0.470869 -0.0017079576
000110 90 0a d6 3e 61 51 01 3d 75 b4 46 bd 58 d4 75 3a
       0.41804934 0.03157175 -0.04851194 0.000937765
000120 13 7a a3 bc a5 96 67 3e 4c 02 56 3e 2b 1b 02 bc
       -0.01995567 0.2261606 0.20899314 -0.007941048
000130 a8 3c 46 3e 3e f6 84 3e bd ad 71 3e 27 7a 0b 3d
       0.19359076 0.25969118 0.23601432 0.03405204
000140 62 3e 12 3e e8 ba ff 3d 65 bd da 3d 5b 5d e9 3d
       0.1428161 0.124868214 0.106806554 0.11394759
000150 75 28 10 3d 48 58 10 bd 8c 06 8c 3c 5f 1a c7 3e
       0.035194833 -0.03524044 0.017092966 0.38887307
000160 e0 ac ce 3d 2e 9d fe 3d ba 6c 0e 3e 1d e3 d5 bd
       0.10091567 0.124323234 0.13908663 -0.10443709
000170 f3 44 23 3e fb b4 0b bd e7 01 b2 3e d8 81 56 3e
       0.15944271 -0.034108143 0.34767076 0.20947969
000180 0a 2f 9e 3d 6f 51 1b 3e ec 48 00 3e 66 03 07 3e
       0.07723816 0.15167783 0.12527817 0.1318489
000190 ff 8b 63 3e 46 72 e9 bc ae bd 3a be 48 6a 85 ba
       0.22221373 -0.028496873 -0.1823642 -0.0010178769
0001a0 22 6a f5 3d 50 60 0d 3e d4 d3 db bd 44 93 44 3d
       0.11983134 0.13806272 -0.107337624 0.047992006
0001b0 d6 69 13 3d 14 2d a6 3e 20 07 97 3e 6b b3 53 bc
       0.035989605 0.32456267 0.29497623 -0.012921195
0001c0 8c d6 bc 3e 36 25 95 3e 10 58 26 bd 32 f2 ad 3a
       0.36882436 0.29129952 -0.040611327 0.0013271032
0001d0 e1 7d 6d 3e c3 6d 37 3e 67 01 e2 3d e4 f2 81 3e
       0.2319255 0.17912965 0.11035424 0.25380623
0001e0 7e e4 8d 3d ad 4b ff 3c c7 96 e0 bc be 02 7d bd
       0.06928347 0.031164015 -0.027415646 -0.061770193
0001f0 d4 94 98 3e ac 75 f1 bd ec 6b 10 be 48 aa d8 3b
       0.29801047 -0.11790022 -0.14103669 0.006612096
000200 40 b6 ef bc 9e 47 b7 3e da 2d 02 3e db 42 19 be
       -0.029261708 0.35796827 0.12712803 -0.1496691
000210 9c 54 a3 3d 62 63 d5 3d 2f da 10 3e f7 ec e9 3d
       0.07975122 0.104193464 0.1414573 0.114221506
000220 18 18 c4 3e 05 42 8d bd 71 80 cc 3c dc 2a a9 3e
       0.38299632 -0.06897358 0.02496359 0.33040512
000230 5e 5d 94 3e dd c6 01 3e 64 08 18 bd 40 f1 14 3d
       0.28977484 0.12673517 -0.037117377 0.036362886
000240 96 89 2a 3e 90 94 9f bb 9a 74 e9 bd bc d7 84 3e
       0.16654047 -0.004870005 -0.11399193 0.25945842
000250 6b f3 4f 3e 0c 09 d5 3d e5 7d 84 3d cd d5 64 3e
       0.203077 0.10402116 0.06469325 0.22347184
000260 a3 ad 26 3e 71 1e 46 3e 95 85 0b 3e d7 a6 b7 3e
       0.16277175 0.1934755 0.13625176 0.35869476
000270 d5 8c 80 3e 58 41 c5 3d fe 44 bd bc e4 c5 5c 3e
       0.25107446 0.09631604 -0.023104187 0.21559864
000280 4d eb 61 bd 2e 75 08 be bf 08 b6 3e 80 71 cc 3e
       -0.05515604 -0.1332595 0.35553548 0.39930344
000290 5e 62 d1 bc dd 7f 25 3e 19 e7 a7 3e ea 41 1f 3d
       -0.0255596 0.16162057 0.327935 0.03888122
0002a0 55 a5 ac 3e 3a 59 8c 3d 9c 30 af 3d 93 ab 4f 3e
       0.33719888 0.06852956 0.085541934 0.20280294
0002b0 5d 33 1a 3e 5a 27 86 bd 89 5d 0d be ab db dc 3e
       0.15058656 -0.065504745 -0.13805212 0.43136343
0002c0 57 2c 41 3e b7 36 11 be 87 dc 5b bc 3f 3f 9b 3c
       0.1886457 -0.14181028 -0.013419277 0.018951057
0002d0 55 b0 42 bd 21 73 16 3d 2f 26 c0 3d 4e f8 16 3d
       -0.047531445 0.03673089 0.09382283 0.036857896
0002e0 16 34 a3 3c b2 95 8d 3d 05 62 87 bd 1d 33 b4 3d
       0.019922297 0.06913318 -0.066104926 0.087988116
0002f0 1a 17 6c 3d 20 cf a3 3d 76 7a 65 3d 5b e2 61 3d
       0.05763922 0.0799849 0.05602499 0.05514751
000300 d7 17 05 3e 6f 21 e3 3d 2e fb 00 3e c3 ab 16 be
       0.12997375 0.11090361 0.12595817 -0.1471396
000310 38 22 58 3c 9e 3b 7b 3d 71 30 de 3d dd 88 b1 bd
       0.013191752 0.061336152 0.10849083 -0.08668683
000320 5c 89 22 3e 43 b8 91 3d f2 64 86 3d 9f 54 40 bc
       0.15872711 0.07115223 0.065622225 -0.011738925
000330 b9 75 52 3d 52 54 6c 3d a5 8b cd 3d 68 da 78 3d
       0.0513818 0.0576976 0.10036401 0.060755163
000340 42 a6 96 3d d7 12 ed 3d ce 9c 1d 3e a2 5c 93 3d
       0.0735593 0.11575859 0.15391847 0.07195403
000350 2b 75 75 bd e8 b1 39 bd b3 94 0c bd 5c 92 9e 3d
       -0.059926193 -0.04533568 -0.034321498 0.077427596
000360 39 0a 18 bd e0 6a 0c bd 40 cb 23 3e 2c 86 18 bc
       -0.037119124 -0.03428161 0.15995502 -0.009309333
000370 6e a8 04 3c 70 d8 e2 3d a1 46 53 3d 39 68 ce bd
       0.008096797 0.110764384 0.05158103 -0.10078473
000380 b5 6b 33 3e 2a ed 9e 3d 9a 86 fd bd c8 e7 da bd
       0.17521556 0.07760079 -0.12379189 -0.1068874
000390 77 82 d4 3d 69 83 86 bb 48 4c c8 3d 53 00 7e bd
       0.10376447 -0.004105021 0.097801745 -0.062012028
0003a0 da a8 8d bd 6b f3 98 3d bd 96 56 3e 39 45 45 bd
       -0.069169715 0.07468303 0.2095594 -0.04816172
0003b0 63 c9 a9 3d 2b 36 06 3e 2d ac ee 3c e0 1a e2 3d
       0.082903646 0.13106601 0.029134834 0.11040282
0003c0 ca a6 80 3d 10 06 f3 3a 57 ab f3 bd cf 27 3e bd
       0.062818125 0.0018541235 -0.11897915 -0.046424683
0003d0 b4 6d 05 3e ee 10 ae 3d de 6f 05 3d 44 91 87 bd
       0.1303013 0.08499323 0.032577388 -0.06619504
0003e0 e3 2e 9c 3d 25 b1 87 bc 68 4d b5 3d 24 63 9d 3d
       0.076261304 -0.016563961 0.08852655 0.07684925
0003f0 6c 97 7d bc 4e 4e 37 3d 10 d1 48 bd 36 88 fe bc
       -0.015477996 0.04475241 -0.049027503 -0.03107081
